cnn_agent_best.pt (torch, 946735 bytes, 7 tensors)

conv1.weight f4 [32, 5, 4, 1]
-0.06908962 -0.029059961 -0.011430794 -0.0260032 0.1959349 0.1842932 -0.060705576 0.18381403
-0.03641126 -0.27510542 -0.19344075 0.0034205217 0.01052318 -0.3709715 -0.05584217 0.015171326
-0.15944526 -0.12180979 -0.2667233 -0.1292575 0.015093154 -0.036110133 -0.19351462 -0.060551755
-0.10306971 -0.10452021 -0.26453704 -0.2007502 -0.06077524 -0.10408784 -0.07014738 0.17806582
0.040540785 0.12478768 -0.018095644 -0.15323238 0.023689259 0.08396426 0.011375821 0.025128955
-0.28187117 -0.17919005 -0.19415222 0.037364196 -0.13148575 -0.09671128 -0.009146402 0.20061383
0.11018512 0.11125744 -0.10387237 -0.063947566 -0.06783736 0.011479617 0.06729172 0.00039144346
-0.031388175 0.17893791 0.24223402 0.13173208 -0.0054652737 -0.14161234 -0.081515804 0.14356348
0.018303873 0.19963235 -0.16258697 -0.051106203 0.10289057 0.12981038 -0.07169732 0.015327958
0.1962422 0.004429141 -0.16877748 0.18763237 0.4173658 0.15097678 0.25371745 0.17688037
0.06117784 -0.06402002 -0.13800189 -0.025162647 -0.028203726 0.010117995 0.12137517 -0.33632955
-0.014071848 -0.30067503 -0.13301806 0.05907781 -0.17917806 -0.22662605 -0.30406463 -0.08620137
-0.09977904 -0.14485408 0.07125585 0.0038717308 -0.06692746 -0.14093597 -0.07817275 -0.2029269
-0.15366937 0.024558082 -0.18357845 -0.2542371 -0.01785996 0.12824582 -0.15869732 0.06365491
-0.24388453 -0.09643105 -0.19664343 -0.21086963 0.058089487 -0.18277055 -0.2597422 0.10979565
0.2258494 0.030153383 0.3236959 0.046505664 0.0659667 0.23360687 0.23384999 0.25141025
0.037973616 0.32146412 -0.08657774 0.056602903 0.016207522 0.14728281 0.077420875 0.06229497
-0.19556469 -0.49286413 -0.23223963 0.041843858 0.1071312 -0.2646618 0.19351943 -0.07542941
-0.23880693 0.17617851 0.13658132 -0.008575853 -0.08319169 0.11932702 0.063593745 -0.13888186
-0.06984932 0.0152759 -0.17362638 -0.26517746 -0.25139543 -0.25468346 -0.48523256 -0.21907681
0.13453905 -0.22011684 -0.11730732 -0.19559486 0.062532775 0.091175444 -0.006263207 0.11833781
-0.20619589 0.112773955 -0.17558499 0.22404696 0.1965431 -0.0581571 0.00837809 -0.12633125
-0.074966684 -0.19582745 -0.20730057 -0.022384198 -0.03823673 -0.11873839 -0.052141044 0.040351626
-0.081082575 -0.1344286 0.059537295 0.15748997 0.120981395 -0.04685954 0.09779197 0.0398858
0.01886948 -0.03614101 0.051084403 0.16511299 0.039544914 0.36142924 0.45937592 0.3580022
-0.3239871 -0.23225862 -0.24903415 -0.063428596 0.111975856 0.06405291 -0.07045307 0.16297248
-0.05625757 -0.21330467 0.22208557 0.17139177 -0.0907382 0.09695263 0.08543264 0.20471357
-0.16913287 0.23021977 -0.098404825 0.13580823 -0.32121876 -0.07207049 -0.30649304 -0.1501101
-0.031108236 0.1378993 0.058293942 -0.09147046 0.10214595 0.104914755 0.06139928 0.1468048
0.07775179 0.1702803 0.0035370984 0.032938167 -0.20700724 0.3242598 -0.18224369 0.25744668
0.075333 -0.14318077 -0.20283654 0.0052915425 -0.18701616 0.08842507 0.055727467 -0.0943682
-0.1665299 0.1265434 0.022543157 -0.13729599 0.0032737497 -0.057938285 -0.09416973 -0.30114245
00000000: dc7e 8dbd 280f eebc 3a48 3bbc aa04 d5bc
00000010: 29a3 483e 5bb7 3c3e 69a6 78bd bf39 3c3e
00000020: f923 15bd 9eda 8cbe 5515 46be d52a 603b
00000030: 6a69 2c3c faef bdbe c2ba 64bd 2791 783c
00000040: 9e45 23be 6977 f9bd f58f 88be 145c 04be
00000050: 4749 773c 38e8 13bd b228 46be 1e05 78bd
00000060: 3616 d3bd b10e d6bd 6671 87be 7691 4dbe
00000070: 75ef 78bd 012c d5bd 6ea9 8fbd e356 363e
00000080: 180e 263d af90 ff3d 513d 94bc f3e8 1cbe
00000090: fa0f c23c 74f5 ab3d a761 3a3c 3ddb cd3c
000000a0: 6b51 90be 997d 37be d7cf 46be 330b 193d
000000b0: 33a4 06be 9010 c6bd cada 15bc b66d 4d3e
000000c0: bca8 e13d f1da e33d 0abb d4bd f1f6 82bd
000000d0: 50ee 8abd 0115 3c3c 3ed0 893d a73a cd39
000000e0: e390 00bd 803b 373e 320c 783e c6e4 063e
000000f0: 0a16 b3bb d302 11be c2f1 a6bd 4e02 133e
00000100: 01f2 953c 6c6c 4c3e 337d 26be bd54 51bd
00000110: 4bb8 d23d 03ed 043e 0bd6 92bd 1e22 7b3c
00000120: b7f3 483e 5422 913b 01d4 2cbe b322 403e
00000130: f8b0 d53e a899 1a3e 41e7 813e 2120 353e
00000140: 9d95 7a3d ee1c 83bd 5e50 0dbe e521 cebc
00000150: 800b e7bc f2c5 253c 8c93 f83d 6333 acbe
00000160: 9c8d 66bc 14f2 99be e335 08be 93fb 713d
00000170: 747a 37be a910 68be 5cae 9bbe 588a b0bd
00000180: f458 ccbd a154 14be 96ee 913d ddbc 7d3b
00000190: 4411 89bd 8551 10be 0919 a0bd 12cc 4fbe
000001a0: 815b 1dbe 082e c93c fdfb 3bbe 5d2b 82be
000001b0: 0d4f 92bc df52 033e 8d81 22be 815d 823d
000001c0: debc 79be a47d c5bd e55c 49be 35ee 57be
000001d0: 3eef 6d3d 3428 3bbe eefc 84be 8bdc e03d
000001e0: 1145 673e 3a04 f73c 78bb a53e b97c 3e3d
000001f0: 8d19 873d a436 6f3e 5f76 6f3e d8b8 803e
00000200: 398a 1b3d f296 a43e ac4f b1bd 72d8 673d
00000210: a3c5 843c 4ed1 163e d68e 9e3d 0329 7f3d
00000220: 1c42 48be b058 fcbe 3ad0 6dbe 7764 2b3d
00000230: 9a67 db3d c081 87be f529 463e bc7a 9abd
00000240: ce89 74be 2468 343e f9db 0b3e bc81 0cbc
00000250: 6860 aabd ba61 f43d 703d 823d 0c37 0ebe
00000260: 290d 8fbd c547 7a3c 1dcb 31be 57c5 87be
00000270: e7b6 80be df65 82be 6770 f8be ac55 60be
00000280: 9bc4 093e 4f66 61be d23e f0bd 054a 48be
00000290: 2f11 803d 31ba ba3d 973b cdbb 185b f23d
000002a0: 0425 53be 08f6 e63d 8dcc 33be 916c 653e
000002b0: 9842 493e 2436 6ebd 4244 093c fb5c 01be
000002c0: 2288 99bd fe86 48be 9a46 54be 115f b7bc
000002d0: 1e9e 1cbd 1d2d f3bd d991 55bd bf47 253d
000002e0: 9f0e a6bd a7a7 09be 61dd 733d 0d45 213e
000002f0: 18c5 f73d caef 3fbd 2847 c83d 4b5f 233d
00000300: 2b94 9a3c 9808 14bd e13d 513d 6113 293e
00000310: d9f9 213d 410d b93e 5233 eb3e 104c b73e
00000320: a3e1 a5be 34d5 6dbe cf02 7fbe dae6 81bd
00000330: 9953 e53d 2c2e 833d b349 90bd 42e2 263e
00000340: 566e 66bd 8a6c 5abe 666a 633e 5381 2f3e
00000350: f3d4 b9bd 1a8f c63d 4ff7 ae3d 6fa0 513e
00000360: 2b31 2dbe bbbe 6b3e 7888 c9bd 5011 0b3e
00000370: c976 a4be b199 93bd a8ec 9cbe 76b6 19be
00000380: b3d6 febc 7935 0d3e a1c5 6e3d dd54 bbbd
00000390: e531 d13d 8cdd d63d d07d 7b3d ff53 163e
000003a0: 553c 9f3d f55d 2e3e aace 673b 2cea 063d
000003b0: b5f9 53be 6105 a63e 179e 3abe 0dd0 833e
000003c0: 3048 9a3d fb9d 12be 62b4 4fbe ad64 ad3b
000003d0: 2a81 3fbe 3418 b53d 7c42 643d 1d44 c1bd
000003e0: d086 2abe 9894 013e 6dac b83c 5297 0cbe
000003f0: 688c 563b b250 6dbd 0fdc c0bd 582f 9abe

conv1.bias f4 [32]
-0.06638875 -0.042318728 0.06809006 -0.079400584 0.24106425 0.20123407 0.111498885 0.03421353
-0.23903552 -0.128403 -0.04464561 -0.032211516 -0.20590709 0.050963145 0.00090759224 0.23684278
0.27003565 0.016393907 0.22707349 0.0866824 -0.06276181 -0.1357317 0.2404515 -0.010417121
0.12357986 0.11228689 0.23574375 0.123773076 0.30198354 0.057926293 0.086821 -0.0456673
00000000: d3f6 87bd 6756 2dbd cd72 8b3d c69c a2bd
00000010: 8cd9 763e 4e10 4e3e 8759 e43d 7d23 0c3d
00000020: bac5 74be 137c 03be 51de 36bd 39f0 03bd
00000030: 4fd9 52be bbbe 503d 7ceb 6d3a ea86 723e
00000040: 1d42 8a3e 844c 863c f485 683e 8b86 b13d
00000050: 4489 80bd 40fd 0abe eb38 763e 93ac 2abc
00000060: 7017 fd3d abf6 e53d cf66 713e bd7c fd3d
00000070: 969d 9a3e 1f44 6d3d 35cf b13d a20d 3bbd

conv2.weight f4 [32, 5, 1, 5]
-0.12152635 -0.05046174 0.026366908 -0.17210236 -0.10614459 -0.30083263 -0.038212627 0.081664905
-0.13809802 -0.07002675 0.07538544 -0.000488816 0.0009964573 0.11221919 -0.095114246 -0.03816697
0.05043806 0.12525351 0.0013544218 -0.05885092 0.112065524 -0.20336327 0.06948746 0.20386045
0.1336722 -0.047082953 -0.18896683 -0.2015652 0.036092203 -0.23316227 -0.11357509 -0.14317498
-0.14190033 -0.18712471 0.06829075 -0.19774254 -0.091810346 0.10658899 0.071063705 0.036468163
-0.012239957 0.072440214 0.07458048 0.16219789 0.11041263 0.08489743 0.14691147 0.2392796
0.13873719 0.31412107 -0.045493733 -0.046920877 -0.08976247 0.15728584 -0.06293966 0.028849613
-0.05351244 0.08742623 0.15409671 0.06300057 -0.025526298 0.00837589 0.07114785 -0.18131019
0.063887164 -0.055824824 0.01137497 -0.011550555 0.22891559 0.027032178 0.23515712 0.18443102
-0.13036355 0.08774962 0.2886003 -0.33903652 -0.18832049 -0.23007527 -0.06548673 -0.13874052
-0.0246986 -0.20353286 -0.022961799 0.12265714 0.0763956 -0.065239556 0.019945674 -0.21848641
-0.11356577 0.050868765 0.038725294 0.03549297 0.0075846715 0.085375756 0.059204433 -0.05284846
-0.09945235 -0.06383622 0.14012015 0.21298406 -0.27240646 0.01370405 0.06179865 -0.2833379
0.15652743 -0.17292914 0.015825476 -0.07707144 -0.04322664 0.10437163 -0.30208272 -0.0144821275
0.092251584 -0.106001064 -0.3087394 0.13317789 -0.21115682 -0.31830344 0.05383178 0.014961501
0.26571706 0.03944239 0.09839653 -0.037311565 0.028380709 -0.27592936 -0.24273808 0.03960961
-0.029558511 0.029783962 -0.24156205 0.08512413 0.08345473 0.115642704 0.13945243 -0.25179628
0.003288235 -0.22980027 -0.06336075 0.05521952 0.16614042 0.010008161 0.09166162 -0.009312389
0.15752597 0.20018595 0.1550945 -0.011273247 0.11879881 0.10013219 0.038189687 -0.064128846
-0.08788658 0.049258236 -0.19979785 0.13800532 0.042790372 0.0467548 -0.029263418 -0.0005281795
0.06831211 -0.039510608 0.072198145 0.015784279 -0.039293386 -0.041028157 0.0034440265 0.02126582
0.021942586 0.019616842 -0.12997817 -0.18070713 -0.10761886 -0.28474766 -0.030758064 -0.11642474
0.06381875 -0.039705116 0.109513916 -0.23349167 -0.08981635 0.12766944 -0.12799959 -0.07802018
-0.045570567 -0.038398426 0.03921198 0.0184665 -0.123646535 -0.04842982 -0.06363084 -0.08045351
-0.044869382 -0.1478973 0.06363665 -0.10269212 0.0014802233 0.02512944 -0.15314421 -0.19630897
-0.106361344 0.013589158 0.040066954 -0.060842782 -0.1707326 0.10214495 -0.21226111 -0.030709371
-0.18112952 -0.020239709 -0.17319682 -0.14413956 0.089895025 -0.12988378 -0.14842232 -0.28395358
-0.110168666 -0.21678527 -0.06371089 0.046559956 -0.17392714 -0.13395776 -0.03996589 -0.02859388
-0.15998583 -0.09765859 -0.20388936 0.010916695 -0.20805866 -0.16518393 -0.20222199 -0.07339353
-0.36422575 -0.003000909 0.19114941 0.10466323 -0.172383 -0.061827492 0.078302264 -0.107346036
0.025381561 -0.0029392047 0.20060623 -0.21116847 -0.11527483 -0.12949309 -0.11430516 -0.18175645
-0.28156152 -0.3844785 -0.19701986 -0.002693244 -0.121045046 -0.053985186 -0.23872328 -0.15418556
00000000: cfe2 f8bd f8b0 4ebd 6aff d73c 9a3b 30be
00000010: 5662 d9bd bc06 9abe d884 1cbd ee3f a73d
00000020: 9169 0dbe 2f6a 8fbd ae63 9a3d e323 00ba
00000030: 8f9b 823a 2dd3 e53d 42cb c2bd f854 1cbd
00000040: 2498 4e3d 7542 003e db86 b13a aa0d 71bd
00000050: 9c82 e53d 763e 50be 714f 8e3d cbc0 503e
00000060: 5de1 083e 0eda 40bd 8580 41be 1c67 4ebe
00000070: 6bd5 133d 17c2 6ebe 0f9a e8bd 769c 12be
00000080: 524e 11be 9f9d 3fbe 05dc 8b3d 057d 4abe
00000090: 1007 bcbd 544b da3d d989 913d a45f 153d
000000a0: 1a8a 48bc 895b 943d a7bd 983d 3417 263e
000000b0: 0420 e23d b4de ad3d f66f 163e b605 753e
000000c0: 1f11 0e3e 7ad4 a03e a357 3abd 1b30 40bd
000000d0: 63d5 b7bd 8a0f 213e 82e6 80bd 0656 ec3c
000000e0: dc2f 5bbd 860c b33d 87cb 1d3e 7106 813d
000000f0: 871c d1bc 073b 093c f7b5 913d 61a9 39be
00000100: 46d7 823d 92a8 64bd 155e 3a3c 8a3e 3dbc
00000110: d968 6a3e 9672 dd3c 07cd 703e 7cdb 3c3e
00000120: 067e 05be 13b6 b33d 6bc3 933e 3296 adbe
00000130: 16d7 40be da98 6bbe e81d 86bd ff11 0ebe
00000140: b854 cabc eb6a 50be 621a bcbc ab33 fb3d
00000150: 4c75 9c3d 519c 85bd 1c65 a33c e7ba 5fbe
00000160: 2c95 e8bd c45b 503d 6a9e 1e3d 1461 113d
00000170: d688 f83b 7cd9 ae3d 5980 723d a077 58bd
00000180: acad cbbd 90bc 82bd a87b 0f3e 7e18 5a3e
00000190: dc78 8bbe f486 603c 9520 7d3d aa11 91be
000001a0: ba48 203e 5614 31be 6ea4 813c a2d7 9dbd
000001b0: 6b0e 31bd cbc0 d53d 96aa 9abe 7246 6dbc
000001c0: 66ee bc3d 1617 d9bd 1713 9ebe c95f 083e
000001d0: 7e39 58be abf8 a2be b67e 5c3d 1521 753c
000001e0: 110c 883e 588e 213d 1f84 c93d 03d4 18bd
000001f0: a97e e83c 9d46 8dbe 5590 78be b03d 223d
00000200: b124 f2bc 7ffd f33c 0b5c 77be 8f55 ae3d
00000210: 50ea aa3d 15d6 ec3d 9ecc 0e3e 71eb 80be
00000220: 6e7f 573b c350 6bbe 48c3 81bd dd2d 623d
00000230: b720 2a3e 45f9 233c 16b9 bb3d fe92 18bc
00000240: 7d4e 213e 8cfd 4c3e 18d1 1e3e 6db3 38bc
00000250: ca4c f33d 1b12 cd3d ca6c 1c3d fc55 83bd
00000260: e1fd b3bd 01c3 493d cf97 4cbe 4451 0d3e
00000270: f544 2f3d f681 3f3d d6b9 efbc 8775 0aba
00000280: 38e7 8b3d e0d5 21bd 9fdc 933d 084e 813c
00000290: 1af2 20bd 240d 28bd 2db5 613b a835 ae3c
000002a0: f0c0 b33c 80b3 a03c ff18 05be 4a0b 39be
000002b0: 4767 dcbd 72ca 91be 56f8 fbbc 1870 eebd
000002c0: 68b3 823d d5a1 22bd d548 e03d 7118 6fbe
000002d0: a2f1 b7bd c7bb 023e 5312 03be 0bc9 9fbd
000002e0: 34a8 3abd ab47 1dbd be9c 203d 0f47 973c
000002f0: 653a fdbd 595e 46bd e350 82bd cfc4 a4bd
00000300: f5c8 37bd 6472 17be ef53 823d 3f50 d2bd
00000310: 0d04 c23a 41dc cd3c d6d1 1cbe 3805 49be
00000320: fad3 d9bd 0fa5 5e3c 3f1d 243d 4836 79bd
00000330: 87d4 2ebe 5f31 d13d fa5a 59be 3892 fbbc
00000340: 047a 39be bfcd a5bc 825a 31be 5299 13be
00000350: e21a b83d 4100 05be 05fc 17be 5d62 91be
00000360: 1ca0 e1bd f5fc 5dbe db7a 82bd a7b5 3e3d
00000370: f519 32be 392c 09be 46b3 23bd b63d eabc
00000380: 53d3 23be 3a01 c8bd 5fc8 50be f0db 323c
00000390: 540d 55be fa25 29be 4813 4fbe 594f 96bd
000003a0: cc7b babe e6aa 44bb acbc 433e ad59 d63d
000003b0: 2b85 30be d33e 7dbd f05c a03d 3dd8 dbbd
000003c0: feec cf3c ac9f 40bb b86b 4d3e 8c3c 58be
000003d0: 3615 ecbd d699 04be d318 eabd 5d1e 3abe
000003e0: d528 90be 5eda c4be 93bf 49be 2381 30bb
000003f0: 77e6 f7bd 921f 5dbd e073 74be d2e2 1dbe

conv2.bias f4 [32]
-0.031603456 0.03794236 -0.27791372 -0.07648191 -0.03563055 0.019105354 -0.25930586 -0.18259162
-0.118532315 0.026098639 0.09703992 -0.14471833 -0.03357879 -0.011899648 0.08757725 -0.06350727
-0.07150267 -0.101909325 0.07729469 0.103991054 -0.1746418 -0.015692733 -0.061112233 -0.039010733
0.016748771 0.002642703 -0.12963158 -0.30705252 0.054790676 -0.15279707 -0.08245566 0.059509646
00000000: a072 01bd 7369 1b3d b54a 8ebe 8ca2 9cbd
00000010: 57f1 11bd d582 9c3c bdc3 84be 4cf9 3abe
00000020: 12c1 f2bd d0cc d53c debc c63d 0b31 14be
00000030: ea89 09bd bef6 42bc b45b b33d 1910 82bd
00000040: fe6f 92bd d6b5 d0bd ae4c 9e3d 43f9 d43d
00000050: 4dd5 32be 0c8e 80bc d250 7abd b8c9 1fbd
00000060: b834 893c 3331 2d3b 24be 04be fd35 9dbe
00000070: 306c 603d d676 1cbe 83de a8bd 63c0 733d

fc1.weight f4 [128, 1828]
0.009752503 0.122765735 0.07817335 0.06593378 0.035157226 0.055772822 -0.0014474543 0.018023644
-0.0115087265 0.0096248975 -0.09933735 -0.021527344 -0.08100253 0.15656629 0.0951558 0.075168334
0.055433486 0.05344935 0.07963056 -0.015827388 0.072691575 -0.01724851 0.017897435 -0.09293123
-0.09046876 -0.16910191 0.15035848 0.09037676 0.032878224 0.08441601 -0.007131076 0.011546246
0.026008666 -0.027725805 -0.058410283 -0.037755195 -0.055609163 -0.14529091 -0.1758346 0.15410882
0.12219787 0.012823135 0.05214393 0.026890699 -0.0354212 -0.031380594 0.02140742 -0.012201374
-0.009795631 -0.06150704 -0.10571133 -0.24999313 0.06772662 0.030757943 0.05972612 0.009245099
0.0032566239 0.038924914 0.076001555 0.07172704 0.10240399 0.072509594 0.06760032 0.015595145
0.0898036 0.017114218 0.023747198 0.03176573 0.031740677 0.03169076 0.032252073 0.10029197
0.07397978 -0.011374402 0.02146264 0.039217375 0.0023345656 0.0759931 0.035850752 0.0100316
0.003093633 0.00874541 0.044177093 0.038443998 0.02426873 0.034139358 0.04619695 0.035085518
0.03204584 0.05702807 0.039111625 0.016201876 0.0027586627 0.08081717 0.02584734 -0.00012456153
0.050158523 0.033058036 0.10886606 0.044154853 0.003878504 0.018452602 -0.0038849951 0.04498241
0.0751143 -0.015511627 0.015503037 -0.0344798 0.022881977 0.03171468 0.062202312 -0.015935786
0.026560036 -0.008762535 0.0073108044 0.061432105 0.009161657 0.03499055 0.029760025 0.08420874
0.05693342 0.054203656 -0.028565263 -0.008016251 0.017189369 0.0012336349 0.03531639 0.03466852
0.045166686 0.033464566 0.03801779 6.850312e-05 0.033378728 0.014738639 0.027888058 0.009021047
0.010597685 0.008496265 0.07030969 -0.0076746442 -0.06812618 0.07823025 0.06258037 -0.02159066
0.04928348 0.02910962 0.07933775 0.006302408 0.046501875 0.0149041535 -0.013966773 0.040657956
0.07105962 0.06702087 0.06998814 0.12428406 0.063058294 0.026719227 0.034866292 0.044891432
0.050862573 0.059889458 0.010209857 0.02265889 0.028672546 -0.0013939196 0.031074695 -0.0043218387
-0.0110650305 -0.022013938 0.066882126 0.038973726 0.055184416 -0.05168822 0.014860489 0.044569593
0.021286381 -0.011879145 -0.032470535 0.035706364 0.0014069414 0.06973062 0.06846048 -0.0048675947
0.044153817 0.023437276 0.035793 -0.0003962952 -0.020049963 0.008175051 0.020057103 0.05678071
0.021164462 0.0058329054 0.10253919 0.0059444634 -0.0029850532 0.021163054 0.027020255 0.051116113
0.03292292 0.032746024 0.04600627 -0.0007022084 0.05105259 -0.0021208413 0.07297923 0.081341915
-0.027197422 -0.20327172 -0.23252386 -0.2169646 -0.16921404 -0.18112305 -0.22452036 -0.15447277
-0.19767006 -0.17638212 -0.20268783 -0.17542098 -0.2311032 -0.14916241 -0.20291585 -0.18733323
-0.17791435 -0.18158415 -0.16222484 -0.18382923 -0.18445557 -0.21012223 -0.16019131 -0.23939891
-0.19783892 -0.27399218 -0.21303809 -0.12466272 -0.23961902 -0.20705892 -0.22684789 -0.1873257
-0.1955663 -0.21255377 -0.2334249 -0.22657155 -0.23731175 -0.24898264 -0.23533472 -0.1655115
-0.14855978 -0.24858855 -0.18419017 -0.18198201 -0.20909752 -0.1913239 -0.21362482 -0.22005953
00000000: f6c8 1f3c 9a6c fb3d 5919 a03d 4a08 873d
00000010: 0601 103d 0b72 643d 82b8 bdba 52a6 933c
00000020: 198f 3cbc bfb1 1d3c 6171 cbbd 1d5a b0bc
00000030: a8e4 a5bd ea52 203e 0be1 c23d dbf1 993d
00000040: 390e 633d b5ed 5a3d 5915 a33d 70a8 81bc
00000050: 52df 943d bf4c 8dbc a49d 923c bb52 bebd
00000060: af47 b9bd 0d29 2dbe 93f7 193e 7317 b93d
00000070: 51ab 063d 4de2 ac3d cdab e9bb 772c 3d3c
00000080: 2010 d53c 3a21 e3bc 9f3f 6fbd 31a5 1abd
00000090: 6fc6 63bd 24c7 14be fc0d 34be b4ce 1d3e
000000a0: e042 fa3d 2018 523c e094 553d e249 dc3c
000000b0: d215 11bd f088 00bd 9d5e af3c 46e8 47bc
000000c0: db7d 20bc ceee 7bbd 2f7f d8bd 33fe 7fbe
000000d0: 41b4 8a3d 15f8 fb3c 60a3 743d c178 173c
000000e0: 156d 553b bb6f 1f3d b4a6 9b3d a0e5 923d
000000f0: 2fb9 d13d e97f 943d 0972 8a3d c782 7f3c
00000100: f3ea b73d 1e33 8c3c 7c89 c23c c81c 023d
00000110: 8302 023d 2cce 013d c01a 043d e065 cd3d
00000120: b682 973d b35b 3abc 6bd2 af3c 66a2 203d
00000130: 83ff 183b 45a2 9b3d 3dd8 123d 945b 243c
00000140: 8dbe 4a3b e848 0f3c 0af3 343d 7477 1d3d
00000150: 37cf c63c b6d5 0b3d 0339 3d3d d5b5 0f3d
00000160: 8042 033d 4496 693d 8333 203d ccb9 843c
00000170: aeca 343b 7983 a53d cdbd d33c bb9c 02b9
00000180: 0673 4d3d dd67 073d 2bf5 de3d b8db 343d
00000190: 802e 7e3b e929 973c 679b 7ebb 7a3f 383d
000001a0: 87d5 993d 7b24 7ebc 7300 7e3c b13a 0dbd
000001b0: fc72 bb3c 41e7 013d dac7 7e3d c48b 82bc
000001c0: 6f94 d93c bc90 0fbc 798f ef3b 3ba0 7b3d
000001d0: c61a 163c 4052 0f3d 4ccb f33c a275 ac3d
000001e0: 0533 693d a704 5e3d b301 eabc 9856 03bc
000001f0: b8d0 8c3c ebb1 a13a eba7 103d 9400 0e3d
00000200: b400 393d 2412 093d 8bb8 1b3d 55a9 8f38
00000210: 22b8 083d 557a 713c 7f75 e43c 03cd 133c
00000220: eaa1 2d3c eb33 0b3c 87fe 8f3d 957b fbbb
00000230: bd85 8bbd 2e37 a03d 232a 803d e5de b0bc
00000240: 79dd 493d 4c77 ee3c d57b a23d 6e84 ce3b
00000250: c078 3e3d 8d30 743c e4d4 64bc f588 263d
00000260: b587 913d 3d42 893d f155 8f3d a488 fe3d
00000270: b524 813d 48e2 da3c f5cf 0e3d 14e0 373d
00000280: 4655 503d a64e 753d 3e47 273c 239f b93c
00000290: b0e2 ea3c 2eb4 b6ba 5c90 fe3c 369e 8dbb
000002a0: 1a4a 35bc 9356 b4bc 7ff9 883d eaa2 1f3d
000002b0: 0e09 623d 07b7 53bd 6979 733c 9b8e 363d
000002c0: c760 ae3c bfa0 42bc d3ff 04bd d640 123d
000002d0: 1f69 b83a edce 8e3d 0235 8c3d 5880 9fbb
000002e0: a2da 343d 88ff bf3c ae9b 123d d7c5 cfb9
000002f0: d23f a4bc a6f0 053c cb4e a43c e492 683d
00000300: 1861 ad3c f521 bf3b 1100 d23d c6c9 c23b
00000310: e2a0 43bb 245e ad3c 9559 dd3c 215f 513d
00000320: 2fda 063d b220 063d 1271 3c3d 6814 38ba
00000330: 851c 513d d0fd 0abb 2276 953d 9796 a63d
00000340: 21cd debc 7626 50be bc1a 6ebe f82b 5ebe
00000350: 7246 2dbe 5278 39be aae8 65be 1c2e 1ebe
00000360: 056a 4abe 849d 34be 668d 4fbe 8fa1 33be
00000370: 51a6 6cbe 08be 18be 2cc9 4fbe 48d4 3fbe
00000380: 2e2f 36be 32f1 39be 451e 26be bb3d 3cbe
00000390: ece1 3cbe 482a 57be 3109 24be fd24 75be
000003a0: 4996 4abe b448 8cbe a826 5abe 2b4f ffbd
000003b0: b05e 75be 4107 54be d04a 68be 4fd2 3fbe
000003c0: 8842 48be b2a7 59be f006 6fbe 5f02 68be
000003d0: da01 73be 4ef5 7ebe 96fb 70be d97b 29be
000003e0: 0e20 18be ff8d 7ebe 599c 3cbe 7e59 3abe
000003f0: a91d 56be 6aea 43be 77c0 5abe 4957 61be

fc1.bias f4 [128]
0.1234394 -0.020283949 0.087339 -0.011438929 0.0094154505 0.116847515 -0.024049768 0.0066693267
0.113989666 0.0030868605 0.00483987 0.08696048 0.07439276 -0.004467608 0.11164012 0.0021429604
0.04240072 -0.013525956 0.11765744 0.023148583 -0.011247213 0.0095554115 0.12261383 0.08289984
0.013467738 0.00038094356 -0.021111956 -0.013032541 -0.03419819 0.08337602 0.09809582 0.08598046
0.12071805 -0.01975541 -0.02168385 -0.015549523 0.12715092 -0.01390457 0.016848767 -0.0008096966
0.0070912605 0.09521361 0.013258672 0.1154229 -0.023876192 0.11664989 -0.008489464 0.06005083
-0.0103728175 0.0094229 0.009321431 -0.0037229306 -0.028789448 -0.0053072195 -0.016560698 0.10918543
-0.02908908 0.011135489 0.10922755 0.0035894501 0.009916873 0.12491968 -0.0002549093 -0.028310644
-0.009579618 -7.1279275e-05 -0.0019542056 -0.01528367 -0.018717796 0.0007339994 0.0042742225 -0.000703242
0.11810755 0.12314448 -0.008759346 0.10689225 -0.02564976 0.04014981 0.1239489 0.09273729
-0.0067596277 -0.005275706 -0.0061873402 0.009511919 0.004361479 0.12776537 0.10068672 -0.01617459
0.088053316 -0.0050851596 0.018153878 -0.01219463 0.05879824 -0.019199876 0.09608301 0.106778555
-0.017621703 0.11747438 -0.0068656974 -0.009571938 0.047789883 0.094554834 -0.053623628 -0.0249434
0.053283002 -0.03385633 -0.0034817203 -0.011664528 0.014447806 -0.026816517 0.128961 0.01207222
-0.010238316 0.03297721 -0.0027461296 0.12971687 0.07366655 0.044093214 0.12493191 0.121913366
0.11987396 0.006233857 0.11577081 0.09785991 0.014473902 0.0030314047 0.01314328 0.003223683
00000000: cccd fc3d 862a a6bc cade b23d 586a 3bbc
00000010: 4343 1a3c c04d ef3d 0504 c5bc 5e8a da3b
00000020: 6a73 e93d ed4c 4a3b c697 9e3b 5618 b23d
00000030: 3b5b 983d 0365 92bb 93a3 e43d e970 0c3b
00000040: 61ac 2d3d f99b 5dbc 62f6 f03d 19a2 bd3c
00000050: 3b46 38bc 4d8e 1c3c f61c fb3d 64c7 a93d
00000060: caa7 5c3c 61b9 c739 fbf2 acbc 7086 55bc
00000070: 6713 0cbd 0cc1 aa3d 76e6 c83d 8616 b03d
00000080: 063b f73d 19d6 a1bc 54a2 b1bc 6dc3 7ebc
00000090: da33 023e fecf 63bc 6d06 8a3c d241 54ba
000000a0: ce5d e83b 5aff c23d e73a 593c d762 ec3d
000000b0: 0198 c3bc 23e6 ee3d 6517 0bbc dcf7 753d
000000c0: c0f2 29bc 8262 1a3c eab8 183c 69fc 73bb
000000d0: d9d7 ebbc 2fe8 adbb 4daa 87bc 9c9c df3d
000000e0: 394c eebc a071 363c b2b2 df3d fb3c 6b3b
000000f0: 617a 223c e4d5 ff3d 59a5 85b9 b9eb e7bc
00000100: d5f3 1cbc c57b 95b8 2112 00bb 5c68 7abc
00000110: 1056 99bc de69 403a c70e 8c3b c659 38ba
00000120: 5fe2 f13d 2c33 fc3d 5c83 0fbc 53ea da3d
00000130: 721f d2bc 2174 243d ecd8 fd3d 0ced bd3d
00000140: de7f ddbb d4df acbb 2cbf cabb e1d7 1b3c
00000150: bdea 8e3b edd4 023e d734 ce3d 9380 84bc
00000160: 4c55 b43d 69a1 a6bb 71b7 943c fccb 47bc
00000170: 6cd6 703d 0f49 9dbc 2bc7 c43d b7ae da3d
00000180: 645b 90bc 6896 f03d a5f9 e0bb 9ed3 1cbc
00000190: 53bf 433d f7a5 c13d 73a4 5bbd 1a56 ccbc
000001a0: 473f 5a3d efac 0abd 932d 64bb 941c 3fbc
000001b0: 7eb6 6c3c 50ae dbbc 5a0e 043e 90ca 453c
000001c0: 9cbe 27bc 1c13 073d 69f8 33bb 80d4 043e
000001d0: 7dde 963d 169b 343d 4ddc ff3d b7ad f93d
000001e0: 7b80 f53d 6245 cc3b 3f19 ed3d c76a c83d
000001f0: f223 6d3c 88aa 463b e956 573c 6d44 533b

fc2.weight f4 [1, 128]
-0.020485478 0.020259876 -0.014733808 0.0046941238 0.07940183 -0.072743595 0.011243026 0.055065986
-0.057996158 0.0026996327 0.07723752 -0.0043234024 0.0122593995 0.012289061 -0.03362638 0.04975281
0.001586907 0.05109324 -0.04475558 -0.0027500615 0.039416414 0.053040802 -0.012188497 -0.013998818
-0.001466522 0.053466424 0.0031069883 0.035900444 0.027509939 -0.04627864 -0.035524607 -0.040757433
-0.013061676 0.001859262 0.07258707 0.02288073 -0.07272857 0.01931145 0.00037648922 0.08402605
0.04634718 -0.023162788 0.009235553 -0.05191021 0.011857667 -0.021475952 0.059975877 -0.004533819
0.0024683059 0.05933297 0.058347307 0.07770652 0.012106296 0.05002738 -0.059942473 -0.07025665
-0.019109681 0.032282807 -0.0048787515 0.022694029 0.013041506 -0.036652394 -0.082387604 0.04704935
0.020719202 -0.00061435194 0.06968022 0.06403455 0.061846383 0.078745246 0.056218397 0.029553981
-0.04726531 -0.023771716 0.0105070425 -0.07369729 0.023512822 -0.00657537 -0.056482386 -0.045813564
0.0149427485 -0.02937519 -0.03605006 -0.07533765 -0.043836683 -0.023518082 -0.02260171 0.06420436
-0.048968412 -0.07425188 0.050775338 0.010375922 -0.0053239097 0.06266378 -0.007113679 -0.050395593
-0.0009996514 -0.058008198 -0.033889633 0.0056687556 -0.0030625905 -0.051290628 0.005347025 0.07242191
0.029651057 -0.0007645844 -0.0011934519 0.043727648 0.022762174 0.045762688 -0.033469215 0.057489015
-0.0076886467 0.008436955 0.07284493 -0.009097739 -0.00020337262 -0.0062567266 -0.06875011 -0.063937634
-0.053945962 -0.013983803 -0.04517828 -0.060728796 1.2867797e-05 -0.06381496 0.080485485 0.04599495
00000000: 29d1 a7bc 0af8 a53c 1266 71bc 2ad1 993b
00000010: 6d9d a23d 98fa 94bd ab34 383c df8c 613d
00000020: 618d 6dbd 52ec 303b b42e 9e3d 54ab 8dbb
00000030: a6db 483c 0f58 493c d1bb 09bd 9ac9 4b3d
00000040: c3ff cf3a 2547 513d a151 37bd 603a 34bb
00000050: 1b73 213d 5041 593d 43b2 47bc 4c5b 65bc
00000060: 5038 c0ba 9cff 5a3d 9d9e 4b3b 580c 133d
00000070: 865c e13c ac8e 3dbd 4082 11bd 44f1 26bd
00000080: a400 56bc 7bb2 f33a 88a8 943d 5e70 bb3c
00000090: b7f2 94bd 0c33 9e3c 8763 c539 da15 ac3d
000000a0: 8ad6 3d3d e3bf bdbc b850 173c cd9f 54bd
000000b0: a946 423c 56ee afbc 44a9 753d 6e90 94bb
000000c0: 4dc3 213b 2107 733d 96fd 6e3d 9924 9f3d
000000d0: 7c59 463c 83e9 4c3d 3d86 75bd b8e2 8fbd
000000e0: e88b 9cbc fa3a 043d efdd 9fbb d4e8 b93c
000000f0: 0aac 553c d220 16bd d5ba a8bd d2b6 403d
00000100: 51bb a93c 760c 21ba 81b4 8e3d 8c24 833d
00000110: a252 7d3d 3045 a13d 4345 663d 311b f23c
00000120: 4599 41bd e7bc c2bc bb25 2c3c 9bee 96bd
00000130: f69d c03c 3476 d7bb 135a 67bd 01a7 3bbd
00000140: 6ed2 743c 3da4 f0bc 3aa9 13bd a04a 9abd
00000150: 188e 33bd fea8 c0bc 3927 b9bc 937d 833d
00000160: 1a93 48bd 5f11 98bd cdf9 4f3d c5ff 293c
00000170: 3174 aebb de55 803d dd19 e9bb 9c6b 4ebd
00000180: bc06 83ba 019a 6dbd dbcf 0abd f8c0 b93b
00000190: beb5 48bb 1f16 52bd 1936 af3b f051 943d
000001a0: c6e6 f23c 646e 48ba 9a6d 9cba c31b 333d
000001b0: bd77 ba3c a871 3b3d 0417 09bd 9a79 6b3d
000001c0: 0bf1 fbbb 273b 0a3c b92f 953d af0e 15bc
000001d0: 6c40 55b9 3a05 cdbb dccc 8cbd bcf1 82bd
000001e0: 71f6 5cbd 521c 65bc dc0c 39bd c2be 78bd
000001f0: c4e2 5737 6bb1 82bd 93d5 a43d 3365 3c3d
