cnn_agent_best.pt (torch, 468527 bytes, 7 tensors)

conv1.weight f4 [32, 5, 4, 5]
00000000: 2961 2b3e 980e f93b c87e 743d 7e4b 863c
00000010: 626c a83d df00 b53d 0051 ba3d 027a a53d
00000020: 62a4 e23d 3fb3 783d 7e76 c03c 37dc 3e3e
00000030: 0d4a d43e 03d9 e73d 44d5 81bd 5362 bebb
00000040: c099 b63d 4d3f 713e a223 7bbc 7a53 08bd
00000050: 53d9 7abc 1a30 943d 776f 50bd 6a47 b7bd
00000060: a750 d4bb ea83 85bd 0dd7 50bc e775 babc
00000070: 933d 563d dada 993c 37cf 043d e8df 92bd
00000080: 72c8 8cbd 67d1 df3c e00a 2a3d e0d6 813b
00000090: 6ac7 73bd a742 e53c 5321 81bc 9acb c1bd
000000a0: cddb 52bd 1396 723d a30c 0e3d fa09 7b3c
000000b0: 4759 d8bc ed40 26bb 1076 4cbd 7333 99bd
000000c0: 53ea f8bc 7f95 b8bd da37 10bc 7da9 513d
000000d0: a75c 37bd b296 8d3d ad66 12bd 27f4 d33c
000000e0: 6d0e b73c 8798 1f3d a03f c13d aa2f c0bd
000000f0: 22b3 b83d 3a43 a83c 205b 43bc 62a9 ab3d
00000100: b36b eebb 00f2 69bc 8043 38bd 0abe 37bd
00000110: 730b 75bc 0d38 933d 7594 8fbd 27b9 a73c
00000120: b34e 9a3c 0082 79bd 1592 a33d 3d25 31bd
00000130: f7dc c63d cd71 1e3d d72f 283d 9d6e 07bd
00000140: 7c0a bfbd 5d3f 48be 67df 30be e735 34be
00000150: cab8 29be cd94 b2b9 356f 26bc 8cc3 dcbd
00000160: d68d c9bd b20e 14be ee3d 883b 7ac8 43be
00000170: e024 52be 7b3b 8fbe ab52 15be 3deb 263d
00000180: 9043 e2bd ce73 f7bd 1dcc f3bd d153 d1bd
00000190: 4358 54be 4105 07be 6727 a13d e106 2d3c
000001a0: 8236 d23c a22d 4fbd a628 253e dc8d 213e
000001b0: dcd1 4a3d 5995 ecbc 4525 a1be bbee b03e
000001c0: 1522 1b3e fdaf b03c d316 3a3d 7221 38be
000001d0: 4510 5f3e 1d23 1b3e 0f07 8f3d 88be 953d
000001e0: d00e 3cbc a8d9 7f3d 23e7 933d c75b 513d
000001f0: beee 4abd 678d 663d 3bd3 95bd 80b7 343b
00000200: da36 23bd 47ed fa3c 90dc a03d 900a 24bd
00000210: 3a93 b8bd 854c bc3d a7d9 3abd 4afe 46bd
00000220: ea90 273d 4d6a 8ebd baf7 073d 2de9 97bd
00000230: 4deb 02bd 87c2 2bbb 20ea 33bd 1f51 953d
00000240: 50cd 5e3d 9019 85bd 7b55 a5bd 2a24 603d
00000250: 37ab 8abd e0fd b93c 48f0 823d e061 8d3d
00000260: 0f31 a33d 2d62 7e3d 607a 80bb d3c9 17bd
00000270: b0ca b13d 2726 95bd c0cb b53c a07f c93c
00000280: 2dde 613d fa3b 09bd 3577 a83d 9360 88ba
00000290: 1d01 3dbd 5a55 c4bc ba00 cabc fa5e c2bc
000002a0: 93bd 82bd 276e c5bd 68a9 1d3d 7a25 65bc
000002b0: 20de cabd 0d5d 393c d8cd 913d a809 a23d
000002c0: da26 963d 5a1f ac3c ad2e 933c 4330 7f3d
000002d0: f33a 10bd b0cd b6bd ef1a 5bbd e1e1 41bd
000002e0: 4e71 07be da67 ae3d 300a 4dbd 4772 2e3d
000002f0: 3187 90b9 4ae8 98bd 365c 0bbd a6dc 35be
00000300: 7e56 683d 6534 e2bc 64dd 4bbc 90e2 f53b
00000310: 820a 98bd 25fa c33d 34cf 613c 16f0 58bd
00000320: 0d25 ddbd 7858 843d 7eea 5abd 1f42 2fbe
00000330: ef81 363c 3df0 b6bd 29d6 873c 1740 073d
00000340: 2713 503d 710e e3bc 3803 9d3d 9586 f03d
00000350: ad05 76bd eae2 b1bd f12b 00be c0e3 34bd
00000360: d6b8 82bc cfc7 383e 8814 213b 2e8a 70bc
00000370: a7b7 103d 4023 933d 7af9 82bd adf3 f2bc
00000380: 7812 a9bd 8780 0abc 5f36 82bd 8a73 40bd
00000390: 6a1b 133d b3bf 523c 735b 42bd 176c 77bd
000003a0: ad8a 8dbb e36a a2bd e090 803d 47b9 183d
000003b0: da1e 643d a0de a0bc 81fb 8ebd 1345 ac3c
000003c0: 7a05 86bc 50d4 173d 7a44 6f3d 2735 543d
000003d0: c7c3 00bc 27f6 a2bd 0d05 69bd 5820 8e3d
000003e0: 6de8 fa3c ed9a f63c ef81 59bd 2da3 06bb
000003f0: a71d a1bc ad1c 163d a5ba 8f3d f320 b1bd
0.16736282 0.0076006167 0.05969122 0.01639342 0.082237974 0.08838057 0.09097481 0.08079912
0.1106651 0.060717817 0.023494001 0.18638693 0.41462746 0.113206886 -0.06339505 -0.005810061
0.08916044 0.23559304 -0.01532832 -0.033282734 -0.015310603 0.07235737 -0.05088755 -0.08949168
-0.006479341 -0.06519301 -0.012746585 -0.022761298 0.052304816 0.018781114 0.032424178 -0.07171613
-0.068741694 0.02732153 0.041514277 0.0039623827 -0.059516348 0.027985884 -0.01576296 -0.09462662
-0.05147915 0.059225153 0.03468002 0.015322203 -0.026409758 -0.0025368289 -0.04991728 -0.07480516
-0.030385172 -0.09012889 -0.008802379 0.051187027 -0.044766095 0.069135085 -0.03574245 0.025873257
0.022345746 0.03896382 0.09435964 -0.09384091 0.09018542 0.020539869 -0.011923581 0.083819166
-0.0072760223 -0.014278889 -0.044986248 -0.04485897 -0.014956343 0.07188425 -0.07010738 0.02047403
0.018836355 -0.060914993 0.07986847 -0.043248404 0.097101144 0.038682748 0.04106125 -0.033064473
-0.093281716 -0.19555421 -0.17272721 -0.17598687 -0.16574398 -0.0003406167 -0.01015835 -0.10779485
-0.09841506 -0.14458731 0.004157773 -0.19119444 -0.20521879 -0.27975067 -0.14582317 0.040751684
-0.11048043 -0.12082635 -0.11904166 -0.10221065 -0.20736794 -0.13185598 0.078688435 0.010560722
0.025660757 -0.05058063 0.16128787 0.15776771 0.049516544 -0.028879808 -0.31473747 0.34557137
0.1514972 0.021568293 0.045431923 -0.17981508 0.2178355 0.15150113 0.06983768 0.073117316
-0.011478141 0.062463433 0.0722182 0.051112916 -0.04954409 0.056287196 -0.0731568 0.0027575195
-0.039847232 0.03063072 0.07854569 -0.040049136 -0.09012456 0.091942824 -0.045617726 -0.048582353
0.040909685 -0.06953869 0.033195235 -0.074175216 -0.03196268 -0.0026208477 -0.04392445 0.07290863
0.05439502 -0.06499016 -0.08072945 0.05472199 -0.06770938 0.022704065 0.06393486 0.06903434
0.079683416 0.062105346 -0.0039208382 -0.03705771 0.08681238 -0.072826676 0.022191882 0.02459699
0.055143524 -0.033504464 0.08225862 -0.0010404758 -0.04614364 -0.02396648 -0.02465855 -0.023726929
-0.06383815 -0.096401505 0.038491637 -0.013985986 -0.09905648 0.011313689 0.0711934 0.07911998
0.07331629 0.021011043 0.017966593 0.062301885 -0.03521247 -0.089259505 -0.053492483 -0.047334556
-0.13226816 0.08515902 -0.050058544 0.042589452 -0.00027566546 -0.074661806 -0.034023486 -0.17759952
0.05672311 -0.027612874 -0.01244292 0.007503815 -0.07423879 0.09569196 0.013782311 -0.05296334
-0.107980825 0.064621866 -0.053446285 -0.17115067 0.011139377 -0.089325406 0.016581612 0.033020105
0.050799515 -0.027716847 0.076666296 0.117444195 -0.060064007 -0.086858585 -0.12516762 -0.04416251
-0.015957277 0.18044971 0.0024578888 -0.014681382 0.035331395 0.07184458 -0.0639524 -0.02965721
-0.08255476 -0.008453495 -0.06358027 -0.046985187 0.035914816 0.0128630875 -0.047450494 -0.060405817
-0.00431951 -0.07930543 0.06277633 0.03728607 0.055693485 -0.019637406 -0.06981564 0.02102903
-0.016360033 0.03706771 0.058414914 0.051808503 -0.007859177 -0.07957106 -0.056889582 0.06939763
0.030628407 0.030103171 -0.05310243 -0.0020544038 -0.01966746 0.03664844 0.070180215 -0.08648863

conv1.bias f4 [32]
00000000: 805b f9bb 9ad8 25bd 871f 033b 3a18 983c
00000010: b0c2 e43d 84cd ee38 50f2 a73d faa5 5cbd
00000020: 6286 a239 0b76 1a3e ace6 e03d 8d1a 3f3d
00000030: ef73 c03d 2358 f03d ed0b 593b 3777 c03c
00000040: d6cf 853d f398 2f3e 8e20 6f3d 4927 dc3d
00000050: 9046 e63d 5f27 853d eeb7 b23d 8a67 c73d
00000060: dd15 b73d 56a6 97b9 a953 af3d 079e cf3c
00000070: fcdf dd3d 3eea 48bb e065 f03d d455 183b
-0.0076097846 -0.04048977 0.0020007805 0.01856624 0.11169946 0.000113870046 0.08200514 -0.053869225
0.0003099917 0.15084092 0.10981497 0.04665618 0.093971126 0.11735561 0.003311868 0.023494346
0.06533782 0.17148189 0.058380656 0.107496805 0.112439275 0.0650165 0.08726488 0.097365454
0.08939717 -0.00028924894 0.08560879 0.025343908 0.10833737 -0.0030657197 0.11738181 0.0023244517

conv2.weight f4 [64, 32, 1, 3]
00000000: ae87 c23d a149 9cbd b371 0d3c d60e c13d
00000010: 2de4 08bd 3ec0 b03d ca3a c13d e4f1 8dbd
00000020: c644 28bd b765 a13d 5b84 9abd fbe8 28bc
00000030: 56c1 1c3d 2bc9 09bd cde7 af3d 1b67 be3d
00000040: f5e8 b33d 39a4 853d 15c3 553d f9b1 4abc
00000050: 3e07 ecbb 7377 b13d d820 133d 00f3 43bd
00000060: c1a3 713c f6aa d43d cf76 693d f81e 5d3d
00000070: ef0c 6f3c ae93 3f3d 2bec f73c dd14 64bd
00000080: 9869 693d adfe 043d 7806 173d 4f4d b8bd
00000090: dffc 8a3d fa82 1b3d aa86 833d f916 6cbd
000000a0: e2e2 ef3d 835e 66bc 8c52 673c e800 f0bb
000000b0: ecda 093b 3fd6 c33c 3e5d 88bc 0364 853d
000000c0: 24f0 db3c 98a3 78bd e9e9 9a3d c6fd f2bc
000000d0: 60bd b3bc 5931 a83c 31f7 76bd 71c3 71bd
000000e0: d736 b3bd d196 88bb cfe7 9c3d 3c16 813b
000000f0: 6115 05bd 70b2 43bd a7ff a33c a9b1 a03d
00000100: 9f01 853d a264 35bd 7bcf f43b 1d93 eb3c
00000110: 1bfc 81bd 86e6 38bd a3a7 41bd 35e9 dfbd
00000120: b030 b8bd 0170 7ebd 7974 a13d 5d02 36bd
00000130: b73f 24bd 4583 bdbd 681b 013c e14a 8d3d
00000140: 1f96 0d3d 98a6 6fbb 5184 ccb8 0d1b a43d
00000150: 15a1 89bd ba95 e43b 2b48 bdbc 5653 0a3c
00000160: 533d 953d db8c adbd 28ef a63d cfdf 513d
00000170: 3393 72bd caa7 3e3d 884a ae3d a5ee 1339
00000180: fbd9 d53d 09a1 97bd c143 353c 0e26 babc
00000190: 3905 c73c 4a5c babc 9292 df3d dd51 f639
000001a0: e16b 993d 3e0c bd3d bdb6 d93b 69d1 84bd
000001b0: 754c dd3d effa 143a a3e5 82bd de14 c2bc
000001c0: e25d 473d b9e6 c4bc f560 a13d 8569 013c
000001d0: 8d5e aabd 3986 923d e46a 013d 9bda a43d
000001e0: ec78 2f3d 4a03 963d 4d75 6fbd d643 b5bb
000001f0: dae0 203d ee74 b0bd d818 bebc b1af bdbc
00000200: 716c 9b3d 3c2f 5bbd cbd3 fe3a 163e 553d
00000210: 4d18 953d 5836 303d ecac 9cbd beb9 3fbd
00000220: a33b 2fbc 3b4c efba e767 363d 8404 833d
00000230: a523 13bd 6636 7ebd 3f60 0b3d e1fd 0b3c
00000240: 898f ee3d f9c3 27bc 921e d3bd 3976 a63d
00000250: 26db 04bc e422 993d b4ab 313c 87d5 18bd
00000260: 20b2 423c f3c2 033e 58fb cfbc cf41 06bd
00000270: e8c7 02bd 787a 12bd cd4b 95bd 9423 373c
00000280: 690b 9d3d 6650 abbd 4982 a13d c497 1cbd
00000290: 58d1 fe3c 04b0 2e3d dfdd a5bd 6536 2f3c
000002a0: 9e7d 2bbd 8b3c a6bd e7c6 bcbd 26cd 493d
000002b0: 6e37 a8bd 8fa7 203d be71 e53d d491 90bb
000002c0: 9a69 10bd 697c 063d d665 8dbc c1e3 993c
000002d0: cc13 54bd 421f d03d f3d8 bb3c ba0d ad3b
000002e0: 8e48 cbbd 2dd9 203a 1559 6c3d b2e4 183d
000002f0: a431 033b cf92 e3bc d798 96bd d682 e83b
00000300: f353 1bbd b71c 6a3d 5a50 2b3d a883 4cbd
00000310: 9669 babc 460e 903c 2c70 b7bb da11 c63d
00000320: ff07 c03d 60f3 87bd 6b4e c03d c423 f03c
00000330: 90c4 553e 2fac 473d 15e5 f03c 76f0 bb3d
00000340: 8d3c 8c3d 65f6 1c3c eb25 78ba ba61 81bd
00000350: c613 9c3d fb82 933d 1aee 81bd d862 0dbc
00000360: ebd0 29bd 41fb 78bd ddd2 b5bd 4634 bd3d
00000370: d637 a63d 627e 733d 79d3 213e 690c 2b3e
00000380: 5a7f 583d 3f45 69bb 10db e53d 2f9d 39bb
00000390: afd5 c23d f2dd d73d 0518 313e 875a d23b
000003a0: 1efa 073d 4661 8b3d 1e22 6f3d e4ef 8dbb
000003b0: eb73 f73c fa80 3ebd 84fa 263d 70cd 10bc
000003c0: 9ca0 9f3d 4adc 0d3e 682c 123d 61c9 c83d
000003d0: dbf5 4b3e 4a10 723e 5e37 2b3e eb92 443d
000003e0: 6da6 2c3e e9d4 873d 2c2b a43d 13a3 103e
000003f0: 58e5 963d 4a4f 7d3d e8a8 9fbc 7955 b13d
0.09498535 -0.07631231 0.008633065 0.09426658 -0.03342073 0.08630417 0.09435041 -0.069309026
-0.041081212 0.07880729 -0.07544776 -0.010309453 0.038270317 -0.033639114 0.08589134 0.092970096
0.087846674 0.065254636 0.052187998 -0.012371534 -0.007203012 0.08665361 0.035919994 -0.047839165
0.014748515 0.10384171 0.05699807 0.053984612 0.014590486 0.046771698 0.03026398 -0.05568396
0.056985468 0.03246944 0.036871403 -0.089991204 0.067865126 0.037966706 0.064221695 -0.057639096
0.11713196 -0.014060619 0.014118802 -0.007324327 0.0021035029 0.023905871 -0.016646024 0.06513216
0.026847906 -0.06070289 0.07564146 -0.029662024 -0.021940887 0.020531343 -0.060294334 -0.059024278
-0.08750694 -0.0041683693 0.076614015 0.003939418 -0.03249109 -0.047777593 0.020019365 0.07846386
0.0649445 -0.044285424 0.0074710227 0.028756673 -0.063469134 -0.04514172 -0.04727901 -0.109331526
-0.089936614 -0.062118534 0.078835435 -0.044435848 -0.040099826 -0.09253553 0.007880069 0.06899048
0.034566995 -0.0036567803 -9.752124e-05 0.08012972 -0.06720177 0.0069758566 -0.023105701 0.00844272
0.07287087 -0.08474132 0.08151084 0.05123883 -0.05922241 0.046546735 0.085103095 0.00014107914
0.10441967 -0.07403762 0.011063517 -0.022723224 0.024294483 -0.022749085 0.10916628 0.0004698177
0.074912794 0.09230851 0.0066440986 -0.06485254 0.10805599 0.0005683144 -0.06391456 -0.02369159
0.048673518 -0.024035798 0.07879821 0.007898693 -0.083188154 0.07154507 0.03159608 0.08049508
0.04283993 0.07324846 -0.058461476 -0.0055317683 0.039276935 -0.086160526 -0.023205206 -0.023155065
0.07589043 -0.053511843 0.0019441781 0.052061163 0.07280026 0.043020576 -0.0765017 -0.046807997
-0.010695371 -0.0018256971 0.044532683 0.06397346 -0.035922665 -0.062063597 0.034027334 0.008544416
0.11648471 -0.010239595 -0.10308565 0.08128018 -0.00810889 0.07477358 0.01084416 -0.03731301
0.011883289 0.12867336 -0.025388405 -0.032777604 -0.031928927 -0.035761327 -0.072898485 0.011177916
0.07668192 -0.08364944 0.07886178 -0.038230672 0.031105682 0.04264833 -0.08098959 0.010694121
-0.041867845 -0.081170164 -0.09217625 0.04926791 -0.082136974 0.039222296 0.11203335 -0.0044119153
-0.03525696 0.03283349 -0.017260473 0.01878536 -0.051776692 0.10162212 0.022930598 0.0052811773
-0.09925948 0.00061358773 0.057702143 0.037327476 0.0020018602 -0.027779965 -0.07353371 0.007095675
-0.037921857 0.05715629 0.041824676 -0.049930245 -0.022755425 0.017584931 -0.0055980887 0.09671374
0.09376525 -0.06638217 0.09389957 0.02931393 0.20875764 0.04874819 0.02940611 0.09176724
0.06847487 0.009580229 -0.00094660994 -0.06317468 0.07620959 0.07202717 -0.063442424 -0.008629523
-0.041459005 -0.06078649 -0.088781096 0.09238486 0.081161186 0.0594467 0.15803327 0.16703953
0.052855827 -0.0035594252 0.112234235 -0.0028322448 0.09513413 0.105403796 0.17294319 0.006419483
0.033197515 0.06805663 0.058382146 -0.0043315757 0.030206641 -0.04650972 0.040766254 -0.008838043
0.07794306 0.13853565 0.03568688 0.09804035 0.19918005 0.23639026 0.1672034 0.047991674
0.16860361 0.06632406 0.08016047 0.14124708 0.073679626 0.061843194 -0.01948972 0.08658881

conv2.bias f4 [64]
00000000: 0a92 143c b5ab e53c 51a8 2f3e dc25 aa3c
00000010: d501 803d 64f8 20ba de53 273e 7add 313e
00000020: 38e9 e43d bafc c3bc a057 ef3d 4c46 b53b
00000030: 5f95 193e 3ff0 973c d2a8 1a3d df7b 443e
00000040: cf81 0e3e f166 953c 9011 0f3e a8a8 913e
00000050: a8d3 323e 863f 263e 3c18 213e 7ef9 153e
00000060: 246e 6a3d 9d5b 3c3d 7b7b d33d 5419 d63c
00000070: 20ab ef3d 5422 803c 8898 053d f7c7 e03d
00000080: 4ce8 9d3d 22fc 993d 91dd c4bd 4071 963d
00000090: 0513 84bc eb66 cb3d d789 5d3e 50df 163e
000000a0: 5894 143e f2de cb3d abac fa3d f6d1 db3d
000000b0: af7e 2c3e de32 bebb 0bd5 973d 2b85 d7bb
000000c0: 33ed 8abd c35b 3f3e 7134 2f3e f944 f73d
000000d0: 3a40 073e d163 fc3c 7be5 023e a5fa a93e
000000e0: 964d de3d 1bf1 143e 85e5 783d ce75 f93c
000000f0: 6f1c d7bd 1437 b43c 5ac2 c53d a06d d63d
0.009068022 0.028035978 0.17154051 0.020770006 0.062503494 -0.0006140529 0.16340587 0.17369643
0.111772954 -0.02392422 0.11686635 0.0055320617 0.14998387 0.018547175 0.037758656 0.19187878
0.13916706 0.018237563 0.13971543 0.28448987 0.17463553 0.1623517 0.15731901 0.14645955
0.057233945 0.045985807 0.103262864 0.026135124 0.117025614 0.015641369 0.03261617 0.1097564
0.07710323 0.07518794 -0.09612573 0.073458195 -0.01612235 0.099317394 0.21634613 0.14733624
0.14509714 0.09954633 0.12239965 0.10733406 0.16845201 -0.0058044037 0.074136816 -0.006577154
-0.067835234 0.18687348 0.17109849 0.12073702 0.13208094 0.030809315 0.12782852 0.3319904
0.10854642 0.145451 0.060765762 0.030451681 -0.1050347 0.02199892 0.0965621 0.10470128

fc1.weight f4 [128, 832]
00000000: 3ce6 ef3d c896 9e3d 0d2b b43d ef31 1c3d
00000010: e3dc b93d 941f af3d 8ff1 463d bf8c 183d
00000020: b437 3b3d 2d03 ad3d 9644 233d 503d 983d
00000030: b087 753d a780 e83e cfb9 d33e ee63 023f
00000040: 4dff e23e 8c45 d13e cf16 c13e 8a4c c53e
00000050: 1072 913e e0dc 503e 893d 033e 78d7 0a3e
00000060: f338 183e ba23 d93c a9b2 643c 826b 4f3c
00000070: 7d94 1f3d 6bee 873c 8922 453d f960 093c
00000080: abdb ba3c 113e 71bb ecf0 133c b6e2 343d
00000090: 5ce7 7e3b 06f3 083d e496 113d 9bea 003d
000000a0: b469 a63d 66d2 3a3e 3725 303e cf55 343e
000000b0: efdf 083e 17ff 183e ed77 dd3d 560c cd3d
000000c0: 3559 ac3d 8247 1b3d 30f6 033d 5163 0e3d
000000d0: 84c5 803e 39fb 6a3d 4084 a23d 941e ac3d
000000e0: e95d d33d cd64 083d bd70 0e3d c255 153d
000000f0: 831c a93d 9fe4 863d 6465 a33d 8d54 ce3d
00000100: b3e3 6a3d 8ee2 6c3d e4a2 e3ba 6951 7a3c
00000110: 7bba 61bc 9fa3 d8bb 4f93 fb3c ec7a b53c
00000120: 51d9 0f3d dfa7 d73c 611e 1a3d 539d 213d
00000130: 4d01 b53c 2a82 db3d cd88 7f3d 272d 893c
00000140: f172 333d d8d5 8d3c 7e91 dc3c 7f0a 173d
00000150: 320a 45bb a816 093d d6a9 523c 1389 a8bb
00000160: 460c 88bb 2f32 4f3d c090 5c3d 084b 343d
00000170: 1485 f83b 68eb 8d3d 4601 8e3b 5f81 513d
00000180: 7e7c 8b3d 5194 a93c a09b 343d 5d0a ca3c
00000190: b60a 303d b3b5 d63c 13b0 153d 09fb c43d
000001a0: 2aa9 963d 988b 893d c542 253d 005c eb3a
000001b0: fdc0 39bc 0ee5 9b39 5cb8 dd3c 6702 c03c
000001c0: 7e49 28bc 9729 3cbc a706 38ba 03dd 4e3c
000001d0: 5cbe 213d 5c60 dd3c 5a19 533d 5196 023e
000001e0: 5dd2 9b3d 7b14 6d3d be10 933d af83 6f3d
000001f0: 188b 5b3d eae4 413d 721f a93d e70c 803d
00000200: 925e ba3d abd5 7c3d d624 263d f47a e63b
00000210: 79b6 4a3d 49f4 bd3a 324a 5b3d d082 213c
00000220: b637 a23c 6867 513c 99a1 0e3d 0197 bdbb
00000230: 9e7a 373d 74f8 d23c 587e 303c 5256 a53d
00000240: f9ef 2a3c 2425 cd3c bbbe 1f3d c44c ee3b
00000250: 266b 3b3d d3b8 123d 6998 173d c70a 003d
00000260: 6341 fcbb 31c1 5dbc 5e6b 463d 2229 543d
00000270: 85a5 b63d a2e8 263c 1a0f 153d 34fd 493d
00000280: 3e9d 7e3b 6232 49ba 0735 6fbb 3bea 563d
00000290: 730c 8b3c d928 5e3d 7dae c03c d180 503d
000002a0: b8dc 833d 4f77 763d 9e33 773d d8d2 293d
000002b0: 6dbb 163c 4822 30b9 3ae5 b73c eea7 0d3d
000002c0: fc6a 223c 964e cc3a c7b9 68bc 3f58 51bb
000002d0: d54c b63c 2162 2c3d 1dcf 8f3d 92ca 953d
000002e0: 6af6 143d ba9f 173d 020f 123d 1d91 013c
000002f0: fb70 a1bb 41ec 0fbc 636c 2c3d 6fe4 3c3c
00000300: 8c8a ee3c 3a9c e63b d7f4 113c 70d3 283d
00000310: 1412 1b3c 77dc 5d3d 0538 5c3d 0e40 273d
00000320: 89d1 0b3d 5814 a53c 4c95 273d 5d58 543d
00000330: e849 233d ad9b e53c e5b2 893a d41b 263d
00000340: c8b9 1c3c cbdb ab3c 439a 783c 4586 dc3c
00000350: 95cb aabb d1cb 333c b09e 193d 6bbb cb3c
00000360: 0439 393c 1061 55bb 29af 673d c959 5f3d
00000370: 794f 273d 7fef 2e3d 3ca8 173d 766f 4b3b
00000380: f2b5 6e3c 6c68 8fbb 2c97 c43c 851a 4a3c
00000390: 607e 293d 162e ff3b eb8a 89bb 5a43 883c
000003a0: def2 ccba 0fd9 5d3d 32b5 483d 628d fe3c
000003b0: 4898 f93a 749e 3e3d e259 08bc 6ff5 163d
000003c0: 16e4 9bbb fbe5 b4b9 da52 093c f386 063d
000003d0: 2172 553c 881b 493d a800 0ebc 99e9 823d
000003e0: 905b 13ba 31f5 983c 52e7 8c3c cf89 ed3b
000003f0: d4ea acbb b60c 253d 0aa7 983c 7c25 c33b
0.117138356 0.07743603 0.08797274 0.038133558 0.09075334 0.08550945 0.048570212 0.0372436
0.04570742 0.08447871 0.03986033 0.074335694 0.059943855 0.45410654 0.41352698 0.5093373
0.44335404 0.40873373 0.37712714 0.38534957 0.28407335 0.20396757 0.12816443 0.13558757
0.14865474 0.026506294 0.0139586115 0.012659909 0.03895997 0.016593179 0.04812864 0.0083849365
0.022809824 -0.0036810676 0.009029608 0.04416152 0.0038895225 0.03343489 0.03554429 0.031473737
0.0812563 0.18244323 0.17201696 0.17610858 0.13366674 0.14941059 0.1081389 0.100121185
0.084154524 0.037909992 0.032217205 0.034762684 0.25150692 0.05736849 0.07935381 0.0840427
0.10320646 0.033299256 0.034775484 0.03645874 0.08257391 0.06586575 0.07978323 0.100747205
0.057346057 0.057833247 -0.0017367271 0.015278199 -0.013777371 -0.006611302 0.03070989 0.02215334
0.03511936 0.026325164 0.037626628 0.039456677 0.022095347 0.10718186 0.062386323 0.016745163
0.04381079 0.017313883 0.026924845 0.036875244 -0.0030065891 0.033468872 0.012857875 -0.0051432936
-0.0041518537 0.05058497 0.05384898 0.044016868 0.0075842235 0.06929666 0.004333648 0.05114877
0.068108544 0.020700606 0.044093728 0.024663145 0.042978965 0.026209688 0.03654487 0.09618194
0.07356484 0.067160785 0.04034688 0.0017956495 -0.011337516 0.00029734563 0.027065448 0.023438646
-0.010271428 -0.011484525 -0.0007020034 0.0126259355 0.03948818 0.027023487 0.05153785 0.12752654
0.07608483 0.05788086 0.07180928 0.058475193 0.053599447 0.04733745 0.08257951 0.06252461
0.09100069 0.061727207 0.040562473 0.0070337 0.049490426 0.0014492358 0.053537555 0.009857848
0.019801956 0.012781002 0.03482208 -0.0057858233 0.04479467 0.025753237 0.01077231 0.08073105
0.0104331905 0.025042124 0.039000254 0.007272335 0.04575648 0.035820793 0.037010584 0.031260278
-0.0076982244 -0.01353483 0.048442237 0.05179704 0.08918289 0.0101873 0.036391355 0.04931374
0.0038851048 -0.0007675049 -0.0036500113 0.052469473 0.01697371 0.054238174 0.023520702 0.0509041
0.06438583 0.060172375 0.06035196 0.041460842 0.009199959 -0.00016797439 0.02244817 0.03458398
0.009913202 0.0015587385 -0.014204449 -0.0031943468 0.022253433 0.04208577 0.070219256 0.07314028
0.03636781 0.03701756 0.035658844 0.007908133 -0.0049267984 -0.008784355 0.042095553 0.011529072
0.029118799 0.0070376666 0.008908472 0.041217268 0.009464759 0.05416533 0.053764362 0.04083257
0.034135375 0.020151302 0.040913865 0.051842082 0.039865404 0.028028334 0.0010505585 0.040553883
0.009565778 0.020978829 0.015173498 0.026919493 -0.005212257 0.010973887 0.03750485 0.024869641
0.0113050975 -0.0032559074 0.05656353 0.054528985 0.040847275 0.04270887 0.037025675 0.0031041778
0.014569746 -0.0043764617 0.023997866 0.012335424 0.041380286 0.0077874763 -0.0041974685 0.016633678
-0.0015636345 0.05416208 0.049000926 0.031073276 0.0019042576 0.04653783 -0.008322211 0.036855157
-0.0047574146 -0.00034503624 0.00838157 0.03284354 0.013027699 0.04909852 -0.008667149 0.063922115
-0.0005621249 0.018671604 0.017200146 0.007249094 -0.005277017 0.040295325 0.018634338 0.005955396

fc1.bias f4 [128]
00000000: dc52 813d 6947 873d bcf6 7abc 5477 f8bc
00000010: b15e 3a3b 952a aebc 2602 53bb c2ae 0d3d
00000020: 72d1 dcbb 56b4 333c ad78 523d d055 c1ba
00000030: f1bc 4d3c 2619 913c 81cc 943d 8d76 59bc
00000040: 2a61 433c f8c4 743d 8252 62bc 1460 9d3c
00000050: 7083 83bc 0821 83bc 2c7a 00bd d2c9 fd3b
00000060: 5c4f 813b e840 cf3c d059 973b 086b c53c
00000070: b8d7 da3c decc 05bd 0e6c 7c3c ba5d f4bc
00000080: 31ba 133c 59e8 7f3d 8146 3b3c 61db c63c
00000090: 547b 423c f720 3dbc a808 dbbb e9b7 c8bc
000000a0: 9cf8 83bb 78c8 da3c df3a a7bc 86da c83a
000000b0: ecce 4b3c f47a 96bc 6a95 d53c c9b6 ea3c
000000c0: d3f3 b03c 38ea 9e3a 605b f83c 903a c33c
000000d0: fc8f 0e3c 6017 f83c f555 d63c e92e 973d
000000e0: 7e3e b53c 5022 643b cc96 27ba 817a bdbb
000000f0: ea46 613c 5127 c8bb f3d7 313b 7ad0 833d
00000100: bc4d 353d af6a f53c 3c14 5fbc 877b 1cbd
00000110: a346 c4bc a2d2 51bc e943 e2bc 6ae2 7f3c
00000120: 8436 783c 7356 623c 866d f33c a875 ad3c
00000130: d72c 0cbd c135 03bd 4113 673d 7e6d dc3c
00000140: f939 fc3c 7abd 21bb 3da7 8b3d f642 dfbc
00000150: 9fa9 cc3c 3c29 18bd 3fe7 983c aaa6 a83c
00000160: 45cb 3d3d 30c9 603d 093f 813b 9d8d 07bd
00000170: 8e88 d73b 0cde 973c d959 97bc c075 8cbc
00000180: 4bca 0eba 94dd c63c 8422 463c 0c94 7cba
00000190: dc8a 873b c91e 0fbb f383 cfbb 2247 d33c
000001a0: fd7d b9bb 9824 c13c e524 5e3c 3c02 923c
000001b0: 29f6 af3b 171d e83c 1e6c 11bd 7dfd f7bc
000001c0: 1165 e43c 44ba f53b 1b37 f9bb 55bb e6bc
000001d0: 1d4e 18bd 60a3 bb3c 120d 413d 4cbf e53c
000001e0: 9d84 d13c 42b1 773d 86f9 edbc 5a20 d83c
000001f0: 6198 59bc 9df2 93bb 3aeb 65bc 755f 943c
0.06314632 0.06605417 -0.015317615 -0.030330338 0.0028437788 -0.02126054 -0.0032197325 0.03459049
-0.006738835 0.010968288 0.051384617 -0.0014750306 0.012557254 0.017712187 0.072655685 -0.013272894
0.011925021 0.059758157 -0.013813617 0.019210853 -0.016053885 -0.016006961 -0.031366512 0.007745006
0.003946228 0.025299504 0.004618861 0.024098888 0.02671419 -0.03266608 0.015406622 -0.029829849
0.009016559 0.062477443 0.011430384 0.02427453 0.011870224 -0.011543504 -0.0066843815 -0.024501758
-0.0040274393 0.02670692 -0.020413814 0.0015323914 0.012439471 -0.018369175 0.026072223 0.028651612
0.02160064 0.0012124246 0.030317008 0.023831636 0.008701321 0.030284584 0.026164034 0.07381994
0.022124525 0.003481049 -0.0006393015 -0.005782426 0.013749817 -0.0061082025 0.0027136772 0.06436248
0.044263586 0.029958097 -0.013615664 -0.038203742 -0.023959463 -0.012806566 -0.027620273 0.015617946
0.015149716 0.013814556 0.02971531 0.021174267 -0.03422245 -0.032033686 0.056414846 0.026907679
0.030789362 -0.0024679587 0.068190075 -0.02725361 0.024983225 -0.0371487 0.018664954 0.020587284
0.04633643 0.054879367 0.003944282 -0.033094037 0.006577558 0.018538497 -0.01847546 -0.017145991
-0.0005447014 0.024275579 0.01209319 -0.0009635098 0.0041364264 -0.0021838418 -0.0063328682 0.025790755
-0.005660771 0.02357702 0.013558601 0.017823331 0.0053699207 0.028334184 -0.0355035 -0.03027224
0.027880223 0.0074990112 -0.007605446 -0.028165499 -0.03718387 0.022905052 0.047131605 0.028045319
0.02557593 0.06047178 -0.029049646 0.026382614 -0.013280959 -0.0045150057 -0.014033133 0.018111924

fc2.weight f4 [1, 128]
00000000: 5e81 6e3d 384f 023d 1708 843d 526b 8a3d
00000010: b33a af3c c54b 8ebd 6d9c 3c3d e8c6 953d
00000020: 8e05 86bd d580 a7bd caa3 983d 6d5d 273d
00000030: b84c fc3c bbb6 bbbc 006a 403d 5c7f 9bbd
00000040: 82f9 893c 3fd4 973d 32fd d2bd 9fed b93d
00000050: c0dd a8bc d8b4 423d 20a3 abbd f2a0 90bd
00000060: 2ce5 97bd a36f 613d 1205 8fbd 4398 993d
00000070: 12de a73d dc43 233d f595 25bd df9e 783d
00000080: b49f cebd da43 093d 0226 44bd 7443 e3bc
00000090: d15c 47bd 14f7 4bbd 3929 15bd 50ee 083d
000000a0: 1a5a 213d 2989 5bbc 9d78 b4bd 6da9 cabd
000000b0: 5161 ffbc 50eb 98bd b0be 9cbd d1f1 6c3d
000000c0: dde2 8e3d cca3 14bd bad5 f1bc dd59 dfbc
000000d0: 76c5 1d3d 415a 26bd dbb2 9cbc 1489 5b3d
000000e0: acf0 90bd a8a2 713d e989 a33d 40d1 11bd
000000f0: 1c57 f7bc 6f6c ba3c 9dff 473c ad51 f93c
00000100: aa7d 953d 535d ad3d a42c ff3c adc6 e8bc
00000110: 450a d5bd f2de 8fbd 5f91 03bd 3453 11bd
00000120: 588c bf3d d359 47bc 493b 86bd 5166 c3bd
00000130: 3715 a9bd 99a9 febc 243c b33d 48b6 ddbc
00000140: 4d38 b03c 5842 88bd 1c43 f03c e011 d6bd
00000150: a48f 2c3d f5e7 c8bd d8ef 9dbd 9b41 7ebd
00000160: e743 a13d e1bc b83d 22c3 2a3d 202c c0bd
00000170: 926d d4bd 3771 a1bd d1ba 6bbd 34a7 05bd
00000180: 50d3 8c3c 02e0 683d eebd 8ebd f117 0c3d
00000190: ceef 9bbc 61b5 1d3c b770 00bb 32e4 db3d
000001a0: 4839 96bd 367c cebd 00b8 babd 5c76 35bd
000001b0: 622b a2bd d18c 70bd 67e2 54bd 82fe 813d
000001c0: 0d18 b0bd be21 483d 04db 25bd 343a a23d
000001d0: a1ac 6ebc 8efd 543d 101a b93d e463 8dbc
000001e0: 8559 9c3d 5226 573d 6e56 16bd 629b ad3d
000001f0: 7c48 a8bd d76e 0cbd 8d0d 1b3c 274a 83bd
0.058228843 0.03181383 0.064468555 0.06758751 0.021390295 -0.06948046 0.046047617 0.07313329
-0.06544028 -0.0817887 0.07453115 0.040860582 0.030798301 -0.022914281 0.04697609 -0.07592651
0.016842607 0.074135296 -0.103021994 0.09078526 -0.020613551 0.047535747 -0.08380723 -0.07061948
-0.07416758 0.055038106 -0.06983389 0.07499745 0.081966534 0.039859638 -0.040426213 0.060698386
-0.10089055 0.033511974 -0.04788781 -0.027742125 -0.0486725 -0.04979618 -0.036416266 0.033430398
0.03939257 -0.013399401 -0.08812068 -0.09895597 -0.031174334 -0.07466757 -0.07653558 0.0578478
0.069768645 -0.03628902 -0.029520858 -0.02726453 0.03851839 -0.040613417 -0.019128254 0.053597525
-0.070771545 0.05899301 0.07985289 -0.035599947 -0.030192904 0.022756783 0.012206939 0.030434454
0.07299359 0.08465066 0.031149216 -0.028415048 -0.104023494 -0.07024945 -0.03212106 -0.03547974
0.0935294 -0.012167412 -0.065542765 -0.09541 -0.082559995 -0.03108673 0.08751705 -0.027064458
0.021511221 -0.06653279 0.029328875 -0.10452628 0.042129174 -0.09809867 -0.07711762 -0.062074285
0.078742795 0.09020401 0.04169 -0.09383416 -0.103724614 -0.07882922 -0.05755121 -0.03263016
0.017190605 0.056854255 -0.0696982 0.03420252 -0.019035246 0.009625764 -0.0019598433 0.10736884
-0.07335144 -0.10082285 -0.091171265 -0.04430233 -0.07918431 -0.058728043 -0.051973727 0.06347372
-0.08598337 0.048860304 -0.040492073 0.079212576 -0.014567525 0.05199962 0.09038174 -0.017259546
0.07634262 0.05252678 -0.03670352 0.084769025 -0.0821695 -0.034285393 0.00946368 -0.06410628
