cnn_agent_best.pt (torch, 946735 bytes, 7 tensors)

conv1.weight f4 [32, 5, 4, 1]
0	0x3e6678c8	0.22507012
1	0x3e9223b6	0.2854287
2	0x3d24a7f8	0.04019925
3	0xbe481da1	-0.19542553
4	0xbdedbd29	-0.11608345
5	0xbd936c8d	-0.07198439
6	0x3d8d8eea	0.06912024
7	0x3e5af967	0.21384202
8	0xbdece93e	-0.11567925
9	0x3d9b4939	0.075823255
10	0x3dfebf8c	0.124388784
11	0x3e05ebee	0.13078281
12	0x3d5e56ef	0.054282125
13	0x3debf8e7	0.11522084
14	0xbe171e33	-0.14757614
15	0x3d7f7878	0.062370747
16	0xbca38245	-0.019959578
17	0xbe162278	-0.14661586
18	0xbdc012cc	-0.09378585
19	0x3b840063	0.0040283664
20	0x3e6d3499	0.23164596
21	0x3e1d4cc6	0.15361318
22	0xbd65e0e3	-0.05612267
23	0x3e2e4a2c	0.17020482
24	0xbe59cc19	-0.21269263
25	0x3cbb9ae6	0.02290101
26	0xbd106a15	-0.035257418
27	0xbe6b0b23	-0.22953467
28	0x3c469932	0.012121486
29	0xbd5612d2	-0.052264042
30	0xbe100261	-0.14063407
31	0x3d45f1e1	0.048326377
32	0xbe5b5952	-0.21420792
33	0x3ade79e2	0.001697358
34	0xbd06b78d	-0.03288989
35	0x3e30667f	0.17226599
36	0xbe025cd0	-0.12730718
37	0xbd49354d	-0.049123097
38	0x3dbad78c	0.091231436
39	0xbea8b9a5	-0.32954136
40	0xb9a72f70	-0.00031888066
41	0xbdd7b64e	-0.10532819
42	0x3e13b5aa	0.14424768
43	0xbc23158a	-0.009953866
44	0xbe15038d	-0.14552136
45	0xbe206ec4	-0.15667254
46	0xbc9b00e9	-0.018921332
47	0x3dfbb386	0.12290101
48	0x3dbecaad	0.09316001
49	0xbe21fab9	-0.158183
50	0xbdc5d60f	-0.09659969
51	0xbd98e071	-0.07464684
52	0xbe26d3ab	-0.16291682
53	0x3d86be14	0.06579223
54	0x3dbc0a86	0.09181695
55	0x3cd472ae	0.02593359
56	0xbbe9a79a	-0.0071305754
57	0x3cd2ff96	0.025756638
58	0xbe883231	-0.26600793
59	0xbd0ab8d0	-0.033867657
60	0x3e7ca649	0.24672808
61	0x3dd208b7	0.102555685
62	0x3e684760	0.22683477
63	0x3ea11256	0.31459302
64	0x3de75637	0.11295741
65	0x3e38be2f	0.180413
66	0x3ce0c58f	0.027437953
67	0xbde01d46	-0.109430835
68	0xbce9a9a9	-0.028523283
69	0xbc68c522	-0.014207156
70	0x3d5b8caa	0.053600945
71	0xbd8c9533	-0.06864395
72	0x3e331bda	0.17491093
73	0x3bf4bdde	0.007468923
74	0x3e214a90	0.157511
75	0xbe343ec8	-0.17602074
76	0xbdab39e5	-0.08360652
77	0xbd8023fd	-0.06256864
78	0x3cc7e276	0.024399977
79	0xbd785645	-0.060629148
80	0x3e2f44d3	0.17116098
81	0x3e150604	0.14553076
82	0x3e9fe7d3	0.31231555
83	0x3ec3bc3e	0.38229555
84	0x3e67867f	0.226099
85	0x3df5b6a0	0.119977236
86	0x3d508435	0.050907332
87	0xbdb3be87	-0.087765746
88	0x3c5547ad	0.013017577
89	0x3e3bc0ae	0.1833522
90	0xbd1239b2	-0.035699554
91	0x3d30592a	0.043053783
92	0x3def0968	0.11671716
93	0x3d9bd0a5	0.07608155
94	0xbd868807	-0.06568914
95	0x3e1f3bd6	0.1555017
96	0x3da63b8b	0.08116826
97	0xbd48eced	-0.049054075
98	0xbe49fede	-0.1972613
99	0xbe8b14c3	-0.27164277
100	0x3e80a2b7	0.25124142
101	0xbdece267	-0.1156662
102	0x3d454276	0.048159085
103	0xbddd553c	-0.10807273
104	0xbe6126e6	-0.21987495
105	0xbe0af4c4	-0.13569933
106	0x3cc3846c	0.023866855
107	0x3d9d6522	0.07685305
108	0x3d9eedc2	0.077601925
109	0x3e25a0db	0.16174643
110	0x3d7fb622	0.062429555
111	0x3db178f4	0.08665648
112	0xbe7154c0	-0.23567486
113	0x3e06cf74	0.13165075
114	0x3d874054	0.066040665
115	0xbd5277a1	-0.05138362
116	0xbdc8291b	-0.09773465
117	0x3e0c0914	0.13675338
118	0x3d824ad0	0.063619256
119	0xbe6e1be6	-0.2325283
120	0x3d5a3cb1	0.053280536
121	0xbdf8e5ee	-0.121532306
122	0x3e2da7fd	0.16958614
123	0x3d8a058d	0.0673934
124	0x3de8f952	0.11375679
125	0x3e10e0d5	0.14148267
126	0xbd3cd121	-0.04609788
127	0xbd9115f5	-0.07084266
128	0x3de666fe	0.11250113
129	0x3de78a10	0.1130563
130	0x3d801875	0.06254665
131	0xbe1f0cee	-0.15532276
132	0xbc16a019	-0.009193444
133	0x3dd9fa52	0.10643448
134	0xbade351a	-0.0016953081
135	0xbe2ad758	-0.1668371
136	0xbe0b8b2b	-0.13627307
137	0xbc8736d2	-0.016505633
138	0xbe50f0af	-0.20404314
139	0xbe02ef65	-0.12786634
140	0x3d2ac689	0.041693244
141	0x3cc1936a	0.023629863
142	0x3e3fff8b	0.18749826
143	0xbd3ae930	-0.04563254
144	0xbdae9e69	-0.08526308
145	0x3ddbdc79	0.10735411
146	0x3dba093e	0.09083794
147	0x3d6c06ba	0.057623602
148	0xbe2a383c	-0.16623014
149	0xbd62d36a	-0.0553774
150	0xbdc9ed7c	-0.0985975
151	0xbdd87f37	-0.10571139
152	0xbe0c4dfc	-0.13701624
153	0xbe429261	-0.19001152
154	0xbe2eb2af	-0.1706035
155	0xbd1c1a8f	-0.038111266
156	0xbb85b3ed	-0.0040802867
157	0xbeb85766	-0.3600418
158	0xbe86998c	-0.26289022
159	0xbe23380f	-0.15939353
160	0xbdeb4b60	-0.11488986
161	0xbe4edf03	-0.2020226
162	0x3ea54622	0.3228007
163	0x3e8b34ca	0.27188712
164	0xbd0ea956	-0.03482946
165	0xbd21b7d1	-0.03948194
166	0x3d82b2c9	0.06381757
167	0x3dcacb1c	0.09902021
168	0x3c440527	0.011964119
169	0x3e0a1dda	0.1348795
170	0xbdd146c0	-0.102185726
171	0x3c9e542d	0.019327248
172	0x3d21a9a6	0.03946843
173	0x3e2eed1f	0.17082642
174	0xbc081f8a	-0.008308301
175	0x3cf632ac	0.03005346
176	0x3dfd989b	0.12382623
177	0xbe2ab593	-0.16670828
178	0xbe32d0f4	-0.17462522
179	0xbdf87628	-0.121319115
180	0x3d68ccb1	0.056835834
181	0xbd8cc586	-0.06873612
182	0x3df18085	0.11792091
183	0xbc81ca96	-0.01584367
184	0xbdab24f0	-0.08356655
185	0x3e4be72d	0.19912405
186	0xbd8a5a8c	-0.06755552
187	0xbb621754	-0.0034498768
188	0xbcae332a	-0.021264631
189	0xbd1c48c6	-0.03815534
190	0x3d60d028	0.054886013
191	0xbdcaf914	-0.09910789
192	0x3e17d3f3	0.14826946
193	0x3dd326ef	0.1031016
194	0xbdc09284	-0.09402946
195	0x3c0c9d1c	0.00858238
196	0xbe17164c	-0.147546
197	0x3d9237c5	0.071395434
198	0xbe7873d8	-0.24262941
199	0xbe4fc30c	-0.20289248
200	0xbd9d313b	-0.076754056
201	0x3e232be2	0.15934709
202	0xbe0a45a4	-0.13503128
203	0x3e4a814f	0.1977589
204	0x3dcf5a13	0.10124602
205	0x3bdb815d	0.006698771
206	0xbd92c731	-0.07166899
207	0xbc8fc007	-0.01754762
208	0xbbf21f59	-0.007388991
209	0x3c81d1b3	0.015847063
210	0xbe40dda7	-0.18834554
211	0x3dcf28a7	0.10115176
212	0x3d86b9c5	0.065784015
213	0xbe7cfbfa	-0.24705496
214	0xbdd2fcb0	-0.103021026
215	0xbe31059e	-0.17287299
216	0xbe0c9dc7	-0.13732062
217	0xbe320d83	-0.17387967
218	0xbe4dd5c9	-0.20101084
219	0xbdfd3761	-0.12364078
220	0xbddefb55	-0.108877815
221	0x3ca9cad5	0.0207266
222	0x3d187256	0.037218414
223	0xbe3d570f	-0.18490241
224	0xbe7b5257	-0.24543129
225	0x3e0b1cca	0.13585201
226	0xbe56ac09	-0.20964064
227	0xbd9710aa	-0.07376225
228	0xbcf9c2be	-0.030488368
229	0xbddaad82	-0.10677625
230	0xbcf4dd62	-0.02989072
231	0xbe199fb4	-0.15002328
232	0xbe22d31a	-0.15900841
233	0xbe587f96	-0.2114242
234	0x3badd9e6	0.0053055165
235	0x3be41a96	0.006961177
236	0xbd0579ba	-0.03258679
237	0x3ce6f6d8	0.028193876
238	0xbe85e0cd	-0.26148072
239	0xbe47c36a	-0.19508138
240	0xbddf95d9	-0.10917253
241	0xbe1d01e6	-0.15332755
242	0xbe55d879	-0.20883359
243	0xbe1f89f8	-0.15579975
244	0xbe2f21db	-0.17102759
245	0x3e53ade9	0.2067181
246	0xbd381315	-0.044940073
247	0x3d0ffb0b	0.035151523
248	0x3de012bd	0.10941074
249	0xbe443c43	-0.19163613
250	0xbc461bf0	-0.012091622
251	0xbdeb4b65	-0.1148899
252	0x3cde00c7	0.02709998
253	0x3e00655f	0.1253867
254	0x3d8e67d7	0.069534
255	0x3e0e6ca1	0.13908626

conv1.bias f4 [32]
0	0xbdc3fb96	-0.095694706
1	0x3c2b9956	0.01047357
2	0xbe811fed	-0.2521967
3	0x3d9f9388	0.07791811
4	0xbdaa58ce	-0.083177194
5	0xbe1ff696	-0.15621409
6	0xbcf13070	-0.029442042
7	0x3a8c9e31	0.0010728297
8	0xbe1541e1	-0.14575912
9	0xbe1032a6	-0.14081821
10	0xbd56b8e9	-0.052422438
11	0x3d0bcbb4	0.034129813
12	0xbdd39038	-0.10330242
13	0xbd5ce2c0	-0.053927183
14	0xbe506ad0	-0.20353246
15	0xbd016a09	-0.031595264
16	0xbe00d4d1	-0.12581183
17	0xbc6024c5	-0.013680642
18	0x3d8108b7	0.0630049
19	0x3e8217ba	0.25408727
20	0x3b6f6c35	0.0036533002
21	0xbd545b30	-0.051844776
22	0xbe35867e	-0.17727086
23	0xbe19433c	-0.14967054
24	0x3d917bad	0.071036674
25	0xbe562c34	-0.209153
26	0xbb15a144	-0.0022831718
27	0xbd0b65c2	-0.03403259
28	0xbdedefb6	-0.11617987
29	0xbe7167cf	-0.23574756
30	0xbe25d105	-0.16193016
31	0x3d8e5d8f	0.06951439

conv2.weight f4 [32, 5, 1, 5]
0	0xbda29c2f	-0.07939946
1	0xbd94a3c5	-0.07257799
2	0xbdebd1ee	-0.1151465
3	0x3cdbc0ef	0.026825396
4	0x3d19f0cd	0.03758316
5	0xbcd338ad	-0.025783861
6	0xbe340e96	-0.17583689
7	0xbe057657	-0.13033424
8	0xbdf56f6c	-0.11984143
9	0xbdb9cdad	-0.09072433
10	0xbc064a48	-0.008196421
11	0x3d289574	0.041158155
12	0xbe3cc2de	-0.18433711
13	0xbd273923	-0.040825974
14	0xbddccb8d	-0.10781012
15	0xbe647432	-0.2230995
16	0xbdaf8f10	-0.08572209
17	0xbe1d8551	-0.15382887
18	0x3e15ed40	0.14641285
19	0x3e1ccd2c	0.15312642
20	0x3e65d98d	0.2244627
21	0x3e4c0076	0.19922051
22	0xbd0f7f04	-0.03503324
23	0x3b39a73b	0.0028328437
24	0x3cba46a4	0.022738762
25	0xbe860ece	-0.2618317
26	0x3c3f5916	0.011678955
27	0x3b1f86e9	0.0024341887
28	0xbe0ca403	-0.1373444
29	0xbde1328d	-0.1099597
30	0xbe55be1e	-0.20873305
31	0xbbc0ff8b	-0.005889838
32	0x3e36b07a	0.17840758
33	0x3d100438	0.035160273
34	0xbe6457d6	-0.22299132
35	0xbe29ba6c	-0.1657502
36	0x3e19eda0	0.15032053
37	0xbe1fea00	-0.15616608
38	0xbda4b422	-0.0804217
39	0x3e220bfa	0.15824881
40	0xbdca96e6	-0.09892063
41	0x3dd90bd7	0.105979614
42	0xbdfb9f24	-0.12286213
43	0xbe085148	-0.13312256
44	0x3cc1cfcb	0.023658654
45	0x3df7d497	0.12101095
46	0xbe12ee81	-0.14348795
47	0x3e5e6a25	0.21720178
48	0x3e68040e	0.22657797
49	0x3e6f4fa3	0.23370223
50	0xbcc8722d	-0.024468506
51	0xbde0f81c	-0.10984823
52	0xbc6eeade	-0.014582364
53	0x3d3165a7	0.043309834
54	0xbda01996	-0.0781738
55	0xbe0ae5ea	-0.13564268
56	0xbe1e0658	-0.15432107
57	0x3dac6533	0.0841774
58	0xbb83e760	-0.004025385
59	0xbda064a8	-0.07831699
60	0xbe31372e	-0.17306206
61	0xbe448aac	-0.19193524
62	0xbd60affd	-0.054855336
63	0x3c2b2ff1	0.010448442
64	0x3d581e12	0.052763052
65	0xbe079bdb	-0.13243048
66	0x3d37f65c	0.04491268
67	0xbd2e6085	-0.042572517
68	0xbd3c24d1	-0.04593355
69	0xbd19cce1	-0.037548903
70	0xbe2c7c1d	-0.1684422
71	0xbe0ed638	-0.13948905
72	0xbe38ce81	-0.18047525
73	0xbe7e3b0c	-0.24827212
74	0xbe3b2345	-0.18275173
75	0x3e3025b9	0.1720189
76	0x3dc6d8a7	0.09709292
77	0xbd780734	-0.060553744
78	0x3e0d0af3	0.13773708
79	0x3e008e6d	0.12554331
80	0x3d938895	0.07203785
81	0x3d83d2c6	0.06436686
82	0x3d4e4e4a	0.05036763
83	0xbc9dc13e	-0.019257184
84	0xbe1c289b	-0.15249865
85	0xbd821da1	-0.063533075
86	0x3e0eb884	0.13937575
87	0x3d624dc8	0.05524996
88	0xbd7e0a3e	-0.062021486
89	0x3da098ac	0.0784162
90	0x3d118caa	0.03553454
91	0x3b102a10	0.0021997727
92	0xbdc1bca7	-0.09459811
93	0x3b89fc61	0.004210994
94	0x3cb67414	0.022272147
95	0xbe7682e0	-0.24073362
96	0xbe12f14a	-0.14349857
97	0x3cabeee0	0.020987928
98	0xbcf1c234	-0.029511549
99	0xbe3a361b	-0.18184702
100	0x3d966b21	0.07344652
101	0xbd5452bb	-0.05183671
102	0xbe0adcca	-0.13560787
103	0xbd2daf76	-0.04240366
104	0x3d1939c1	0.037408594
105	0xbda31377	-0.07962697
106	0xbd911549	-0.07084138
107	0xbe33b227	-0.17548428
108	0x3ddf346d	0.10898671
109	0xbd822a19	-0.06355686
110	0xbe522ca5	-0.20524843
111	0xbca6779c	-0.020320706
112	0x3e04b1dc	0.12958473
113	0xbdc5d7c8	-0.09660298
114	0xbd85f7b9	-0.0654139
115	0xbe135074	-0.14386159
116	0x3d8b1c17	0.06792467
117	0xbd051da7	-0.03249898
118	0x3dd583f5	0.104255594
119	0xbd869745	-0.06571821
120	0xbd95c1c2	-0.07312347
121	0x3cd85080	0.026405573
122	0xbb953bef	-0.004554264
123	0xbe41fb4b	-0.18943517
124	0xbd1165ef	-0.035497602
125	0x3e6bcc0c	0.23027056
126	0xbb17e31e	-0.0023176144
127	0xbe350b9c	-0.1768021
128	0x3e62b123	0.22137885
129	0x3e6cea75	0.23136313
130	0x3db6723e	0.08908509
131	0x3da70a6c	0.08156285
132	0xbdb0b0fc	-0.08627507
133	0xbdb8f2ba	-0.090306714
134	0x3dec1dc6	0.11529116
135	0x3e157388	0.14594853
136	0xbd8f7675	-0.07005016
137	0x3e35c28a	0.17749992
138	0xbd5576f6	-0.052115403
139	0x3e30cb32	0.17265013
140	0xbde0c21f	-0.10974526
141	0xbc7bdc9f	-0.015372424
142	0xbd56dde4	-0.052457705
143	0xbd69bcfb	-0.05706499
144	0x3d3ac9fa	0.045602776
145	0xbe139538	-0.14412391
146	0xbc0c443e	-0.008561192
147	0xbde2a000	-0.11065674
148	0xbe4e0ce7	-0.2012211
149	0xbdfe2db8	-0.12411064
150	0xbda5bd6d	-0.08092771
151	0x3e0140b7	0.12622343
152	0x3e4706a1	0.19436122
153	0x3e0cdce7	0.13756143
154	0x3e7732e9	0.24140514
155	0xbe12ee32	-0.14348677
156	0x3d7e5ad9	0.062098358
157	0x3ad7a644	0.0016452749
158	0xbe09cff4	-0.13458234
159	0x3c59a8c9	0.01328487
160	0x3d860ffe	0.06546019
161	0x3cf9c501	0.030489447
162	0x3db984a1	0.090585
163	0x3d99331d	0.07480452
164	0x3d8f5993	0.06999507
165	0x3cfe8a2f	0.03107175
166	0x3df8015a	0.12109633
167	0xbdd5f2ab	-0.10446676
168	0xba9e3205	-0.001206935
169	0x3d98fe83	0.07470419
170	0x3db65b0a	0.08904083
171	0xbe10a314	-0.1412471
172	0x3c1743fa	0.0092325155
173	0xbe313138	-0.17303932
174	0x3d1d1dee	0.03835862
175	0xbe987716	-0.29778355
176	0x3da20db4	0.0791277
177	0xbe2fa17b	-0.17151444
178	0xbe0ce884	-0.13760573
179	0xbdcb6042	-0.09930469
180	0x3e37a41c	0.17933697
181	0x3d640fc9	0.055679116
182	0xbdc24107	-0.09485059
183	0x3e2d7e38	0.1694268
184	0x3dfd8054	0.12377992
185	0x3e0c2506	0.13685998
186	0xbe119910	-0.14218545
187	0xbcb5f101	-0.022209646
188	0xbdf1085e	-0.11769174
189	0xbcff8dc9	-0.031195538
190	0x3d2ee497	0.04269847
191	0xbe515cf2	-0.20445612
192	0x3e1e6370	0.1546762
193	0x3c8a13fa	0.016855229
194	0x3deebb03	0.116567634
195	0xbbcf9738	-0.0063351654
196	0xbd821fe2	-0.063537374
197	0xbded971a	-0.11601086
198	0xbe4f7d86	-0.20262727
199	0x3d26c8c7	0.04071882
200	0xbdb7e439	-0.08979077
201	0xbd1e4de7	-0.038648512
202	0xbe0f3319	-0.13984336
203	0x3e082dae	0.13298675
204	0xbc29e0e2	-0.010368558
205	0xbe71fea2	-0.23632291
206	0xbdac4342	-0.08411266
207	0x3d821577	0.0635175
208	0xbd1ce27e	-0.038301937
209	0xbe264b78	-0.16239727
210	0xbe4d11ad	-0.20026274
211	0xbe4e6e3b	-0.20159237
212	0x3d95c57c	0.07313058
213	0xba8d94c2	-0.001080178
214	0x3b0032aa	0.0019561448
215	0xbd879df1	-0.06621922
216	0xbd563252	-0.052294083
217	0xbdc5cd5c	-0.0965831
218	0xbc4bd469	-0.012440779
219	0xb79a874c	-1.8421233e-05
220	0xbe806675	-0.2507817
221	0xbdc4f3b2	-0.09616794
222	0xbd34e845	-0.044166822
223	0xbe0f26bf	-0.13979624
224	0xbe317833	-0.17331009
225	0x3e1ccc3f	0.15312289
226	0xbd15d968	-0.036584288
227	0xbe150511	-0.14552714
228	0xbcb1dded	-0.021712268
229	0xbd1c65d8	-0.038183063
230	0xbb752876	-0.003740815
231	0x3c15dccc	0.00914688
232	0xbe08486d	-0.13308878
233	0x3e1a94f5	0.15095885
234	0xbe365548	-0.1780597
235	0xbe7519a7	-0.23935567
236	0x3db01818	0.085983455
237	0xbd84b19f	-0.06479191
238	0xbe102cde	-0.14079615
239	0x3d83299b	0.0640442
240	0xbe9025db	-0.2815388
241	0x3ceef610	0.029170066
242	0xbd3a4bd6	-0.04548248
243	0xbe8599d0	-0.26093912
244	0x3d8b24b7	0.06794112
245	0xbe00c5ba	-0.12575427
246	0xbdbc8cda	-0.09206553
247	0xbdad238a	-0.08454044
248	0x3baa0da1	0.005189613
249	0xbdf6d3a4	-0.12052086
250	0x3dbca427	0.09210997
251	0x3d181433	0.03712864
252	0xbc4e8689	-0.012605318
253	0xbda40c86	-0.08010201
254	0x3d9d1e86	0.076718375
255	0x3d64dc17	0.055873957

conv2.bias f4 [32]
0	0xbd6ba087	-0.057526138
1	0xbd9e6d42	-0.07735683
2	0xbdc03147	-0.09384399
3	0xbde691dc	-0.11258289
4	0xbdad5579	-0.08463568
5	0xbe206cfa	-0.15666571
6	0xbe0f72dd	-0.1400866
7	0xbe330e29	-0.1748587
8	0xbd95702e	-0.07296787
9	0xbcf39fd2	-0.029739294
10	0xbd36d881	-0.044640068
11	0x3dceb6d4	0.100934654
12	0xbe47a854	-0.19497806
13	0xbdf86716	-0.12129037
14	0xbe3d03ef	-0.18458532
15	0xbe70a69d	-0.23501058
16	0x3d351404	0.04420854
17	0x3bdb602c	0.006694814
18	0xbe30c6f7	-0.17263399
19	0xbdd35897	-0.103196315
20	0xbd553b9f	-0.052058812
21	0x3e2cd8c8	0.1687957
22	0xbd0547db	-0.03253923
23	0x3d316e95	0.04331835
24	0xbdf1fd9c	-0.1181595
25	0x3d4e19ef	0.0503177
26	0x3e09458b	0.13405435
27	0xbd8fc79a	-0.07020493
28	0xbcdd5fcb	-0.027023217
29	0xbc8adaec	-0.016950093
30	0xbd8ed3b1	-0.06973971
31	0xbe639349	-0.22224154

fc1.weight f4 [128, 1828]
0	0x3c3d8074	0.01156627
1	0xbc38f4b2	-0.011288809
2	0xbb947b9c	-0.004531337
3	0x3c812d6b	0.015768727
4	0xbbc7986b	-0.0060911677
5	0x3cc3bd3c	0.023893945
6	0x3b206c8b	0.002447876
7	0xbbdb3cc1	-0.006690592
8	0xbc0426ec	-0.00806592
9	0xbc8eb5b4	-0.017420627
10	0x3b80993e	0.003924518
11	0xbb31116c	-0.002701844
12	0xba7d6c44	-0.0009667317
13	0x3c26220f	0.010139956
14	0x3c3b1035	0.011417438
15	0x3c87db67	0.016584111
16	0x3b4bc299	0.003109133
17	0xbb983bda	-0.0046458067
18	0xbb1fad11	-0.002436463
19	0x3c3c20c0	0.011482418
20	0xbb11faed	-0.0022274808
21	0x3c987dc3	0.018614655
22	0xbc313c7a	-0.010817641
23	0xbc3eb17f	-0.011638998
24	0x3bb3c3f2	0.005486005
25	0xbce88fc9	-0.028388875
26	0x3cd77568	0.0263011
27	0x3baf8018	0.005355846
28	0xbbaf3fa0	-0.005348161
29	0x3ce33cba	0.027738918
30	0x3d0d72b5	0.03453322
31	0x3c98d9ae	0.018658485
32	0x3bc328f2	0.005955809
33	0x3cbde707	0.023181451
34	0xbc5f2e3b	-0.013621862
35	0x3b544a1b	0.0032392803
36	0x3c4dda4d	0.012564254
37	0x3c0353df	0.008015602
38	0x3c8414d0	0.016123205
39	0x3a7b0d5e	0.0009576882
40	0xbc9dfa0b	-0.019284269
41	0x3bd9263a	0.0066268714
42	0x3c32cdeb	0.0109133525
43	0x3bcaacc0	0.006185144
44	0xbc8c9c35	-0.017164329
45	0x3bb58ee6	0.0055407165
46	0xbc287419	-0.010281586
47	0x3cfd8a4e	0.030949738
48	0x3c819998	0.01582031
49	0xbbef5623	-0.0073039695
50	0x3b4afd94	0.0030973898
51	0xbcdf1b5a	-0.027234722
52	0x3bdb9f56	0.006702344
53	0xbcbe2a12	-0.02321342
54	0x3bf28414	0.007400999
55	0x3bd3ec6c	0.0064673927
56	0x3c673cd5	0.014113625
57	0xbcee8376	-0.02911542
58	0xbcd0d959	-0.025494264
59	0x3adfe817	0.0017082718
60	0xbd4c0908	-0.0498133
61	0xbd369183	-0.044572365
62	0x3c2f5522	0.01070145
63	0xbb273a31	-0.0025516863
64	0x3c9bccaa	0.01901849
65	0x3bae072d	0.005310914
66	0x3b4b596c	0.0031028641
67	0x3b16df6b	0.002302135
68	0x3c02de92	0.007987635
69	0xbd138f4a	-0.036025323
70	0xbbde8304	-0.0067905206
71	0x3cb27860	0.021785915
72	0xbcc1d8e5	-0.023662994
73	0xbbc9a619	-0.0061538336
74	0xbcb7ebf0	-0.022451371
75	0x3bea17d2	0.007143953
76	0x3d10a9ad	0.035318065
77	0x3cdc38da	0.026882578
78	0xbd1623d1	-0.03665525
79	0x3c568803	0.013093951
80	0xbbeaea72	-0.0071690613
81	0xbc62fad3	-0.0138537465
82	0xbb104bd7	-0.002201786
83	0xbc15bc97	-0.009139202
84	0x3a9529f3	0.00113803
85	0x3c8d0481	0.017214062
86	0xbcee9c2c	-0.029127203
87	0xbb8c198d	-0.004275507
88	0xbadeada6	-0.0016989007
89	0x3b751c1d	0.003740079
90	0xbd14a9be	-0.03629469
91	0x3c90eca4	0.017690964
92	0xbc00a69a	-0.007852221
93	0x3b45183b	0.0030074257
94	0x3adfe5bb	0.0017082015
95	0xbc62dbd2	-0.013846355
96	0xbc82cd6a	-0.01596709
97	0xbc199868	-0.009374715
98	0x3c1f18e2	0.009710522
99	0xbade9b28	-0.0016983496
100	0x3c5e7440	0.013577521
101	0xbc950c7a	-0.018194426
102	0xbd1372c6	-0.03599813
103	0x3c9e1ecb	0.019301793
104	0xbc8e9495	-0.017404834
105	0x3ac869d3	0.0015290327
106	0xbc885230	-0.016640753
107	0x3b447346	0.0029975935
108	0xbcf58bc6	-0.029973876
109	0x3c95573a	0.01823007
110	0x3ba7ca43	0.005120547
111	0x3b5a1edb	0.0033282551
112	0xbca94092	-0.020660672
113	0x3aae91f0	0.0013318639
114	0xbcfcb914	-0.03084997
115	0x3c88d6a2	0.016703907
116	0xbb90f271	-0.0044234325
117	0xbc760505	-0.015015845
118	0xbc72180c	-0.014776241
119	0xbc2057db	-0.009786571
120	0xbd0dda9e	-0.034632318
121	0x3c59ded2	0.013297753
122	0xbcc620de	-0.024185594
123	0x3baac9fa	0.0052120658
124	0x3c7ee981	0.015558601
125	0x3b939145	0.0045034015
126	0xbc1d486d	-0.009599787
127	0x3b016e5e	0.0019749622
128	0xbc55db7b	-0.0130528165
129	0xbc766cde	-0.015040604
130	0xbc0ea71e	-0.008706836
131	0xbce8eb8d	-0.028432632
132	0x3c86d770	0.01646015
133	0xbcc735f1	-0.024317713
134	0x3a3ebe84	0.0007276314
135	0xbc5483a9	-0.012970843
136	0xbb8864c6	-0.0041624038
137	0xbc7c4664	-0.015397642
138	0x3aedce05	0.0018143064
139	0xbbd1804b	-0.0063934675
140	0xbce4fe01	-0.02795315
141	0x3bc73020	0.006078735
142	0xbc20dffb	-0.009819026
143	0xbcefd956	-0.029278439
144	0xbbae8fad	-0.005327186
145	0xbcd5160d	-0.026011491
146	0x3c7ae3ab	0.015313069
147	0xbcdaf522	-0.026728217
148	0x3b29a0e9	0.0025883263
149	0xbcd63d37	-0.026152236
150	0xbca1e7b6	-0.019763809
151	0xbcda76f3	-0.026668048
152	0x3ba691e5	0.00508331
153	0xbbce8581	-0.006302536
154	0x3baf03ba	0.0053410204
155	0xbcb0f20f	-0.021599798
156	0xbc9eb11f	-0.019371567
157	0x3c80d059	0.015724348
158	0x3b93b483	0.0045076027
159	0xbc7bb397	-0.015362642
160	0x3c5d488a	0.013506064
161	0x3b70257b	0.0036643434
162	0xbcf57be8	-0.02996631
163	0xbcf956d4	-0.03043691
164	0x3c2ecff5	0.010669698
165	0x3cc96ca2	0.024587933
166	0xbcaf585b	-0.021404436
167	0xbc81db2e	-0.015851583
168	0x3ab5efcc	0.0013880669
169	0xbcb716ba	-0.022349704
170	0x3c1769bf	0.00924152
171	0x3bc38e3b	0.005967883
172	0xbcaed00e	-0.021339443
173	0xbb5009c2	-0.0031744097
174	0xbb0ab70c	-0.0021166233
175	0xbca8f5f6	-0.020625096
176	0x3cca1ebb	0.024672857
177	0xbc31bfea	-0.010848979
178	0xbab7e1b9	-0.0014029063
179	0xbbfebb26	-0.0077737747
180	0xbc03684a	-0.00802047
181	0xbc888d84	-0.016669042
182	0xbc842e25	-0.016135285
183	0xbc08516d	-0.008320195
184	0x3cccc33e	0.024995442
185	0xbc664068	-0.014053442
186	0xbbf50739	-0.0074776676
187	0xbb8bd003	-0.0042667403
188	0x3ba24df4	0.0049531404
189	0x3bcb53f0	0.0062050745
190	0xbc6dce09	-0.014514455
191	0xbcc8686d	-0.024463857
192	0x3c3e1ba6	0.011603272
193	0xbc09f1c6	-0.00841946
194	0xb9e705b6	-0.00044064008
195	0xbcce5940	-0.025189042
196	0x3c10c250	0.00883539
197	0xbb514758	-0.0031933393
198	0x3c2b6d57	0.01046308
199	0xbcb164a7	-0.02165444
200	0xbcffadda	-0.031210829
201	0x3bb94e22	0.005655066
202	0xbc51db8b	-0.012808691
203	0x3bdccb37	0.0067380923
204	0x3c44f030	0.012020156
205	0x3d02ba1a	0.03191576
206	0xbce84fa6	-0.028358292
207	0x3c9520b0	0.018204063
208	0x3ce2c887	0.02768351
209	0xbaa915d6	-0.0012900184
210	0xbd08de34	-0.033415034
211	0xbc14befb	-0.009078736
212	0x3c3b46d0	0.011430457
213	0xbc41d67c	-0.011830922
214	0xbd373faa	-0.04473845
215	0xbce9dcd2	-0.028547678
216	0xbc4ad7bc	-0.012380537
217	0x3c14856f	0.009065016
218	0xbc0602cc	-0.008179378
219	0xbc4c841b	-0.012482668
220	0xbc1f939b	-0.009739782
221	0xbc8f17af	-0.017467348
222	0xbd1a54fa	-0.037678696
223	0xbca43255	-0.020043531
224	0xbcb02514	-0.021502055
225	0xbb748c35	-0.0037315015
226	0xbc8dc11d	-0.017303998
227	0xbd3ab66a	-0.04558412
228	0xbc56380d	-0.013074887
229	0xbc7e6dff	-0.015529155
230	0xbb03f2cb	-0.002013373
231	0xbceb8da4	-0.028754063
232	0x3a07ffd9	0.00051879656
233	0xbc95b35f	-0.018274007
234	0xbc255e99	-0.010093355
235	0xbcd4f86c	-0.025997363
236	0xbbddaab4	-0.006764734
237	0xbd416b6f	-0.047221597
238	0xbc06b52e	-0.008221908
239	0x3c050ca2	0.008120688
240	0xbcc6d24f	-0.024270205
241	0xbc49e76d	-0.012323243
242	0x3aa528e2	0.0012600685
243	0xbd4a6164	-0.049409285
244	0xbcd23897	-0.02566175
245	0x3b8abcce	0.004233933
246	0xbd00c6c4	-0.031439558
247	0xbcb0f921	-0.021603169
248	0xbc209339	-0.009800726
249	0xbcda54b2	-0.026651714
250	0xbd11ac37	-0.035564627
251	0xbb5b12e3	-0.0033428005
252	0xbcb4587c	-0.022014849
253	0xbcd4d467	-0.025980188
254	0xbd17c31b	-0.0370513
255	0x3bf645bc	0.007515637

fc1.bias f4 [128]
0	0xbb00140e	-0.0019543204
1	0x3baea70b	0.0053299717
2	0xbccac9e6	-0.024754476
3	0x3aff735c	0.0019489336
4	0xbd09313f	-0.03349423
5	0xbcb78945	-0.022404322
6	0x3b17fca8	0.0023191366
7	0xbc94c590	-0.018160611
8	0xbcaa8565	-0.02081556
9	0xbcf82bb1	-0.030294271
10	0xbc41d1d4	-0.011829812
11	0xbce2912d	-0.027657116
12	0x3bbc55af	0.005747519
13	0xbd1df7b6	-0.038566314
14	0xbccc2ad6	-0.02492277
15	0xbce4316c	-0.027855597
16	0xbb6c608b	-0.0036068286
17	0xbc6d0312	-0.014466064
18	0xbca1291b	-0.01967292
19	0xbc7a5103	-0.015278104
20	0xbd15640d	-0.03647237
21	0xbcd7336d	-0.026269639
22	0xbcb0a167	-0.021561338
23	0xbc5de976	-0.013544431
24	0x3c680cd7	0.0141632175
25	0xbc96be80	-0.018401384
26	0xbbae863c	-0.0053260606
27	0xbc7a48c8	-0.015276141
28	0x3baa2406	0.0051922826
29	0xbc8beb41	-0.017079951
30	0xbd0d7458	-0.034534782
31	0xbce5c4d4	-0.028047957
32	0x3c352af9	0.011057609
33	0xbb851fe2	-0.0040626386
34	0xbd3176fb	-0.04332636
35	0xbcdcf0ab	-0.026970228
36	0xbc157c76	-0.009123912
37	0xbccf7334	-0.025323488
38	0xbc74c33e	-0.0149391275
39	0xb9d24313	-0.00040104295
40	0xbc4259d1	-0.011862234
41	0x3be70a18	0.007050764
42	0x3c83e4a5	0.016100237
43	0xbd61155a	-0.054952003
44	0xbc36f2b3	-0.011166262
45	0xbc98f79e	-0.01867276
46	0xbcf6a663	-0.030108636
47	0x3c7e2c59	0.015513503
48	0xbc9687f1	-0.018375369
49	0xbc1cbf4c	-0.009567093
50	0xbc0bfb7d	-0.008543846
51	0xbcffb259	-0.031212972
52	0xbc6aaf21	-0.014323981
53	0xbb1dab6a	-0.002405847
54	0xbb94f36e	-0.0045456206
55	0x3a58f518	0.0008276268
56	0xbcf57212	-0.02996162
57	0xbc4b78dd	-0.012418953
58	0xbc64568b	-0.013936649
59	0xbd0a27fd	-0.033729542
60	0xbc9f5b5f	-0.019452749
61	0x3c7aa125	0.015297209
62	0x3adbb56e	0.0016762444
63	0xbb0652b7	-0.002049608
64	0xbc76f679	-0.015073412
65	0xbbc1bf38	-0.0059126876
66	0xbc7e8786	-0.015535241
67	0xbc70b6ae	-0.014691992
68	0xbd5ffe83	-0.05468608
69	0xbc1dd68c	-0.0096336715
70	0xbd562e8d	-0.052290488
71	0xbcf66afc	-0.030080311
72	0xbc0cfb13	-0.008604783
73	0xbcb8441f	-0.02249342
74	0x3a4f7597	0.00079139456
75	0xbc37132a	-0.011174003
76	0xbd08fbb2	-0.03344316
77	0xbb9f66e6	-0.0048645614
78	0xbcf3527e	-0.029702421
79	0xbbdba58d	-0.006703085
80	0xbd71e7bc	-0.05905889
81	0xba507042	-0.0007951298
82	0xbc116498	-0.008874081
83	0x3c173c49	0.009230682
84	0xbc8d7bd8	-0.017270967
85	0x3c78d381	0.015187145
86	0xbc68bfe0	-0.014205903
87	0xbcff5033	-0.031166172
88	0x3b2db10d	0.0026503236
89	0xbc6a64b4	-0.014306236
90	0x366cdedb	3.529646e-06
91	0xbc2a6f48	-0.010402508
92	0xbc8d1e50	-0.017226368
93	0xbbcf016e	-0.006317309
94	0xbcd36166	-0.02580328
95	0xbbc41e3b	-0.005985049
96	0x3c145bc0	0.009055078
97	0xbd2a0b82	-0.04151488
98	0xbc7e8966	-0.015535688
99	0xbc0c24c9	-0.008553692
100	0x3c15ebe4	0.009150479
101	0x3b38290d	0.002810064
102	0x3a5a1680	0.0008319393
103	0xbd1dcab9	-0.03852341
104	0xbc3321b5	-0.010933329
105	0xbc7338f2	-0.01484512
106	0xbbb0e819	-0.005398762
107	0x3bf7bac7	0.0075601074
108	0xbd031644	-0.032003656
109	0xbc8d6445	-0.017259726
110	0xbce751fb	-0.028237334
111	0x3b95a614	0.004566917
112	0xbac64cd4	-0.0015129098
113	0xbc6c2079	-0.014412039
114	0xbccba420	-0.024858534
115	0xb98fc123	-0.00027418984
116	0xbcb513c4	-0.022104152
117	0x3c1d396d	0.009596211
118	0x3b38bbe8	0.0028188173
119	0xbce460e1	-0.027878227
120	0x3ae40391	0.0017396082
121	0xbcb05a4b	-0.02152743
122	0xbcd21d50	-0.025648743
123	0xbcfa2046	-0.030532967
124	0xbcbd9707	-0.023143305
125	0xbc3eb6fa	-0.011640305
126	0x3c13f228	0.0090299025
127	0xbcb4b598	-0.022059247

fc2.weight f4 [1, 128]
0	0xb9a2ee17	-0.0003107644
1	0x3cab8bd6	0.020940702
2	0xbc9a62f6	-0.018846016
3	0xbc19df46	-0.009391611
4	0xbd51dec8	-0.05123785
5	0x3d8ec395	0.06970898
6	0xbd488bdf	-0.048961516
7	0x3d70dfe5	0.058807272
8	0x3d836e60	0.06417537
9	0xbd1bd107	-0.03804114
10	0xbcc58bfe	-0.024114605
11	0x3cf923bf	0.030412553
12	0x3c0ca7e1	0.008584947
13	0xbaf609a3	-0.0018771183
14	0x3d3f9c48	0.0467799
15	0xbd851154	-0.06497446
16	0xbca560c3	-0.020187741
17	0x3cf3e1ee	0.029770818
18	0x3d95d2ab	0.07315572
19	0x3c2d3b4f	0.010573222
20	0xbd25d7f3	-0.04048915
21	0xbd503bb3	-0.050838184
22	0x3d2bcb6d	0.04194205
23	0x3d9f9b8c	0.0779334
24	0x3cf9e3cb	0.030504128
25	0xbd393722	-0.045218594
26	0x3d888016	0.066650555
27	0x3c5601ab	0.013061921
28	0x3d37f9f8	0.044916123
29	0xbda172de	-0.07883237
30	0x3bb57028	0.0055370517
31	0x3d53a674	0.051672414
32	0xbd4a520a	-0.049394645
33	0xbd8ac6d8	-0.06776208
34	0xbc8cb1ac	-0.017174564
35	0xbd91bca2	-0.07116057
36	0x3cb0bd7a	0.021574724
37	0xbbe6dcbd	-0.007045357
38	0xbc761abc	-0.015021022
39	0xbdaf0f7a	-0.08547874
40	0x3cd7f59f	0.026362238
41	0x3b99b64e	0.004690922
42	0x3d8713a8	0.06595546
43	0xbc1a6a94	-0.009424824
44	0x3c7a89a9	0.01529161
45	0xbda05285	-0.07828239
46	0xbc7382e8	-0.014862753
47	0x3d856e0e	0.06515132
48	0xbd987d9c	-0.07445833
49	0xb7b994ec	-2.2123066e-05
50	0xbd80a929	-0.06282265
51	0xbca62b5a	-0.020284344
52	0x3a42b666	0.0007427692
53	0xbd491263	-0.0490898
54	0x3da7489d	0.08168147
55	0xbd03cba9	-0.032176647
56	0xbbfe32e3	-0.007757531
57	0xbd633dcf	-0.055478867
58	0x3b509057	0.0031824315
59	0xbba16737	-0.0049256342
60	0xbd7c2419	-0.061557863
61	0x3d9f6913	0.07783713
62	0xbd62193c	-0.055199847
63	0xbb932ca5	-0.004491406
64	0xbd420b36	-0.047373973
65	0xbd570258	-0.05249247
66	0xbbdc92a7	-0.0067313495
67	0x3d98ef00	0.07467461
68	0xbacba691	-0.0015537312
69	0xbd9321df	-0.07184195
70	0x3b655a38	0.0034996402
71	0xbafe743b	-0.0019413301
72	0xbb89d91c	-0.0042067897
73	0x3d8505fc	0.06495282
74	0x3d57799b	0.052606206
75	0xbcef9fb9	-0.029250966
76	0xbd29e908	-0.041482
77	0x3d566744	0.052344576
78	0xbbccebe6	-0.006253707
79	0x3d64b58c	0.0558372
80	0xbc6dfd3f	-0.014525711
81	0x3da26b2a	0.07930596
82	0xbcc522f8	-0.024064526
83	0x3d9e965a	0.07743521
84	0xbb74565c	-0.003728292
85	0x3d27656a	0.0408682
86	0x3d778947	0.060433652
87	0xbd6f9527	-0.058491852
88	0xbd84b81b	-0.06480428
89	0xbbb328ac	-0.005467495
90	0x3da72caf	0.081628196
91	0x3c1be047	0.009513921
92	0xbd6be0d4	-0.05758746
93	0x3d9e64b6	0.07734053
94	0xbc87844b	-0.016542574
95	0x3cd5a320	0.02607876
96	0xbce87f7c	-0.028381102
97	0xbbb68466	-0.0055699823
98	0x3c8daaed	0.017293418
99	0x3b929006	0.0044727353
100	0xbd5f56d8	-0.05452618
101	0x3d2b5c5f	0.04183614
102	0x3c33b79a	0.010969067
103	0xba1e0b67	-0.0006028921
104	0xbda237e3	-0.07920816
105	0x3d0eeabd	0.034891833
106	0x3c987fe6	0.018615674
107	0xbce2ec16	-0.027700465
108	0xbd2d5bf7	-0.042324033
109	0xbd886fcd	-0.06661949
110	0xbd0f6727	-0.035010483
111	0xbb0d05c5	-0.0021518331
112	0xbda2d92e	-0.0795158
113	0x3c041762	0.0080622155
114	0xbc3fc2dc	-0.011704173
115	0xbd7b42c5	-0.061342973
116	0xbdae3b6c	-0.085074276
117	0x3c932bfb	0.017965307
118	0xbb0c88ab	-0.0021443765
119	0xbd1c96b5	-0.038229663
120	0x3d937832	0.0720066
121	0xbd6c304e	-0.057663254
122	0xbcae3ee5	-0.021270225
123	0xbdaee206	-0.08539204
124	0x3c5b8870	0.013399228
125	0x3c92a89e	0.017902669
126	0x3cba8b2b	0.022771439
127	0xbd39e66c	-0.045385763
