cnn_agent_best_mlp.pt (torch, 402537 bytes, 5 tensors)

fc1.weight f4 [256, 260]
000000 ff b2 cf bc 76 ee ac bc 0a 8b f3 3c 34 08 cb 3d
       -0.025353907 -0.0211098 0.029729385 0.09913674
000010 6f 34 9a bc d3 ad 6b bd 00 c4 ba bc 67 b4 7e 3c
       -0.01882383 -0.05753882 -0.022798538 0.015545941
000020 a0 53 e3 bc 6b 5a 28 3d 3a ee cb 3d 70 e7 29 bd
       -0.027749836 0.041101854 0.099575475 -0.04148048
000030 4c 2f 11 bc a9 c0 6e bd 03 ee 0d 3d 08 ea 6e bc
       -0.008861374 -0.058289204 0.034650814 -0.014582165
000040 85 7f cb 3c ea 24 b9 bc c2 fb a4 3d 14 b9 7d 3d
       0.02484108 -0.02260061 0.080558315 0.061944082
000050 b0 fe 22 3c 07 d9 68 3d e8 c4 cc bc d0 b1 1d 3d
       0.009948418 0.0568476 -0.024996236 0.038499653
000060 c2 53 04 3d 4d 1f 38 bb bb fb 97 bd e3 dc 21 3d
       0.03230644 -0.0028094829 -0.07421061 0.039517295
000070 ad 44 03 bd 77 d2 88 bd 02 22 a2 bc 2e 18 0b bc
       -0.032047916 -0.06680768 -0.019791607 -0.008489652
000080 12 ac 99 3d 2c 1c dd bc 81 79 ea bc 0e 9f 84 bc
       0.07503523 -0.026990972 -0.02862239 -0.016189124
000090 38 1f d2 3c d4 78 64 bd f1 3f 18 3d 91 29 c5 bd
       0.025649652 -0.055779293 0.037170354 -0.09627069
0000a0 3b fc a1 3d 38 68 d3 bd 77 e4 51 bd 54 97 1e bc
       0.07909437 -0.103226125 -0.05124327 -0.009679634
0000b0 51 71 7b bd 9c b9 84 3c 3a 4a f8 bc 1a ff 29 3c
       -0.061387364 0.016201787 -0.030308831 0.010375762
0000c0 75 fd 32 3d 66 78 65 3d 79 5e 87 bd 71 fb 76 3d
       0.043698747 0.056023024 -0.06609816 0.060298387
0000d0 fd 4f b6 3c a8 d4 21 3d f5 c2 0e bb 2b 5e a8 bc
       0.022254938 0.039509445 -0.0021783684 -0.020552715
0000e0 ca 21 c9 3c f3 80 78 3c de b3 ef bc c1 6b 00 3d
       0.024552245 0.015167463 -0.029260572 0.031352762
0000f0 7e 65 0a 3c a9 15 3c 3d b5 1e 0b bd 5f 7b 3b 3d
       0.008447049 0.045919094 -0.03396483 0.045771953
000100 fd 4b 9a bc cd eb 4d 3a 0d 59 ee 3c 5a 9c 03 bd
       -0.018835062 0.00078552664 0.029095197 -0.03213153
000110 99 13 b6 3d 3f ab 61 3d 55 5f b7 bd cd 17 85 3b
       0.08890457 0.055094954 -0.0895373 0.004061675
000120 6f 8c ae bd c0 23 34 bd be 05 a7 bd 31 26 94 3c
       -0.08522879 -0.043979406 -0.08155392 0.018084617
000130 b0 21 69 bd a7 43 5e bd cc 2e 35 bd 71 98 b0 3c
       -0.056916893 -0.054263737 -0.044234082 0.021557065
000140 ba cf 9a bd cc c0 86 bb 85 c2 80 bb 1d cd 3b 3d
       -0.07559152 -0.0041123386 -0.0039294385 0.04584991
000150 fa a9 15 3c 35 59 d0 bc b6 17 1a bd 4b 79 61 3d
       0.009134764 -0.025433162 -0.03762027 0.055047315
000160 f2 80 6c bd 2f 35 43 3d a6 7a 93 3d d5 12 50 3d
       -0.05774016 0.04765814 0.07201128 0.05079921
000170 a2 0c 7a bd 9c c1 b6 bc 46 ba 1b bc 10 1f 49 bd
       -0.061047204 -0.022309117 -0.00950486 -0.04910189
000180 f1 3b 77 bd 32 ec fa ba e1 97 02 bd a8 ff 87 bd
       -0.0603599 -0.0019143878 -0.031883124 -0.066405594
000190 ab 7b f7 3a 78 75 14 bd 2c f3 2d 3c a1 55 2f 3d
       0.001888146 -0.03624484 0.010617059 0.04280627
0001a0 b1 24 54 bd 33 64 c8 bd aa 9a aa 3d b4 47 e7 3c
       -0.051792804 -0.097847365 0.08330281 0.028232433
0001b0 f7 1f 45 bd 1d 9f d0 3c bd 16 df bc 59 b1 09 bd
       -0.048126187 0.025466496 -0.027232522 -0.033616398
0001c0 59 1d 78 bc 1b 86 10 bd 6e 4a 07 bd 93 fc 25 3b
       -0.015143716 -0.035284143 -0.033029966 0.0025327548
0001d0 c5 7c 3b bb ce 6d 6f 3c ab 4f c5 3c f6 73 11 3c
       -0.0028608304 0.014613582 0.02408584 0.008877745
0001e0 7c 9b 22 3c f8 f2 21 bd df 84 c0 bc 61 68 02 3c
       0.009924766 -0.039538354 -0.023500858 0.007959456
0001f0 39 31 82 3d 4e f8 ad 3c fe 26 8a 3c 7f ee 73 bd
       0.06357045 0.021236565 0.016864296 -0.05955362
000200 db 8d 06 3d 2b 2c 98 bc fa fb 54 3b 0a 1c ab 3d
       0.032850128 -0.018575748 0.0032498823 0.083549574
000210 33 88 13 3d 59 d7 81 bb 4f bf 54 3c 9d 75 91 3d
       0.03601856 -0.003962439 0.012985065 0.07102511
000220 a6 6e 56 bd 98 b3 55 bc d5 d3 82 bd ed 5a 89 3d
       -0.052351616 -0.013043307 -0.0638806 0.06706796
000230 ae d0 68 3d d2 07 e2 bc df 2e ad bc 50 fe 14 3d
       0.056839637 -0.02759162 -0.021140514 0.036375344
000240 83 90 2a 3b f0 17 93 3d 3e d7 12 3d 96 ad f7 bd
       0.0026026077 0.071823 0.035849802 -0.12093656
000250 cd 60 71 bd b5 89 eb bc fa 3b 56 3c 9f b1 3e 3b
       -0.058930207 -0.028752187 0.013075823 0.002909757
000260 a2 e5 bf 3d 55 0d 8f bd 2b d5 45 3d df 29 14 bd
       0.09369971 -0.06984965 0.048298996 -0.036172744
000270 1a c2 2d bd 99 67 e9 3c 33 bb 9a 3d 83 8b df 3c
       -0.042421438 0.028491782 0.07555237 0.027288204
000280 f3 35 96 bc 59 83 69 bd c4 cd bc 3c d1 14 38 bc
       -0.018336272 -0.05701003 0.023047335 -0.011235432
000290 cc 89 26 39 d6 0d 8a bd 30 53 36 3d 43 50 69 bd
       0.00015882327 -0.0674092 0.044512928 -0.05696131
0002a0 26 b0 48 bd a3 56 11 3d f9 60 84 3d 75 87 81 3d
       -0.048996113 0.035483014 0.064638086 0.063246645
0002b0 5b ec 7d bd 09 ac 58 bd e1 50 12 3d bc d3 53 bd
       -0.061992984 -0.05289844 0.035721663 -0.051715598
0002c0 f5 1a 98 bc 97 50 03 bd e7 6a b4 3d d8 1c c7 3c
       -0.018567542 -0.03205928 0.088094525 0.024305746
0002d0 75 f3 e7 bc 00 cf c4 bc 3c fe 31 bd 00 e7 93 bc
       -0.028314332 -0.024024487 -0.043455347 -0.018054485
0002e0 af 7f d3 3d e1 b3 84 3a 6a 99 dd bc 68 61 a4 3b
       0.10327088 0.0010124409 -0.027050693 0.0050164945
0002f0 a0 9d fc bc aa 84 3c bd 35 72 be bc fb ae b5 3d
       -0.03083688 -0.046024956 -0.023247818 0.088712655
000300 9e c6 f7 bc 73 03 f3 3b 37 43 78 3c b6 6b 44 bd
       -0.030246075 0.0074161827 0.015152744 -0.047954284
000310 83 ec 61 bd e7 69 d0 bb 8a ef 11 3d ab 38 68 3d
       -0.055157196 -0.006360281 0.035628833 0.056694668
000320 fc b4 a2 3b ce a1 43 bc 5e 9c 42 bd d4 c5 09 bd
       0.0049654227 -0.011940433 -0.047512405 -0.03363593
000330 44 d7 64 bd 36 a3 20 3d d4 f8 bb 3c d3 e3 0f bd
       -0.055869356 0.03921815 0.022945799 -0.03512938
000340 80 42 09 bd 9c c0 40 3d b5 f9 1f 3a 61 7d a7 3c
       -0.033510685 0.047058687 0.0006102578 0.020445528
000350 5f 20 44 bd 7d 79 49 bb e3 d6 17 bd 7d 3a 1c bd
       -0.047882434 -0.0030742579 -0.037070166 -0.038141716
000360 ca f7 3c 3d 85 bc a2 bc 22 8a bb 3d d1 1a b5 bc
       0.046134748 -0.019865284 0.09157206 -0.022107514
000370 1e 8f 10 bd b9 4a 5f bd 96 4c 5f 3d d8 9c 11 3d
       -0.035292737 -0.05451462 0.054516397 0.03554997
000380 32 68 a3 bd 2e 0e af bd 33 ac f9 3a e8 3f dd bc
       -0.07978858 -0.085476264 0.0019048512 -0.027008012
000390 91 35 9a 3d f4 d8 ce 3b ad bb 53 b8 bd 99 24 bd
       0.07529748 0.006312484 -5.0481107e-05 -0.04018568
0003a0 a4 bd 0b bd ff d2 4f 3d 38 58 5a bd a6 ed a9 3c
       -0.034116402 0.05073833 -0.05330679 0.020743202
0003b0 2c af 0c 3c dc 5e a6 3a d4 02 66 bc 75 c9 8f 3c
       0.008586686 0.0012693065 -0.01403876 0.017552117
0003c0 62 9e a2 3d a6 13 82 3d 7d 1b 04 3d 66 bf bf bd
       0.079403654 0.06351404 0.032252777 -0.09362678
0003d0 fe 51 bb 39 b9 a8 4d bd e9 f7 9c bd 91 e7 25 bc
       0.00035728508 -0.050209735 -0.076644726 -0.0101260105
0003e0 68 1b d2 3d cc c3 52 bd c0 08 91 bd 2e 58 24 3d
       0.102591336 -0.051456258 -0.07081747 0.040123157
0003f0 db 6c c7 b9 ff f9 3b 3c de 6a aa bd fb 76 f5 3d
       -0.0003803734 0.011473178 -0.083211645 0.11985584

fc1.bias f4 [256]
000000 87 39 02 bc 10 61 85 3c b7 4c a8 bd 78 4d 83 3c
       -0.007948286 0.016281635 -0.08217757 0.01602815
000010 50 b3 ba 3d c1 3f 33 3d 2e c2 db 3d 3b a0 9e 3c
       0.091162324 0.043761972 0.10730396 0.019363513
000020 f6 bd 48 3d d7 0b 86 3d 63 fb 98 bc e6 97 9f 3d
       0.049009286 0.06545227 -0.018674558 0.07792644
000030 50 36 23 3b 92 28 01 bd 10 d9 4e bd ba 6b 19 3c
       0.00249042 -0.03153283 -0.050499976 0.009364063
000040 a9 37 88 bd 79 0f 9a bc 83 9f 35 bd ed a6 bd bd
       -0.06651241 -0.018806206 -0.044341575 -0.09260354
000050 e9 a6 b0 3c cf 79 a0 3d 84 bc b4 3d f3 ef 04 3c
       0.021563964 0.07835733 0.08825019 0.008113849
000060 03 d3 ee bc 43 30 21 3b d9 da be 3d 86 ba 8f 3c
       -0.029153353 0.0024595417 0.09319086 0.017544996
000070 d8 25 70 3c 4f 35 47 bc 9a 94 18 bd bb b4 90 3d
       0.01465746 -0.012158706 -0.037251092 0.070657216
000080 3c b0 26 bc 80 ed bb 3c 40 3f 96 bc db b2 72 3d
       -0.0101738535 0.022940397 -0.018340707 0.0592526
000090 8f f7 1f 3c d5 f6 a1 bc 46 11 35 3d a2 1e d9 3d
       0.009763612 -0.019771019 0.044205926 0.10601546
0000a0 ba 3a 3f bc 58 6c fd bc b2 13 8a bd 27 30 84 3d
       -0.011671716 -0.030935451 -0.06742038 0.06454497
0000b0 e8 3b a2 3d 1a f9 79 3d 56 31 0b 3a f7 04 90 bd
       0.079215825 0.061028577 0.0005309781 -0.07032197
0000c0 72 a0 90 bd f8 2e e8 3d 03 e7 46 3d 11 72 6b bd
       -0.070618525 0.113370836 0.048560154 -0.05748183
0000d0 c9 68 0b bd c6 77 46 bd 76 d9 f6 3c 77 d1 53 3d
       -0.034035478 -0.04845407 0.03013299 0.051713433
0000e0 b0 a4 7c bd 87 14 8e 3d 2a d7 e1 3b 8b cb 8c bb
       -0.061680496 0.06937509 0.0068921046 -0.004296725
0000f0 fd 0e 0e bc c9 73 21 3d 88 54 68 bb 09 1e dc 3c
       -0.008670566 0.039417062 -0.0035450775 0.02686979
000100 89 50 82 3d fa 7b ac bd 2d c5 da bc 68 f7 49 bc
       0.06363017 -0.08422084 -0.026705349 -0.012327053
000110 5e 42 83 3d 97 74 0d bb c6 b4 3c 3b 26 f4 98 ba
       0.06409143 -0.0021584386 0.0028794273 -0.0011669442
000120 bd 30 9a 3c 3c d7 d7 3c 53 12 4b 3c 59 22 85 bd
       0.018822068 0.026347749 0.012394506 -0.06500692
000130 28 39 e0 3d 69 bf be bb ea 32 9e 3c 90 90 a8 3d
       0.10948402 -0.0058211577 0.019311387 0.08230698
000140 77 d2 3a bb 02 41 bc 3c 62 47 9e bd ff d1 12 bd
       -0.0028506794 0.022980217 -0.07728459 -0.0358448
000150 ce aa 8a 3c d4 c7 f8 bb 70 3a 9d bd 1c d4 bd 3d
       0.01692715 -0.0075921807 -0.07677162 0.09268972
000160 ac 20 b0 bd 78 81 d8 3c d6 84 d4 bd da 6d 50 bd
       -0.08599982 0.026428923 -0.10376899 -0.050886013
000170 b7 94 1c bb 64 38 86 3d 90 80 ef 3b 86 d8 07 bd
       -0.0023892352 0.065537244 0.007309027 -0.033165477
000180 cd 5a 12 3c 20 29 c3 3c 26 1f 48 3d 18 fc 65 bd
       0.008932781 0.02382332 0.04885783 -0.05614862
000190 38 bc 0c bd 75 16 b1 3c 19 01 44 3d 01 32 04 bc
       -0.034359187 0.021617154 0.04785261 -0.0080685625
0001a0 87 33 bc 3d a8 ea db 3c 7f 9e 8e 3d 3d 36 9c 3d
       0.091895156 0.026845291 0.069638245 0.07627533
0001b0 36 be df bc e6 66 a3 bd e7 df 14 bd 4f f8 46 3d
       -0.02731238 -0.07978611 -0.036346342 0.04857665
0001c0 c1 7c 9e 3c 67 93 2f 3c 7d 0e 47 3c c7 e3 9f 3d
       0.019346597 0.010716296 0.01214945 0.07807117
0001d0 d8 65 91 3d 16 3d 2e 3d df a9 10 bc 80 b8 9a 39
       0.07099503 0.042538725 -0.008829563 0.00029510632
0001e0 24 cd 38 3d 37 cb 8d bd 26 b0 e3 3b 10 44 cd bd
       0.045117512 -0.06923526 0.0069484888 -0.100227475
0001f0 82 4e d0 3b 0a d1 41 3d 5f 3d 5a 3d 0a ae 81 bd
       0.006357015 0.047318496 0.053281184 -0.063320234
000200 e6 64 10 bd 96 eb 55 3d 1a 05 e2 bd 65 9f be bd
       -0.035252474 0.052226625 -0.11036129 -0.09307746
000210 e4 aa 73 3d 0b bf 81 bb 10 5e c0 3c cd 6c 82 bd
       0.059489146 -0.0039595417 0.023482352 -0.06368408
000220 95 28 62 bd 78 a9 81 3c 58 19 e2 3c 6d 36 d3 bd
       -0.055214483 0.01582788 0.027599975 -0.10313115
000230 03 51 3a bd e8 59 8b 3c d7 2b a6 bb 73 dc 8f bb
       -0.045487415 0.017010644 -0.005071144 -0.0043902933
000240 ab 88 a8 3d 0f 90 0b bd 19 01 be 3d 29 b0 ab 3d
       0.08229192 -0.03407293 0.09277553 0.08383209
000250 07 30 e8 3c 3a 78 08 3d a6 1e ee bc f7 0e 7e ba
       0.028343214 0.033317782 -0.029067349 -0.0009691561
000260 2f e7 19 bd a5 ea c4 3d d1 58 dd 3c c8 9c c0 3d
       -0.03757399 0.096150674 0.02701989 0.09404904
000270 06 d7 f9 bc c2 96 5a bd eb 3a a0 3c 2c 5f ca 3d
       -0.030498039 -0.05336643 0.019559344 0.09881434
000280 f2 47 c2 3d 91 06 b8 3d 86 9b 71 3d 2f 8a a7 bb
       0.09486379 0.089856274 0.05898621 -0.0051129083
000290 87 a2 a4 bd 6b 34 8b bd 95 1c 61 bd f5 a6 29 bd
       -0.08038812 -0.06797107 -0.0549589 -0.04141899
0002a0 3d 3a 59 bd f5 4f ff 3c 1a 41 82 3d 43 28 9d bd
       -0.053034056 0.031166056 0.063600734 -0.07673695
0002b0 b7 91 0b 3d bb 6d ca 3d 0a 2d d2 3d dd 10 58 3d
       0.03407451 0.09884211 0.10262497 0.052750457
0002c0 3f 18 de 3d c2 5c aa bc 57 e8 d4 3d eb da 87 3d
       0.10844468 -0.020796183 0.10395878 0.06633552
0002d0 61 ad 8a ba e8 dc 21 bd c3 04 e1 bc 5a 40 15 3c
       -0.0010580235 -0.039517313 -0.02746809 0.009109581
0002e0 02 c0 55 3c 55 a4 38 bd 36 5f 82 bc 7a 47 23 3d
       0.0130462665 -0.045078594 -0.01591454 0.039863087
0002f0 c8 19 50 3d b8 fe ae 3d 93 09 e6 bc 71 fc ec 3b
       0.050805837 0.085446775 -0.028080737 0.007232242
000300 2d dd 42 3b 9c e7 46 3b 94 e3 4a bd 1c 2c 5e 3d
       0.0029733882 0.0030350452 -0.04953344 0.054241285
000310 a3 54 55 bc cf e5 39 3c ca 01 43 3d 17 6a c9 3d
       -0.013020667 0.011346295 0.047609128 0.09834688
000320 a3 95 2a bc 0a fa 90 bb 13 d3 88 3c 91 30 8b 3c
       -0.010411653 -0.004424338 0.01670221 0.016990932
000330 81 e6 4b 3d f3 39 e9 bc c9 42 7f 3d b2 c3 d2 bd
       0.049780373 -0.028470015 0.06231955 -0.10291232
000340 7c 68 ff bc 77 ba f9 3c 0e 97 6f 3d 3c 97 75 bd
       -0.031177752 0.030484421 0.058493666 -0.05995868
000350 a5 aa 2d 3d 2c 51 d4 3c 70 63 bf bd ce 8c 84 3b
       0.042399067 0.025917612 -0.09345138 0.0040451055
000360 66 24 1a bc 7e 93 04 bd fc 4f b1 bd 97 18 16 3d
       -0.009408092 -0.032367222 -0.08657834 0.036644544
000370 48 9d 95 3d 35 4c 24 3a 52 40 c7 3d 0d 25 68 3d
       0.0730539 0.0006267459 0.09729065 0.05667596
000380 98 10 f0 3b 59 c4 a6 3d 33 b8 8a 3c 96 f9 89 3d
       0.007326197 0.08142919 0.016933536 0.06737058
000390 3a 97 b3 3c bc 9a 9a 3c 4c 3a dc bd d6 85 83 bd
       0.021922696 0.018872611 -0.10753307 -0.064220116
0003a0 b9 fc c8 ba ea 82 6e 3d 55 16 50 bd 6d bf 9d bd
       -0.0015334106 0.058230318 -0.050802547 -0.07702527
0003b0 2c 9b dc 3d 98 e1 a3 3b 76 0c 35 bd 0e 3b 34 bc
       0.10771784 0.005001258 -0.044201337 -0.011000408
0003c0 aa b5 98 bd e4 a0 74 3d 2c 3a a7 3c ec 51 48 3d
       -0.07456525 0.05972375 0.02041348 0.04890625
0003d0 41 97 a7 bc 9f 98 3f 3d ae f7 24 bb f3 3e ab bd
       -0.020457866 0.04677641 -0.0025172043 -0.08361616
0003e0 d1 91 a4 bc cb 9d 99 3d b9 10 f4 3c b3 b2 83 3d
       -0.020089062 0.075008 0.02979313 0.064305685
0003f0 0f b3 75 3d f2 5d 53 bd b1 6c 5c bb d6 a7 65 3d
       0.059985217 -0.051603265 -0.003363412 0.056068264

fc2.weight f4 [128, 256]
000000 40 63 19 bc 8b 64 b5 bc ec 71 72 bd 0a b6 72 3c
       -0.009362042 -0.02214267 -0.059190676 0.014813909
000010 54 24 95 3c 20 e0 5b bd f2 48 70 bd 3d 00 41 bd
       0.0182058 -0.05368054 -0.058663316 -0.047119368
000020 0c a5 18 3d 02 e3 93 bd c7 44 05 3d d5 0a d0 bc
       0.037266776 -0.07221033 0.032536294 -0.02539579
000030 ca 0a 4c bc a3 40 1c 3d 3a 32 7c bd 37 98 46 bd
       -0.012453744 0.03814758 -0.061571337 -0.048485007
000040 33 ae b1 bb 93 d5 63 bd 8f 0b bd bc 5e e3 e2 bc
       -0.0054223775 -0.055623602 -0.0230768 -0.027696308
000050 64 75 1f bd cb ef 27 bb be a2 11 3c be b1 54 bd
       -0.03893031 -0.0025625105 0.008888898 -0.05192732
000060 bf e8 ac 3c 3e 35 3b 3a 6d 8d 35 bd 95 35 24 3d
       0.021107076 0.00071414176 -0.044324327 0.040090162
000070 b7 e1 09 3c 1d 42 0d 3d 1d 76 18 3d cf 76 60 3d
       0.008415631 0.03448688 0.037222017 0.054800805
000080 dc 63 ef bc 39 69 7c bc 43 ae 05 bd dd 4b 46 bd
       -0.029222421 -0.015405946 -0.032636892 -0.048412193
000090 84 ba 66 bd 77 34 fa 3c dd 77 ac bb 2f 4e dc bc
       -0.05633022 0.030542595 -0.0052633123 -0.02689275
0000a0 bf a9 5a bd ba 84 9e bd 6e 90 04 bd 32 d2 2e bd
       -0.05338454 -0.07740159 -0.0323643 -0.042680927
0000b0 bb 80 36 bd 90 96 aa 3a bf ae 47 ba c2 5a c2 3c
       -0.04455636 0.0013014842 -0.0007617287 0.023724917
0000c0 a9 5a a5 3c 06 dc 38 3d ff a7 51 bd 5e a3 27 bd
       0.020184832 0.045131706 -0.051185604 -0.040927283
0000d0 45 89 68 bd 6f 44 5c bd 3b b3 81 bb 7e e1 81 bc
       -0.056771535 -0.0537762 -0.0039581335 -0.015854593
0000e0 0f b8 13 bd b1 6b ae 3b a9 af b2 3b a6 5a 1b bd
       -0.036064204 0.0053228964 0.005453069 -0.037928246
0000f0 46 9e 1e bd a9 b8 2b 3d 84 66 18 bd e8 d3 8e ba
       -0.03872516 0.041924153 -0.03720714 -0.0010896893
000100 6f ee 2a 3c 63 bd 50 3d b9 c2 57 bc 23 ea c1 bc
       0.010432824 0.050961863 -0.013168984 -0.023671215
000110 b1 d1 45 bd 52 79 1c bd 02 aa 5b bd 72 48 8e 3b
       -0.04829568 -0.038201638 -0.05362893 0.0043421322
000120 1e 4e 7f 3c a2 d2 1b bd 9f 68 17 3d 94 42 e9 3c
       0.015582589 -0.038042672 0.03696501 0.02847413
000130 30 94 6a ba 92 84 86 3c cd 32 57 3a f4 41 86 bd
       -0.0008948473 0.016420636 0.0008209169 -0.06555548
000140 1f 8e aa 3b 56 79 2c 3c 68 f5 cc 3c fe 16 7c bd
       0.0052049304 0.010526976 0.025019363 -0.061545365
000150 3e d3 63 3d 6c 92 8a bc 3b 26 df 3c fe 74 39 bd
       0.055621378 -0.016915523 0.02723991 -0.045277588
000160 a3 d0 8e bb b9 9a 99 3c 64 c7 fd 3c 49 e1 a5 3c
       -0.0043583675 0.018750535 0.030978866 0.020249026
000170 52 85 47 bd b8 8a 25 bc ae 3e a7 bc 0f 5a c5 bc
       -0.04871113 -0.010103874 -0.02041563 -0.024090795
000180 fe 25 44 bd dc 02 4f 3c ae ea 85 bc 9c af 13 bd
       -0.047887795 0.012634959 -0.016347256 -0.036056146
000190 cc 62 68 3d 8f 34 c3 bc 90 0a 68 3c 08 fd ec bc
       0.056734845 -0.023828773 0.014162675 -0.028929248
0001a0 0d b6 40 3d 33 8b 85 bd f9 92 8d 3c 1c 01 25 bc
       0.047048617 -0.06520691 0.017281996 -0.010071065
0001b0 45 20 8c bb 3f 13 e1 3c 00 48 b3 b8 c4 a9 e9 bc
       -0.0042763078 0.027474998 -8.548796e-05 -0.028523333
0001c0 10 15 80 bd b9 62 19 3d 83 9c 20 3d 3e 9d e8 3c
       -0.06254017 0.037447665 0.03921176 0.028395291
0001d0 85 ee 07 bd 42 30 c6 3b bc 5d b3 3c 6e d0 46 bd
       -0.033186454 0.0060482332 0.021895282 -0.048538618
0001e0 b9 a0 4e bd 5f 02 c9 bc f1 f6 02 3c c0 84 83 bb
       -0.050446246 -0.024537263 0.007993446 -0.004013628
0001f0 67 1b 84 bd 85 c3 10 3d 8f 13 87 bd 13 ee 58 3c
       -0.06450539 0.035342712 -0.065955274 0.013240355
000200 13 90 73 bd a5 5b 86 bd 56 b0 74 3c 80 12 06 3d
       -0.05946357 -0.065604486 0.01493462 0.032732487
000210 fa b5 05 3b 0a 7c 9c bd b5 3b 41 3a 64 3f 39 3c
       0.0020402656 -0.07640846 0.0007371263 0.011306617
000220 73 6a af bc 7f a6 fb 3c b8 93 43 bd a2 67 0b bd
       -0.021413064 0.03071904 -0.047748297 -0.03403438
000230 74 8f 0f bd 12 f7 31 3d 1c 17 5e bc 96 9e 42 bd
       -0.035048917 0.043448515 -0.013555314 -0.04751452
000240 e7 1e 68 bd 73 68 93 bd 95 f8 79 bd a9 38 d0 bc
       -0.056670096 -0.071976565 -0.061028082 -0.025417643
000250 90 d5 0c 3d cb 63 c7 bc b1 dc 01 bb 89 67 2d bd
       0.034383357 -0.024339577 -0.001981538 -0.042335067
000260 a7 bb fa 3c c5 b2 f1 bc 45 32 b4 3b 76 a0 3f bd
       0.030607058 -0.02950419 0.0054991567 -0.046783887
000270 28 0d 4f bd 7c e3 f7 3c 96 ca 0e 3d a0 bb 8a bd
       -0.050549656 0.03025984 0.03486117 -0.06774068
000280 26 da 53 bd ac d3 d2 3c 15 81 a3 bc 80 b5 52 3d
       -0.051721714 0.025735699 -0.019959012 0.051442623
000290 07 88 21 bd bd 04 7b bd 88 43 ed bc 65 ad 63 3d
       -0.039436366 -0.061283816 -0.028962865 0.055585284
0002a0 30 d6 2b 3d 0d c2 95 bd 08 af 47 bd 07 60 8e bd
       0.041952312 -0.07312403 -0.048750907 -0.069519095
0002b0 e2 0a 4a 3d ee d7 79 bd 97 b5 4c 3c b9 84 76 3c
       0.049326785 -0.060996942 0.012494466 0.015046292
0002c0 09 35 33 3d e0 8c 10 bc c7 69 a3 bc 38 34 a2 bb
       0.04375175 -0.00882265 -0.0199479 -0.0049500726
0002d0 8a ec 0b bd 33 89 be 3c 8c 2f 08 bd 1a 8e 10 bd
       -0.034161128 0.023258781 -0.03324847 -0.03529177
0002e0 6c c7 1e bc 52 e6 00 bd b5 20 f2 ba 13 e1 1d 39
       -0.009691101 -0.03146965 -0.0018472882 0.00015056533
0002f0 30 1f bc 3c 4e 1b fb bb b7 d1 8e 3c 9e f9 52 3c
       0.02296409 -0.007663167 0.017433984 0.012876896
000300 24 b4 26 bd 46 b9 75 bc e2 2c 86 bc fe bd 11 3d
       -0.04069914 -0.014997786 -0.016378824 0.03558158
000310 19 7c 7b bd 73 d1 01 3d 13 7f b1 3c b1 03 a1 3c
       -0.061397646 0.031693887 0.021667039 0.01965508
000320 c0 91 ee bc 06 a4 34 bd 4f 80 16 3d 43 f4 fe 3c
       -0.029122233 -0.044101737 0.03674346 0.031122332
000330 3d a5 00 bd 88 d6 72 bb 1e e4 48 3c f6 74 18 bb
       -0.031407584 -0.003705414 0.012261419 -0.0023263074
000340 9e c0 43 3d e6 67 19 bc 16 69 76 3c 2d 80 4a bc
       0.047791116 -0.00936315 0.015039703 -0.012359661
000350 9f 16 f8 bb bd b2 26 bd 89 a6 41 3d 0c 40 21 3d
       -0.007571056 -0.0406978 0.04727796 0.03936772
000360 01 de 84 bd 20 95 88 bd 7a ee 6e 3d 4a 04 47 bc
       -0.064876564 -0.06669068 0.058332898 -0.012147019
000370 93 6d 2f bd cd df 7f bd 67 cc de 3c ed be ae bc
       -0.042829107 -0.062469292 0.027197076 -0.021331275
000380 c9 4b 8b bd 22 10 c7 3c e2 a2 6f 3c 86 5b 33 bd
       -0.06801564 0.024299685 0.014626237 -0.043788455
000390 f3 90 51 bd 05 ba 37 3d 84 41 77 bc d5 6e 8f bd
       -0.051163625 0.044855136 -0.015091304 -0.070035614
0003a0 f2 97 b3 3c 72 70 7b bd e7 ce 3e bd d8 13 36 3c
       0.02192304 -0.061386533 -0.046584036 0.01111313
0003b0 bf c0 3a 39 8c f1 70 bd 75 8f a9 3c f4 a3 c0 bc
       0.00017810146 -0.058824107 0.020698288 -0.023515679
0003c0 6d 5f 20 3d 15 10 ff bc eb 39 76 bd 46 fe e5 3c
       0.039153505 -0.031135598 -0.06011383 0.028075349
0003d0 8b ac 01 bd 28 b3 e8 bc d0 2e ff 3b 14 30 08 bd
       -0.03165869 -0.02840574 0.007787563 -0.033248976
0003e0 40 ce 18 bd 51 4d a0 bb 42 66 95 bc ba 31 5d bd
       -0.03730607 -0.0048920293 -0.018237237 -0.0540025
0003f0 03 9a 0c 3d 86 9e 1b bd 1b 3b 08 bd 8a c5 79 bd
       0.034326565 -0.037992977 -0.033259492 -0.060979404

fc2.bias f4 [128]
000000 7f b7 72 bd a4 8d 24 3c d2 b3 e2 3b 08 ed d8 bc
       -0.059257027 0.010043535 0.006918409 -0.026480213
000010 5a 0f 02 bd e3 ab bb 3c d8 e7 a0 3c f7 16 cc bc
       -0.03175292 0.02290911 0.019641802 -0.024913294
000020 2e 9f 96 3d 1a 6a fe bc f7 05 a8 3d 53 ef da 3b
       0.0735458 -0.031056453 0.08204263 0.0066813617
000030 25 98 aa 3b bc 20 ba 3d 8b e3 0f 3d b6 89 91 bc
       0.0052061253 0.09088275 0.03512911 -0.017765861
000040 ab f7 99 bc dd 89 49 bc a0 5a 05 bd 39 49 9a bd
       -0.018794855 -0.012300936 -0.03255713 -0.07533497
000050 31 6b 9b 3d 61 33 83 bc 66 5b 58 bc a8 e8 d4 3c
       0.075888045 -0.01601571 -0.013205385 0.025989845
000060 d5 17 dd 3b 89 47 30 bd 13 58 d9 bc 18 6c 0a bd
       0.0067472258 -0.04303697 -0.026531255 -0.033794492
000070 7b ce 52 bd aa b0 a1 bb fc ec 93 bd 70 4d 83 bd
       -0.051466446 -0.00493439 -0.072229356 -0.064112544
000080 e7 00 88 bd 48 e1 35 bd f8 32 da 3c 8b c3 15 3b
       -0.06640797 -0.044404298 0.026635632 0.0022852148
000090 f9 2c 0b 3c 16 20 a9 3c 76 85 5d bc 82 67 5b bd
       0.008494609 0.020645183 -0.013520589 -0.05356551
0000a0 59 15 93 bc 05 0f 2b 3d da 88 94 3c 95 a7 a4 bc
       -0.017954515 0.04176237 0.018131662 -0.02009944
0000b0 0e 39 de 3c 33 a5 e4 3c e8 54 d5 3a 36 d6 06 bc
       0.027126815 0.027910804 0.0016275914 -0.008229783
0000c0 3e 21 19 bd 84 45 f9 3c 75 6d 61 bb 0d 11 8c 3a
       -0.037385218 0.030428655 -0.0034397517 0.0010686234
0000d0 92 9b 3e bd 4b 1a 07 3d 2f ad 46 bd ae 2b 36 3d
       -0.046535082 0.03298406 -0.048505004 0.04447525
0000e0 ab 9d 41 3d 0c f3 8e 3d 11 db d1 bc f0 63 82 bd
       0.047269505 0.06979951 -0.025617154 -0.06366718
0000f0 52 3a 67 bd 1c 9f 2a bd b0 b2 80 bd 30 69 98 bd
       -0.056452103 -0.041655645 -0.06284082 -0.07441938
000100 82 d3 30 bd a6 c2 27 3d f8 99 39 3b ba ea 26 bd
       -0.04317046 0.040957116 0.0028320532 -0.040751196
000110 13 a3 df bc b6 56 0f 3a da 2d 1a 3c fa 78 84 bd
       -0.02729944 0.0005467938 0.009410346 -0.06468387
000120 66 49 39 3d 94 90 91 3c 79 39 40 bd 81 1a a1 3c
       0.045236014 0.017769136 -0.04692981 0.019665958
000130 0c a2 34 bd 40 d4 82 3d 1f df 80 bd 2f f7 c7 3b
       -0.044099852 0.0638814 -0.06292557 0.0061024646
000140 66 20 38 bb cc 83 11 3c 63 d2 49 bd 32 e3 3a 3d
       -0.0028095483 0.0088815205 -0.049272906 0.045626827
000150 ab 33 44 3d 85 e3 8b bd dd 42 b5 bc 63 18 82 3d
       0.047900837 -0.06830505 -0.02212661 0.06352308
000160 21 40 3c bc ca c9 05 3d bf f4 8d b9 72 59 38 bc
       -0.011489899 0.032663144 -0.00027075966 -0.011251794
000170 98 2b 4d 3d 88 d4 8e bd 0b 23 48 bd c6 ea 88 bd
       0.050090402 -0.06974131 -0.048861545 -0.066854045
000180 ee 33 6b bd 8b 7f 7a 3c ac 3f 78 bd 72 94 42 bd
       -0.05742257 0.015289198 -0.060607597 -0.04750485
000190 92 41 87 bc 11 6f f0 bc d8 65 94 bc cd 70 be ba
       -0.016510759 -0.029349836 -0.01811497 -0.0014529467
0001a0 d8 19 18 3d c9 e1 d4 bc a6 c5 7f bd 43 61 9a 3b
       0.03713402 -0.025986569 -0.06244435 0.0047113015
0001b0 2f 35 f9 3c 69 26 4e bb d7 a4 d8 bb 31 d4 8b bb
       0.030420868 -0.0031456 -0.0066114473 -0.0042672385
0001c0 b3 48 1e bd 04 f4 e1 3c 59 b3 db bc 17 fc 14 3d
       -0.03864355 0.027582176 -0.026818918 0.036373224
0001d0 77 86 9b bc 12 58 d6 3b 64 50 73 3d f6 0e 01 bd
       -0.018985016 0.0065412605 0.05940284 -0.03150841
0001e0 b4 0e 63 3b 34 69 dd bc c4 83 7d bd 6a 50 d9 bc
       0.0034646215 -0.027027704 -0.06189324 -0.026527602
0001f0 8d d7 86 bd 53 1e 00 3c 84 4e 8a 3d 79 f1 2f bc
       -0.06584082 0.00781973 0.06753257 -0.010738724

fc3.weight f4 [1, 128]
000000 9e ba 1e 3d 6f a5 f2 bc d3 72 8b bd dc cc cc bc
       0.03875219 -0.0296199 -0.0680901 -0.025000028
000010 cc a8 a9 3c b2 9d 4f bb 0d af 35 bc 28 a0 94 bd
       0.020710371 -0.0031679687 -0.011089099 -0.0725711
000020 b8 d4 c9 bd 7c 87 01 bd 04 ee 8c bd 08 02 7f bd
       -0.09855026 -0.03162335 -0.068813354 -0.062257797
000030 35 83 a9 bc 63 2e 9a bd fc 33 4b 3d d8 c9 0d 3b
       -0.020692447 -0.07528379 0.049610123 0.00216352
000040 81 63 a4 3a 15 dd 60 3c 4c 39 98 bd d0 12 51 bd
       0.0012541862 0.013724585 -0.074328035 -0.05104333
000050 c2 09 ca bd 65 7e fb 3b 21 54 ad bc 53 0b d6 bd
       -0.098651424 0.0076749795 -0.02115828 -0.10451379
000060 51 a8 9c bd 45 c7 df 3c 29 a7 0f 3d dd e0 ab 3d
       -0.07649291 0.027316699 0.035071526 0.08392499
000070 0c 52 1a 3d c2 70 99 bd 2f 74 14 bc 02 52 7c 3d
       0.037675902 -0.0749221 -0.009060903 0.061601646
000080 7c 6f a3 3b 09 e8 9c bb 58 54 60 3d 03 84 a1 3b
       0.004987655 -0.004788403 0.054767936 0.004929067
000090 b1 0b f9 bc 14 6c f2 3b 4b d9 98 3d 18 e6 31 3d
       -0.030401083 0.007398138 0.0746332 0.043432325
0000a0 37 0a c9 bd da 82 c1 bd 3e 47 5f 3a c7 cf 9b bd
       -0.098164015 -0.09448786 0.0008517391 -0.0760799
0000b0 ce 4d 9b 3d 6e 62 94 3d 2e 9c 30 3d bb 4e a9 3b
       0.075831994 0.072453365 0.043117695 0.005166856
0000c0 b4 f2 d6 bc 7f 2b 80 3d b6 7e aa bd 56 6f 2c bd
       -0.026238777 0.06258296 -0.083249494 -0.042098366
0000d0 d9 18 c2 bd d9 ec eb 3c 4e d7 8f 3c ba 6d 80 bd
       -0.094773956 0.028799461 0.01755872 -0.06270929
0000e0 a6 3c b6 bd 89 32 d3 bd 4b 21 7b bd 61 87 fa 3c
       -0.088982865 -0.10312373 -0.061311048 0.030582132
0000f0 f1 e2 19 3c 96 9e 44 bd b6 09 90 bd a2 a1 c8 bd
       0.009392486 -0.0480028 -0.07033102 -0.09796454
000100 81 a2 ae bd c6 a7 4a bd f4 6b 95 bd fa a5 28 3d
       -0.08527089 -0.049476407 -0.07295981 0.041173913
000110 c1 cb 93 3d 12 2b fc bc 57 8b 89 bb 3e 26 27 bc
       0.07216597 -0.030782256 -0.004197519 -0.010201989
000120 63 36 76 3c a2 50 05 bd 7e 5f 11 3d 10 55 0c bd
       0.015027615 -0.0325476 0.03549146 -0.03426081
000130 eb 68 79 bd d6 2d 6a bd f1 de 14 3d 95 0f e9 3c
       -0.060891073 -0.05717262 0.036345426 0.028449813
000140 95 2b c8 bc ea 15 09 bb 15 69 9a 3d dd 6e 60 3d
       -0.024434844 -0.0020917603 0.07539574 0.054793227
000150 6f 50 bc 3c 9f f0 42 3d d2 f4 51 bd 9e b3 b5 bd
       0.022987572 0.047592755 -0.05125887 -0.0887215
000160 7a 38 aa 3c 81 8d 65 3d 4f 93 1f 3b f8 bb b6 bd
       0.020778883 0.05604315 0.0024349277 -0.08922571
000170 b2 9a 81 bd 76 2f 7b bd 10 f8 aa bc 5c b1 89 3d
       -0.06328334 -0.06132456 -0.020870239 0.06723282
000180 b3 c0 c5 38 b9 7b 25 3b 3a 96 b8 bc b4 eb 88 bd
       9.429585e-05 0.0025250746 -0.022532571 -0.06685582
000190 2f 63 66 3d 50 b6 1e b9 b7 d3 6d 3d 2c 7b 56 3d
       0.056246933 -0.00015135971 0.058063235 0.05236356
0001a0 5a f6 fd bc e3 7e 84 3d 19 ae 98 3c ef dd 71 bd
       -0.031001259 0.06469514 0.018637704 -0.059049543
0001b0 34 05 38 bd b5 87 49 bd c8 ea ab bd 10 67 66 3d
       -0.044926837 -0.049201686 -0.0839439 0.05625063
0001c0 58 8d e8 3c 8a 55 17 bd 10 1b 95 3d fe 0c 54 3c
       0.02838771 -0.03694681 0.072805524 0.012942551
0001d0 e9 5d 3d bd 69 29 11 be 52 c7 a4 bd c5 21 ba bc
       -0.046232138 -0.14175953 -0.0804583 -0.02272118
0001e0 92 0c 04 be 6a c4 6a 3b cb 88 07 bd be 67 21 3d
       -0.1289542 0.0035822638 -0.03308944 0.039405577
0001f0 cb fc 2d 3d dc d3 57 3d ee 44 a9 bd cd 6a 82 3d
       0.04247741 0.05269228 -0.082651004 0.06368027
