cnn_agent_best_old.pt (torch, 468527 bytes, 7 tensors)

conv1.weight f4 [32, 5, 4, 5]
0	0x3e258a01	0.16165926
1	0x3c94c2b2	0.018159244
2	0x3d816d6f	0.06319701
3	0x3c70c0b2	0.01469438
4	0x3dacecc5	0.08443598
5	0x3da0bf36	0.078489706
6	0x3db77a82	0.089589134
7	0x3da1310c	0.07870683
8	0x3dd89ae7	0.1057642
9	0x3d9691ed	0.07352052
10	0x3cb776df	0.02239555
11	0x3e306d75	0.17229255
12	0x3ed1865e	0.40922827
13	0x3deaeb77	0.114706926
14	0xbd75a9c6	-0.05997636
15	0xbc8c3e51	-0.017119559
16	0x3d9af29e	0.07565807
17	0x3e6d0c4e	0.23149225
18	0xbc31676f	-0.010827883
19	0xbcba9a91	-0.022778781
20	0xbc7ad953	-0.015310603
21	0x3d94301a	0.07235737
22	0xbd506f77	-0.05088755
23	0xbdb7476a	-0.08949168
24	0xbbd450a7	-0.006479341
25	0xbd8583ea	-0.06519301
26	0xbc50d70d	-0.012746585
27	0xbcba75e7	-0.022761298
28	0x3d563d93	0.052304816
29	0x3c99dada	0.018781114
30	0x3d04cf37	0.032424178
31	0xbd92dfe8	-0.07171613
32	0xbd8cc872	-0.068741694
33	0x3cdfd167	0.02732153
34	0x3d2a0ae0	0.041514277
35	0x3b81d6e0	0.0039623827
36	0xbd73c76a	-0.059516348
37	0x3ce542a7	0.027985884
38	0xbc812153	-0.01576296
39	0xbdc1cb9a	-0.09462662
40	0xbd52dbcd	-0.05147915
41	0x3d729613	0.059225153
42	0x3d0e0ca3	0.03468002
43	0x3c7b09fa	0.015322203
44	0xbcd85947	-0.026409758
45	0xbb2640ed	-0.0025368289
46	0xbd4c7610	-0.04991728
47	0xbd993373	-0.07480516
48	0xbcf8ea53	-0.030385172
49	0xbdb8957f	-0.09012889
50	0xbc1037da	-0.008802379
51	0x3d51a97d	0.051187027
52	0xbd375ca7	-0.044766095
53	0x3d8d96b2	0.069135085
54	0xbd1266ad	-0.03574245
55	0x3cd3f427	0.025873257
56	0x3cb70e6d	0.022345746
57	0x3d1f9887	0.03896382
58	0x3dc13fa0	0.09435964
59	0xbdc02faa	-0.09384091
60	0x3db8b322	0.09018542
61	0x3ca8433a	0.020539869
62	0xbc435b20	-0.011923581
63	0x3daba962	0.083819166
64	0xbbee6bb3	-0.0072760223
65	0xbc69f200	-0.014278889
66	0xbd384380	-0.044986248
67	0xbd37be0a	-0.04485897
68	0xbc750b73	-0.014956343
69	0x3d93380d	0.07188425
70	0xbd8f9475	-0.07010738
71	0x3ca7b927	0.02047403
72	0x3c9a4eb3	0.018836355
73	0xbd798200	-0.060914993
74	0x3da39215	0.07986847
75	0xbd31253d	-0.043248404
76	0x3dc6dcf7	0.097101144
77	0x3d1e71cd	0.038682748
78	0x3d282fd7	0.04106125
79	0xbd076e9d	-0.033064473
80	0xbdc9474e	-0.098280534
81	0xbe507aea	-0.20359388
82	0xbe3ceab4	-0.18448907
83	0xbe478eff	-0.19488142
84	0xbe3b3627	-0.18282376
85	0xbb485575	-0.0030568514
86	0xbc1fb442	-0.009747567
87	0xbe04a06c	-0.12951821
88	0xbdd04e52	-0.101711884
89	0xbe27fc56	-0.16404852
90	0x3c3387a1	0.010957629
91	0xbe414d26	-0.18877086
92	0xbe4fe060	-0.20300436
93	0xbe9abebe	-0.3022365
94	0xbe2e1768	-0.17001116
95	0x3d2c3e5b	0.042051654
96	0xbddb81f4	-0.10718146
97	0xbdef7729	-0.1169265
98	0xbe019a78	-0.12656581
99	0xbde21d2d	-0.11040721
100	0xbe59c480	-0.21266365
101	0xbdf8505c	-0.12124702
102	0x3dabcbe2	0.08388497
103	0x3c4a5d96	0.012351414
104	0x3cdd741f	0.02703291
105	0xbd86b7ec	-0.06578049
106	0x3e2528d0	0.1612885
107	0x3e260fa7	0.16216908
108	0x3d423b60	0.047419906
109	0xbca62c52	-0.020284805
110	0xbea64e34	-0.3248154
111	0x3eb092df	0.34487054
112	0x3e18cac5	0.149211
113	0x3cb9a0a9	0.022659617
114	0x3d6e7b14	0.058222845
115	0xbe44b3e2	-0.19209245
116	0x3e5b7b16	0.21433672
117	0x3e15198d	0.14560528
118	0x3d9ae60b	0.075634085
119	0x3dae4db7	0.08510917
120	0xbc3c0ed0	-0.011478141
121	0x3d7fd9a8	0.062463433
122	0x3d93e723	0.0722182
123	0x3d515bc7	0.051112916
124	0xbd4aeebe	-0.04954409
125	0x3d668d67	0.056287196
126	0xbd95d33b	-0.0731568
127	0x3b34b780	0.0027575195
128	0xbd2336da	-0.039847232
129	0x3cfaed47	0.03063072
130	0x3da0dc90	0.07854569
131	0xbd240a90	-0.040049136
132	0xbdb8933a	-0.09012456
133	0x3dbc4c85	0.091942824
134	0xbd3ad9a7	-0.045617726
135	0xbd46fe4a	-0.048582353
136	0x3d2790ea	0.040909685
137	0xbd8e6a4d	-0.06953869
138	0x3d07f7ba	0.033195235
139	0xbd97e92d	-0.074175216
140	0xbd02eb4d	-0.03196268
141	0xbb2bc287	-0.0026208477
142	0xbd33ea20	-0.04392445
143	0x3d95511f	0.07290863
144	0x3d5ecd50	0.05439502
145	0xbd851990	-0.06499016
146	0xbda5557b	-0.08072945
147	0x3d60242a	0.05472199
148	0xbd8aab37	-0.06770938
149	0x3cb9fde0	0.022704065
150	0x3d82f048	0.06393486
151	0x3d8d61e0	0.06903434
152	0x3da3310f	0.079683416
153	0x3d7e622d	0.062105346
154	0xbb807a60	-0.0039208382
155	0xbd17c9d3	-0.03705771
156	0x3db1cab0	0.08681238
157	0xbd952627	-0.072826676
158	0x3cb5cbc0	0.022191882
159	0x3cc97fa0	0.02459699
160	0x3d61de2d	0.055143524
161	0xbd093bfa	-0.033504464
162	0x3da87735	0.08225862
163	0xba886093	-0.0010404758
164	0xbd3d011d	-0.04614364
165	0xbcc4555a	-0.02396648
166	0xbcca00ba	-0.02465855
167	0xbcc25efa	-0.023726929
168	0xbd82bd93	-0.06383815
169	0xbdc56e27	-0.096401505
170	0x3d1da968	0.038491637
171	0xbc65257a	-0.013985986
172	0xbdcade20	-0.09905648
173	0x3c395d0d	0.011313689
174	0x3d91cdd8	0.0711934
175	0x3da209a8	0.07911998
176	0x3d9626da	0.07331629
177	0x3cac1f5a	0.021011043
178	0x3c932ead	0.017966593
179	0x3d7f3043	0.062301885
180	0xbcacfe43	-0.021117335
181	0xbdb5c7ae	-0.088759765
182	0xbd2e0bb2	-0.042491622
183	0xbd2bc44f	-0.04193526
184	0xbe06454c	-0.13112372
185	0x3da2b591	0.07944787
186	0xbd24e73d	-0.04025959
187	0x3d741fe5	0.05960073
188	0x3cf9b962	0.030483905
189	0xbd9bc5b0	-0.07606065
190	0xbcfe2d43	-0.031027442
191	0xbe2231cf	-0.15839313
192	0x3d84a8f8	0.06477541
193	0xbc84c3a5	-0.016206572
194	0x3ba69290	0.0050833896
195	0x3b72650e	0.0036986503
196	0xbd7f57bc	-0.06233953
197	0x3dde68bc	0.1085982
198	0x3d84a8bd	0.06477497
199	0xbc713edb	-0.014724459
200	0xbde77df3	-0.1130332
201	0x3db308d8	0.08741921
202	0xbd49bcf9	-0.049252484
203	0xbe451243	-0.19245248
204	0x3c584f66	0.013202524
205	0xbdcff7b9	-0.10154671
206	0x3b3e13e9	0.0029003567
207	0x3cc7350a	0.024317283
208	0x3d268ac7	0.040659692
209	0xbd0b585e	-0.03401982
210	0x3db55edb	0.08855983
211	0x3de5aa05	0.11214069
212	0xbd9fd17a	-0.07803626
213	0xbdd68e84	-0.104764014
214	0xbe0530ab	-0.13006847
215	0xbd881b90	-0.06645882
216	0xbca51b4f	-0.020154623
217	0x3e33c492	0.17555454
218	0xbc6a152f	-0.014287277
219	0xbc688348	-0.014191456
220	0x3d10b7a7	0.035331395
221	0x3d932340	0.07184458
222	0xbd82f97a	-0.0639524
223	0xbcf2f3ad	-0.02965721
224	0xbda91278	-0.08255476
225	0xbc0a8087	-0.008453495
226	0xbd82365f	-0.06358027
227	0xbd40738a	-0.046985187
228	0x3d131b6a	0.035914816
229	0x3c52bfb3	0.0128630875
230	0xbd425b73	-0.047450494
231	0xbd776c17	-0.060405817
232	0xbb8d8aad	-0.00431951
233	0xbda26ae3	-0.07930543
234	0x3d8090e0	0.06277633
235	0x3d18b947	0.03728607
236	0x3d641eda	0.055693485
237	0xbca0dea0	-0.019637406
238	0xbd8efb81	-0.06981564
239	0x3cac4513	0.02102903
240	0xbc86057a	-0.016360033
241	0x3d17d450	0.03706771
242	0x3d6f447a	0.058414914
243	0x3d543527	0.051808503
244	0xbc00c3c7	-0.007859177
245	0xbda2f627	-0.07957106
246	0xbd69050d	-0.056889582
247	0x3d8e2058	0.06939763
248	0x3cfae86d	0.030628407
249	0x3cf69aed	0.030103171
250	0xbd5981ef	-0.05310243
251	0xbb06a32d	-0.0020544038
252	0xbca11da7	-0.01966746
253	0x3d161cad	0.03664844
254	0x3d8fbaa5	0.070180215
255	0xbdb120f3	-0.08648863

conv1.bias f4 [32]
0	0xbc2a8e6a	-0.010409931
1	0xbd1da768	-0.03848973
2	0xbab74f91	-0.0013985505
3	0x3c94d160	0.018166244
4	0x3df5250f	0.11969959
5	0x3bc1c4bc	0.005913345
6	0x3dad457c	0.08460519
7	0xbd5de062	-0.054169066
8	0xbc326c40	-0.010890067
9	0x3e223e32	0.15844038
10	0x3ddf0f0b	0.10891541
11	0x3d29cddb	0.041456085
12	0x3e0373f8	0.12837207
13	0x3df5ab57	0.11995571
14	0x3a6efe44	0.0009116868
15	0x3c4ffbf1	0.012694345
16	0x3d877355	0.06613795
17	0x3e3348b5	0.17508204
18	0x3d782361	0.060580615
19	0x3dd80eaf	0.10549676
20	0x3de296d9	0.11063928
21	0x3d8d5625	0.069011964
22	0x3daf70fe	0.085664734
23	0x3dd0d34f	0.10196554
24	0x3dbfaff9	0.09359736
25	0xb8ba3e96	-8.880829e-05
26	0x3e229fd0	0.15881276
27	0x3c46f769	0.012143948
28	0x3dcd14ad	0.10013709
29	0xbada548c	-0.0016657277
30	0x3e196077	0.14978205
31	0x3a089271	0.000520981

conv2.weight f4 [64, 32, 1, 3]
0	0x3dd4521b	0.10367223
1	0xbd898793	-0.06715312
2	0x3c83a588	0.016070142
3	0x3dcef3ee	0.1010512
4	0xbcc91e8f	-0.024550704
5	0x3dbe356c	0.09287533
6	0x3dc6eb57	0.09712856
7	0xbd8974cf	-0.067117326
8	0xbd1d0521	-0.03833497
9	0x3db0bae7	0.08629399
10	0xbd8e3e39	-0.06945462
11	0xbb770708	-0.00376934
12	0x3d22186e	0.03957408
13	0xbd162e3a	-0.03666518
14	0x3db0757e	0.0861616
15	0x3dcda337	0.100408964
16	0x3dc32207	0.095279746
17	0x3d95377a	0.07285972
18	0x3d5c58aa	0.053795494
19	0xbc42d432	-0.011891412
20	0xbbdfe462	-0.0068326453
21	0x3db0d9cc	0.086352915
22	0x3d14885b	0.03626285
23	0xbd605737	-0.054770675
24	0x3c8d4f07	0.017249597
25	0x3de46c7b	0.111535035
26	0x3d5e69f0	0.05430025
27	0x3d4f34aa	0.050587334
28	0x3c0a20e8	0.008430697
29	0x3d1e554c	0.038655564
30	0x3cdbfd69	0.026854234
31	0xbd79c684	-0.060980335
32	0x3d4bce94	0.049757555
33	0x3d096124	0.033539906
34	0x3d18f2d1	0.037340943
35	0xbdbe32c9	-0.0928703
36	0x3d7f55ea	0.062337793
37	0x3d05cd30	0.032666385
38	0x3d70ef62	0.058822043
39	0xbd72d151	-0.05928165
40	0x3debdfa1	0.11517263
41	0xbc93600b	-0.017990133
42	0x3c89a7da	0.01680367
43	0x3a877c47	0.001033672
44	0x3ba74c9d	0.0051055686
45	0x3ce45683	0.027873283
46	0xbc5ac9ee	-0.013353808
47	0x3d8cc372	0.06873216
48	0x3ce32f11	0.027732404
49	0xbd74afc4	-0.059737936
50	0x3d96f480	0.073708534
51	0xbd0b2f40	-0.033980608
52	0xbcefc253	-0.029267466
53	0x3c63b076	0.013897052
54	0xbd736661	-0.059423808
55	0xbd837515	-0.06418816
56	0xbdbc1709	-0.09184081
57	0xbbad8902	-0.0052958736
58	0x3d9a3dd1	0.07531322
59	0x39b2bb9a	0.0003409058
60	0xbce8b1d8	-0.028405115
61	0xbd37dd8e	-0.044889025
62	0x3cd352e4	0.025796361
63	0x3d93cc47	0.07216697
64	0x3d755d93	0.059903692
65	0xbd4651f8	-0.048418015
66	0x3ac6ffd8	0.0015182449
67	0x3cb4b8f8	0.022060856
68	0xbd9aba51	-0.07555068
69	0xbd2f8898	-0.042854875
70	0xbd3e7200	-0.046495438
71	0xbddef12e	-0.10885845
72	0xbdafd87c	-0.08586213
73	0xbd72377b	-0.05913494
74	0x3dab758a	0.08372028
75	0xbd2493d2	-0.040180035
76	0xbd153e22	-0.036436208
77	0xbdb84832	-0.08998145
78	0x3c02c454	0.007981379
79	0x3d92623c	0.07147643
80	0x3d172846	0.036903642
81	0xbb872d5e	-0.0041252812
82	0xbb1a2312	-0.0023519439
83	0x3d9b1aae	0.07573448
84	0xbd85267f	-0.06501483
85	0x3c078b73	0.008272993
86	0xbcbe366d	-0.023219312
87	0x3c70845f	0.014679997
88	0x3da250cf	0.07925569
89	0xbda46b80	-0.080283165
90	0x3da8732f	0.082250945
91	0x3d577287	0.052599456
92	0xbd6ad548	-0.057332307
93	0x3d77c9d4	0.060495213
94	0x3dd7dab3	0.105397604
95	0x3c1afe67	0.009460068
96	0x3de5fa84	0.11229423
97	0xbd9098f2	-0.07060422
98	0x3c8553dd	0.01627534
99	0xbc9e46a7	-0.019320799
100	0x3cc70849	0.024295943
101	0xbc924231	-0.017853828
102	0x3dd7ae0d	0.105312444
103	0xba82ae63	-0.0009970184
104	0x3d9d8858	0.07692021
105	0x3db85687	0.09000879
106	0x3b3a9d22	0.0028475006
107	0xbd850587	-0.06495195
108	0x3dcffef0	0.10156047
109	0xbb6df714	-0.00363106
110	0xbd60ebb9	-0.054912303
111	0xbc5c2aed	-0.013437969
112	0x3d5b28a9	0.053505573
113	0xbc1968c1	-0.009363354
114	0x3d84b71e	0.06480239
115	0xba9040bf	-0.0011005624
116	0xbdafb143	-0.08578732
117	0x3d843e4f	0.06457197
118	0x3cb6dad8	0.02232115
119	0x3d94e466	0.07270126
120	0x3d239e43	0.039945852
121	0x3d87aece	0.06625138
122	0xbd83cea3	-0.06435897
123	0xbca8d6db	-0.020610264
124	0x3ccbe3ce	0.0248889
125	0xbdbefe0b	-0.093257986
126	0xbd1fbdbf	-0.038999315
127	0xbd226791	-0.03964955
128	0x3d8693f3	0.06571188
129	0xbd889e2c	-0.06670794
130	0xbc142c4c	-0.009043764
131	0x3d368754	0.044562653
132	0x3d776ceb	0.060406607
133	0x3cf2b7f8	0.029628739
134	0xbda0c140	-0.078493595
135	0xbd6e688f	-0.058205184
136	0xbcb0de35	-0.021590332
137	0xbbfd08e6	-0.007722008
138	0x3d2d5ac0	0.042322874
139	0x3d65140b	0.055927318
140	0xbd2f5888	-0.04280904
141	0xbd8945e1	-0.067027815
142	0x3ce241f0	0.027619332
143	0x3baf389a	0.0053473236
144	0x3de4c168	0.11169702
145	0xbc72e7cd	-0.014825773
146	0xbdca4eb5	-0.098782934
147	0x3d8650b3	0.06558361
148	0xbcc3d7ce	-0.023906615
149	0x3d8b01e1	0.06787468
150	0x39e5e6d9	0.0004385028
151	0xbd40ef0c	-0.047102973
152	0x3bb735d5	0.005591134
153	0x3df317b9	0.11869759
154	0xbd1fabba	-0.03898213
155	0xbd1915c6	-0.03737428
156	0xbd16d7fc	-0.036827073
157	0xbd1970d4	-0.037461117
158	0xbd8863f7	-0.06659692
159	0x3af702dc	0.0018845457
160	0x3d88b037	0.06674235
161	0xbdadf790	-0.084944844
162	0x3d7cb5c3	0.06169678
163	0xbd5c7404	-0.05382158
164	0x3cb93d39	0.022612201
165	0x3d0b7788	0.03404954
166	0xbdbe07dc	-0.09278843
167	0x3ba3a87f	0.0049944515
168	0xbd4477c8	-0.047965795
169	0xbdb21c8f	-0.08696853
170	0xbdba190e	-0.0908681
171	0x3d3f2496	0.04666575
172	0xbdb5a846	-0.08869986
173	0x3d02592f	0.031823333
174	0x3dd26779	0.10273642
175	0xbc1bb848	-0.009504385
176	0xbcbf571d	-0.023356969
177	0x3cb46c42	0.022024278
178	0xbceb87ab	-0.028751215
179	0x3c276b23	0.0102184145
180	0xbd7a8804	-0.06116487
181	0x3dbeb852	0.093125
182	0x3ca5bc04	0.020231254
183	0x3b22dd8c	0.002485129
184	0xbdddb29a	-0.10825081
185	0x39b59d40	0.0003464017
186	0x3d46afe6	0.048507594
187	0x3ce59f3d	0.028030032
188	0x3c137c55	0.009001811
189	0xbc863140	-0.016380906
190	0xbd52121f	-0.051286813
191	0x3d142d96	0.036176287
192	0xbd493627	-0.04912391
193	0x3d368353	0.044558834
194	0x3cfc4899	0.030796336
195	0xbd74b619	-0.059743974
196	0xbd0be6f8	-0.034155816
197	0x3c167272	0.009182559
198	0xbc05f532	-0.008176135
199	0x3db75acf	0.08952867
200	0x3da911e3	0.08255365
201	0xbd999297	-0.07498663
202	0x3db5a55f	0.08869433
203	0x3cc6b4f0	0.0242562
204	0x3e521438	0.20515525
205	0x3d30c9b1	0.043161098
206	0x3d0c1e72	0.034208722
207	0x3db494fa	0.088174775
208	0x3d7fe266	0.06247177
209	0xbad4e584	-0.0016242717
210	0xbbb65393	-0.005564162
211	0xbd8e1702	-0.06937982
212	0x3d8e26f9	0.06941027
213	0x3d50fa82	0.051020153
214	0xbdaad48f	-0.083413236
215	0xbd1f0bff	-0.0388298
216	0xbd6b9bf6	-0.057521783
217	0xbd95e658	-0.07319325
218	0xbdccc109	-0.09997756
219	0x3da7ed0a	0.081995085
220	0x3d8da19a	0.06915589
221	0x3d424cf6	0.047436677
222	0x3e167aad	0.14695235
223	0x3e1d0205	0.15332802
224	0x3d182e5c	0.037153587
225	0xbc8b0b57	-0.01697318
226	0x3dcba656	0.099438354
227	0xbc45233e	-0.012032328
228	0x3db0689d	0.086137034
229	0x3db089d4	0.08620039
230	0x3e24cad3	0.16092996
231	0x3a84499b	0.0010092737
232	0x3cd1a925	0.02559335
233	0x3d7e21bc	0.06204389
234	0x3d33fbdd	0.043941367
235	0xbc749fce	-0.0149306785
236	0x3caf48b4	0.021396972
237	0xbd7706df	-0.060309287
238	0x3d119f2f	0.0355522
239	0xbc93b4ba	-0.018030513
240	0x3d956e55	0.07296435
241	0x3e0bce6b	0.13652961
242	0x3d1e72e1	0.038683776
243	0x3dc4b294	0.096043736
244	0x3e442d16	0.19157824
245	0x3e6908de	0.22757289
246	0x3e20c545	0.15700252
247	0x3d07fc1e	0.033199422
248	0x3e23dc50	0.16002011
249	0x3d76446a	0.06012384
250	0x3d984980	0.07435894
251	0x3e09ad20	0.13444948
252	0x3d91245b	0.070870124
253	0x3d61750c	0.055043265
254	0xbce15f9a	-0.027511407
255	0x3da08653	0.0783812

conv2.bias f4 [64]
0	0x3c1e578b	0.009664427
1	0x3c8d32a1	0.017236056
2	0x3e2abe09	0.16674055
3	0x3c84770d	0.01617005
4	0x3d809f1f	0.0628035
5	0x3a199560	0.00058587454
6	0x3e20c647	0.15700637
7	0x3e3211e8	0.17389643
8	0x3e04e34c	0.12977332
9	0xbccdd151	-0.025124224
10	0x3de726b3	0.11286678
11	0x3ba19d7d	0.004932104
12	0x3e17bd85	0.1481839
13	0x3c964c4e	0.018346932
14	0x3d1349ae	0.03595894
15	0x3e3f28c0	0.18667889
16	0x3e0ad20d	0.1355669
17	0x3c8d35db	0.017237594
18	0x3e18b1b1	0.14911534
19	0x3ec0c3fe	0.3764953
20	0x3e47ee03	0.19524388
21	0x3e256dda	0.16155186
22	0x3e654937	0.2239121
23	0x3e0f3748	0.13985932
24	0x3d5e247b	0.05423401
25	0x3d3d2cfb	0.046185475
26	0x3ddce7be	0.10786389
27	0x3caec704	0.021335132
28	0x3dea581b	0.11442586
29	0x3c836930	0.016041368
30	0x3d0c25c8	0.03421572
31	0x3ddf2065	0.10894851
32	0x3dbc9a68	0.09209138
33	0x3d91caf9	0.07118792
34	0xbdc822d9	-0.09772272
35	0x3d91bb60	0.07115817
36	0xbc8c4420	-0.017122328
37	0x3de2bee1	0.110715635
38	0x3e5f98a5	0.21835573
39	0x3e1f0b23	0.15531592
40	0x3e12bc7a	0.1432971
41	0x3dd54a9b	0.104146205
42	0x3df3b628	0.11899978
43	0x3dd30391	0.103034146
44	0x3e4ab188	0.19794285
45	0xbc16ce41	-0.009204448
46	0x3d948e25	0.072536744
47	0xbb5da824	-0.0033822143
48	0xbd8aed31	-0.06783522
49	0x3e3a08a9	0.18167366
50	0x3e9a77f8	0.30169654
51	0x3df4672b	0.1193374
52	0x3e02ba27	0.12766324
53	0x3cdb9f3b	0.026809325
54	0x3de91f27	0.11382895
55	0x3ebb13de	0.36538595
56	0x3e25a0c2	0.16174605
57	0x3e13193d	0.14365096
58	0x3d4962a3	0.049166333
59	0x3cf144bd	0.029451722
60	0xbdd578fe	-0.10423468
61	0x3cbe0ee7	0.023200465
62	0x3daf6f88	0.08566195
63	0x3e0bc74f	0.13650249

fc1.weight f4 [128, 832]
0	0x3e1f5981	0.15561487
1	0x3ddcb28e	0.10776244
2	0x3de6e3a6	0.11273889
3	0x3d8fbe7c	0.07018754
4	0x3df4787c	0.11937043
5	0x3de37c5c	0.11107704
6	0x3d8f993d	0.0701165
7	0x3d4df47e	0.050281994
8	0x3d64d330	0.055865467
9	0x3dc99a5f	0.09843897
10	0x3d7e53b3	0.06209154
11	0x3dbad737	0.0912308
12	0x3d98724f	0.07443678
13	0x3eec625e	0.46168798
14	0x3ee10398	0.43948054
15	0x3f145719	0.579454
16	0x3f068180	0.5254135
17	0x3efcf0e9	0.4940255
18	0x3eed8068	0.4638703
19	0x3eec9ef5	0.46215025
20	0x3eb4db3c	0.35323513
21	0x3e7c7292	0.2465308
22	0x3e2d5d11	0.16930033
23	0x3e33ff25	0.17577799
24	0x3e42cbcf	0.1902306
25	0x3d45b0ed	0.048264433
26	0x3c2cfe62	0.010558696
27	0x3c075a46	0.008261269
28	0x3d028134	0.0318615
29	0x3c62084e	0.013795925
30	0x3d410d5e	0.04713189
31	0x3c0ff2fd	0.00878596
32	0x3cbe224d	0.023209715
33	0xbb7149ff	-0.0036817787
34	0x3c2ad9bc	0.0104278885
35	0x3d3756e0	0.044760585
36	0x3b931959	0.0044891057
37	0x3d0b67fb	0.03403471
38	0x3d09656c	0.03354399
39	0x3c78a9ec	0.015177231
40	0x3dca163f	0.09867524
41	0x3e6487a8	0.22317374
42	0x3e609a25	0.21933801
43	0x3e70a05a	0.2349867
44	0x3e478cae	0.19487259
45	0x3e5b7065	0.21429594
46	0x3e2f1a16	0.17099795
47	0x3e1f41b4	0.15552408
48	0x3e0658b4	0.13119775
49	0x3d975b66	0.0739048
50	0x3d36b6dc	0.044607982
51	0x3d17dea2	0.037077554
52	0x3e71ec6c	0.23625344
53	0x3d716daa	0.058942474
54	0x3db2ca16	0.08729951
55	0x3dd9a35e	0.10626863
56	0x3dff24f2	0.12458219
57	0x3d70c571	0.058782045
58	0x3d584406	0.052799247
59	0x3d675cc6	0.05648496
60	0x3dcf7983	0.101305984
61	0x3da5be4c	0.08092937
62	0x3dc24852	0.0948645
63	0x3df5513f	0.11978387
64	0x3d818f64	0.06326178
65	0x3d84c3b2	0.064826384
66	0x3b1e8ed2	0.0024194014
67	0x3c9d267a	0.019183386
68	0xbc118d8f	-0.008883848
69	0xbaab4cd5	-0.0013069162
70	0x3d1c0a45	0.03809573
71	0x3d0af6ae	0.03392666
72	0x3d49b0fd	0.049241055
73	0x3d1f09a8	0.03882757
74	0x3d3fb4e3	0.046803366
75	0x3d52ca6a	0.05146257
76	0x3d3b3c9d	0.045712102
77	0x3e273b80	0.16331291
78	0x3d66fb47	0.05639198
79	0x3c6e3ff4	0.014541615
80	0x3d1dc039	0.038513396
81	0x3c4d3a39	0.012526088
82	0x3cc672ba	0.024224628
83	0x3d09f168	0.03367749
84	0xbb9d7d2a	-0.0048061805
85	0x3cf6534a	0.030069012
86	0x3c424a7f	0.011858582
87	0xbbe381b5	-0.0069429525
88	0xbbbc8122	-0.0057526985
89	0x3d575d41	0.05257917
90	0x3d5aeb89	0.05344728
91	0x3d41667c	0.047216877
92	0x3c0b44a5	0.008500253
93	0x3d9b1286	0.075718924
94	0x3c530f4f	0.012882068
95	0x3d67b9b0	0.05657357
96	0x3d9a69e4	0.07539728
97	0x3d056629	0.03256813
98	0x3d786475	0.06064268
99	0x3d2200e2	0.039551623
100	0x3d50a084	0.05093433
101	0x3d1a2d07	0.037640598
102	0x3d6f6f18	0.058455557
103	0x3e2f831f	0.17139862
104	0x3d9b13b1	0.07572115
105	0x3da692e2	0.081334844
106	0x3d3e788c	0.04650168
107	0x3c4d5d58	0.012534462
108	0xbb1e91e1	-0.0024195837
109	0x3c2cefd8	0.01055523
110	0x3d123ccf	0.035702523
111	0x3cfc1e76	0.030776244
112	0xbbd66482	-0.006542743
113	0xbbc955c8	-0.006144259
114	0x3b9ec145	0.004844817
115	0x3caab533	0.020838356
116	0x3d35726e	0.04429858
117	0x3d0b5b6d	0.034022737
118	0x3d7d73ea	0.061878122
119	0x3e146088	0.14489949
120	0x3dbd94ac	0.092568725
121	0x3d90b82b	0.07066377
122	0x3db18698	0.0866825
123	0x3da12c8c	0.07869825
124	0x3da23e3b	0.07922026
125	0x3d957fb0	0.07299745
126	0x3dbfc0bd	0.09362934
127	0x3d9a967e	0.07548235
128	0x3dfb61be	0.12274502
129	0x3dae5aca	0.085134104
130	0x3d1aafb3	0.037765216
131	0x3b7c718a	0.0038519823
132	0x3d53a8d0	0.051674664
133	0x3afbc647	0.0019208872
134	0x3d6c452f	0.057683166
135	0x3c5d3941	0.01350242
136	0x3cb07b74	0.021543242
137	0x3c83f832	0.01610956
138	0x3d16955f	0.036763545
139	0xbb2fdfce	-0.002683628
140	0x3d3ccc0f	0.046093043
141	0x3ce90fbf	0.028449891
142	0x3c2ec9dd	0.010668245
143	0x3daf29ad	0.08552871
144	0x3c58c015	0.01322939
145	0x3ccd1c68	0.02503796
146	0x3d0ae308	0.03390792
147	0x3b71a9e2	0.003687494
148	0x3d25b507	0.040455844
149	0x3cfd6a38	0.030934438
150	0x3d0119cb	0.03151874
151	0x3ce38b7b	0.02777647
152	0xbc42ad49	-0.011882135
153	0xbc905f66	-0.017623615
154	0x3d3a7233	0.045519065
155	0x3d6d2261	0.057894114
156	0x3db28d17	0.08718317
157	0x3c096716	0.008386394
158	0x3d143aa5	0.03618874
159	0x3d40f7d0	0.047111332
160	0x3ac35e57	0.0014905435
161	0xbb4284f8	-0.0029681306
162	0xbbc641ff	-0.006050348
163	0x3d4de6fd	0.050269116
164	0x3c64ea8c	0.013971936
165	0x3d5adf95	0.05343588
166	0x3cb04aff	0.021520136
167	0x3d477e56	0.048704468
168	0x3d7eb71f	0.062186357
169	0x3d850e71	0.06496895
170	0x3da07413	0.078346394
171	0x3d5f496f	0.05451339
172	0x3c540dca	0.012942741
173	0x3bdb98b5	0.0067015537
174	0x3d008257	0.0313743
175	0x3d3b3983	0.045709144
176	0x3cbdb4f7	0.02315758
177	0x3c3a3741	0.011365713
178	0xbbe147b2	-0.006875002
179	0x3bdc4666	0.0067222593
180	0x3d2fe26a	0.042940535
181	0x3d7bf8ad	0.061516453
182	0x3d972e50	0.0738188
183	0x3d9cc0fa	0.07653995
184	0x3d1df940	0.03856778
185	0x3d152a82	0.03641749
186	0x3d0b814e	0.03405886
187	0x3bb47b92	0.005507895
188	0xbbf6a4a7	-0.0075269523
189	0xbc47a112	-0.012184398
190	0x3d21c623	0.0394956
191	0x3c0877bd	0.008329329
192	0x3cd454f7	0.02591942
193	0x3b6e6b0d	0.0036379725
194	0x3bc1a0da	0.0059090676
195	0x3d0d73e4	0.03453435
196	0x3b563059	0.0032682626
197	0x3d540a2f	0.051767524
198	0x3d57b922	0.05266679
199	0x3d2a87a4	0.041633263
200	0x3d0ecb15	0.034861643
201	0x3caeec01	0.02135277
202	0x3d293a5a	0.041315414
203	0x3d55fad3	0.052241158
204	0x3d268fcf	0.04066449
205	0x3ce737d7	0.028224869
206	0x3a2a10a7	0.0006487467
207	0x3d1ebd03	0.038754474
208	0x3b8c0988	0.004273597
209	0x3d0ab488	0.033863574
210	0x3cac2b1e	0.021016654
211	0x3d00ffb8	0.031493872
212	0x3ab11961	0.0013511592
213	0x3c797313	0.01522519
214	0x3d21ef6d	0.039534975
215	0x3cdf98a6	0.027294468
216	0x3c484166	0.012222623
217	0xbb2d4efb	-0.002644478
218	0x3d7447e6	0.05963888
219	0x3d66688d	0.05625205
220	0x3d226623	0.039648186
221	0x3d52eddc	0.05149637
222	0x3d386072	0.045013852
223	0x3c07ef4d	0.0082968
224	0x3c8af808	0.016963974
225	0xbb89045b	-0.0041814274
226	0x3cb5cda9	0.022192793
227	0x3c365a71	0.011129961
228	0x3d221f25	0.039580483
229	0x3bb72503	0.005589129
230	0xbb9e06cd	-0.004822588
231	0x3c6956b8	0.014241867
232	0xbb8851e2	-0.004160152
233	0x3d519427	0.05116668
234	0x3d5bee10	0.05369383
235	0x3d3f65f1	0.04672808
236	0x3c867f38	0.016418085
237	0x3d80ca07	0.06288534
238	0x3c0501fe	0.008118151
239	0x3d5d55ed	0.054037023
240	0x3c182c42	0.009287896
241	0x3c172294	0.009224553
242	0x3c77dc19	0.015128159
243	0x3d1b8303	0.03796674
244	0x3ca91c17	0.020643277
245	0x3d765648	0.060140878
246	0xba677e8b	-0.0008830807
247	0x3daf72c1	0.085668094
248	0xba7aa6d8	-0.0009561605
249	0x3cb0bec5	0.021575341
250	0x3c9d4e40	0.019202352
251	0x3c08df3b	0.008354004
252	0xbb1400cf	-0.002258349
253	0x3d2aca4a	0.041696824
254	0x3c9cc030	0.01913461
255	0x3bccf7ce	0.0062551266

fc1.bias f4 [128]
0	0x3d7b4757	0.06134733
1	0x3d83986d	0.06425557
2	0xbc8c3923	-0.017117089
3	0xbcf87754	-0.030330338
4	0x3b33d13d	0.0027437948
5	0xbcc02b69	-0.0234582
6	0xbb530226	-0.0032197325
7	0x3d065021	0.03279126
8	0xbbe01b03	-0.0068391575
9	0x3c21a47d	0.009865877
10	0x3d4b1a0f	0.0495854
11	0xbac155d0	-0.0014750306
12	0x3c304555	0.010758718
13	0x3c91ee8e	0.017813947
14	0x3d911d75	0.070856966
15	0xbc59768d	-0.013272894
16	0x3c25f02c	0.010128062
17	0x3d6d665c	0.057958946
18	0xbc395d67	-0.011313773
19	0x3c8ea267	0.017411424
20	0xbc615970	-0.013754234
21	0xbc832108	-0.016006961
22	0xbceba86b	-0.028766831
23	0x3c0573ce	0.008145286
24	0x3bb906a0	0.0056465417
25	0x3cce6fc9	0.025199788
26	0x3b9759d0	0.004618861
27	0x3cb6acdb	0.02229922
28	0x3ccc1a5f	0.024914918
29	0xbd05ccde	-0.03266608
30	0x3c873801	0.016506197
31	0xbcf45dba	-0.029829849
32	0x3c0832e7	0.008312917
33	0x3d788a91	0.060679022
34	0x3c58c5c9	0.013230749
35	0x3cda8436	0.026674371
36	0x3c4c448a	0.012467513
37	0xbc15d0b5	-0.009143998
38	0xbbfed998	-0.007777404
39	0xbcc8b7e9	-0.024501758
40	0xbbbee9b3	-0.005826199
41	0x3cdac878	0.02670692
42	0xbc9884c5	-0.018617997
43	0x3973cc6c	0.00023250439
44	0x3c7e9561	0.015538544
45	0xbc967af4	-0.018369175
46	0x3cc957da	0.024578024
47	0x3cdbf97c	0.026852362
48	0x3ca234e7	0.019800616
49	0x3ba43899	0.00501163
50	0x3d01194e	0.031518273
51	0x3cd88593	0.02643088
52	0x3be22fd3	0.0069026737
53	0x3ce7c35d	0.028291399
54	0x3cc87a3c	0.024472348
55	0x3d937fd0	0.07202113
56	0x3cb6daf9	0.022321211
57	0x3a32b2cf	0.00068168057
58	0xb9e656d2	-0.00043933705
59	0xbbaa2108	-0.005191926
60	0x3c851c32	0.016248796
61	0xbbc82751	-0.0061082025
62	0x3aac7786	0.0013158179
63	0x3d8021c8	0.06256443
64	0x3d2def22	0.042464383
65	0x3ce01e88	0.027358308
66	0xbc5f143c	-0.013615664
67	0xbd1ad72a	-0.037802853
68	0xbcb72b02	-0.022359375
69	0xbc1bbf90	-0.009506121
70	0xbce2379b	-0.027614405
71	0x3c819a6d	0.015820706
72	0x3c5abb19	0.013350272
73	0x3c744fe0	0.014911622
74	0x3d059716	0.03261479
75	0x3c9ebbb4	0.019376613
76	0xbd0c2cd7	-0.03422245
77	0xbcf04ed1	-0.029334458
78	0x3d5fb482	0.054615505
79	0x3cdb9f55	0.026809374
80	0x3cfb6850	0.030689389
81	0x39e20e9d	0.00043116967
82	0x3d87f883	0.06639197
83	0xbcc85aba	-0.024457324
84	0x3ccca99f	0.024983225
85	0xbd1f1d9f	-0.03884661
86	0x3c966b20	0.018361628
87	0x3c9c544b	0.019083163
88	0x3d366c9b	0.044537168
89	0x3d596a6b	0.053080004
90	0x3b87d0f0	0.0041447803
91	0xbcf82c1a	-0.030294467
92	0x3c14b9d5	0.009077509
93	0x3cb2e65c	0.02183836
94	0xbca127f2	-0.019672368
95	0xbc6cb2f5	-0.014446964
96	0xba0eca4b	-0.0005447014
97	0x3cb82051	0.022476347
98	0x3c445be6	0.011984801
99	0xbb215c0a	-0.002462151
100	0x3bdff0f6	0.0068341447
101	0xbbb27644	-0.0054462273
102	0xbbd60520	-0.0065313727
103	0x3cc48968	0.023991302
104	0xbbc6bd9e	-0.0060650846
105	0x3cd0b51e	0.025476988
106	0x3c3d41c3	0.011551323
107	0x3c88fea7	0.01672299
108	0x3bf17f0b	0.007369881
109	0x3cdcba6f	0.026944367
110	0xbd01734b	-0.031604093
111	0xbcf7fd7d	-0.03027224
112	0x3cda92e5	0.026681373
113	0x3bbac7e6	0.0057000993
114	0xbbcb5462	-0.0062051276
115	0xbce6bb55	-0.028165499
116	0xbd1725b0	-0.036901176
117	0x3cace68f	0.021106033
118	0x3d39ae4d	0.04533224
119	0x3ce5bf4c	0.028045319
120	0x3cc2c6c1	0.023776414
121	0x3d7052fc	0.05867289
122	0xbcd49655	-0.02595059
123	0x3cd407e4	0.025882669
124	0xbc2a1752	-0.010381537
125	0xbb2b62b7	-0.0026151368
126	0xbc65eb3a	-0.014033133
127	0x3c994b0f	0.018712549

fc2.weight f4 [1, 128]
0	0x3d623795	0.05522879
1	0x3cec0af5	0.028813818
2	0x3d739529	0.059468422
3	0x3d8a6b52	0.06758751
4	0x3cae691d	0.021290356
5	0xbd6b62f8	-0.05746743
6	0x3d3c9c6d	0.046047617
7	0x3d8f3928	0.069933236
8	0xbd6449c1	-0.0557344
9	0xbd926a76	-0.07149212
10	0x3d92e7c2	0.071731105
11	0x3d275d6d	0.040860582
12	0x3ce3b944	0.027798302
13	0xbc3e4f39	-0.011615568
14	0x3d34f1ed	0.04417603
15	0xbd9b7f5c	-0.07592651
16	0x3c34ec17	0.011042616
17	0x3d91af5b	0.071135245
18	0xbdc19500	-0.094522476
19	0x3db35fdf	0.0875852
20	0xbc4333f2	-0.01191424
21	0x3d42b4d8	0.047535747
22	0xbd9ef0bd	-0.07760761
23	0xbd6cd640	-0.057821512
24	0xbd86e5f6	-0.0658683
25	0x3d61073b	0.054938536
26	0xbd8f0512	-0.06983389
27	0x3d92a1a7	0.07159739
28	0x3da15052	0.07876648
29	0x3d2343dc	0.039859638
30	0xbd03973d	-0.032126654
31	0x3d789edf	0.060698386
32	0xbdb5dade	-0.08879636
33	0x3cf850bc	0.030311935
34	0xbd1c026b	-0.038088243
35	0xbc9cd12d	-0.019142712
36	0xbd1e6ef0	-0.038680017
37	0xbd2c052a	-0.041997112
38	0xbccc2d15	-0.02492384
39	0x3d08ee50	0.033430398
40	0x3d099842	0.03359247
41	0xbc5b8929	-0.013399401
42	0xbda0c67e	-0.078503594
43	0xbdb0a6be	-0.086255535
44	0xbcd5f0bc	-0.026115768
45	0xbd98eb50	-0.07466757
46	0xbd8af3b0	-0.06784761
47	0x3d5f049d	0.05444776
48	0x3d88bdf9	0.066768594
49	0xbcf68356	-0.030091923
50	0xbcab6a5d	-0.020924741
51	0xbc9f750a	-0.019464988
52	0x3d117bad	0.035518337
53	0xbd0ea1d0	-0.034822285
54	0xbc2e95eb	-0.01065586
55	0x3d4e6d94	0.05039747
56	0xbd74d608	-0.05977443
57	0x3d5df949	0.054192815
58	0x3da3f2ab	0.080052696
59	0xbcc7dd0a	-0.024397392
60	0xbcbd2e6a	-0.023093421
61	0x3cba6c6f	0.022756783
62	0x3c0d0470	0.008607015
63	0x3cdd775f	0.02703446
64	0x3d902a7d	0.07039354
65	0x3da0abc3	0.07845261
66	0x3cff2ca4	0.031149216
67	0xbc90582e	-0.017620172
68	0xbdcb356d	-0.099222995
69	0xbd8e7225	-0.06955365
70	0xbca4e1f8	-0.020127282
71	0xbcd0d736	-0.025493246
72	0x3db96774	0.09052935
73	0x3a3b8e18	0.00071546575
74	0xbd75ef31	-0.060042564
75	0xbda65428	-0.0812152
76	0xbda91537	-0.082559995
77	0xbcc62354	-0.024186768
78	0x3dabdcac	0.08391699
79	0xbc7512c0	-0.014958084
80	0x3caf673a	0.021411527
81	0xbd6e85b6	-0.058232985
82	0x3cd60c3c	0.02612888
83	0xbdc7544c	-0.09732875
84	0x3d2c8fa4	0.042129174
85	0xbdbfbb24	-0.09361866
86	0xbd852ac3	-0.06502297
87	0xbd4be41b	-0.049778085
88	0x3d9ab627	0.07554274
89	0x3db1c645	0.08680395
90	0x3d2507b0	0.040290534
91	0xbdb44b88	-0.08803469
92	0xbdc3d6c2	-0.09562446
93	0xbd97685a	-0.0739295
94	0xbd5ac1f3	-0.05340762
95	0xbcd7b431	-0.02633104
96	0x3c8cd350	0.017190605
97	0x3d5c9638	0.053854197
98	0xbd6bf113	-0.057602953
99	0x3cfb83e3	0.030702537
100	0xbc4042d2	-0.011734681
101	0x3b80ae65	0.0039270394
102	0xbae6b7e6	-0.0017602413
103	0x3dd55672	0.10416879
104	0xbd74b155	-0.05973943
105	0xbdbeb7c3	-0.093123935
106	0xbda14eba	-0.07876344
107	0xbd179ecd	-0.03701668
108	0xbd8f06a0	-0.069836855
109	0xbd511f7b	-0.051055413
110	0xbd596578	-0.053075284
111	0x3d81fe82	0.06347372
112	0xbd957c93	-0.07299151
113	0x3d3b063e	0.04566025
114	0xbcf68ae2	-0.030095521
115	0x3da23a34	0.079212576
116	0xbb483eda	-0.003055504
117	0x3d47e211	0.048799578
118	0x3db22373	0.08698168
119	0xbc8d63e4	-0.017259546
120	0x3d9562ea	0.07294257
121	0x3d4a0ad1	0.04932672
122	0xbcf7714b	-0.03020539
123	0x3dac9569	0.08426935
124	0xbd9b5fc8	-0.07586628
125	0xbcdeb3cc	-0.027185343
126	0x3c1b0d8d	0.00946368
127	0xbd5a5a91	-0.053309027
