CNN_agent_best.pt (torch, 946735 bytes, 7 tensors)

conv1.weight f4 [32, 5, 4, 1]
00000000: 9b38 20be 6a41 183e eacd 0b3e d43a a0bb
00000010: 8738 be3d 55ed f7bd fdf3 173d bbb7 24be
00000020: 5a3f 083d 54af 533e 06f2 9e3d 1fda c2bd
00000030: 51a3 ed3d f1b3 5fbe e279 6cbe c1f9 e939
00000040: 9129 8dbd 8dcd 493e 4586 843e fbd6 4c3d
00000050: 8bc9 f43d ff7d 8c3e 417e 5abe d49d c8bd
00000060: 1c1a 68bd 33fb 8cbd 28d0 58bd dd04 ad3d
00000070: 918a 723c 6e8b 88bd ef37 1fbe e37c 14be
00000080: 7119 0e3d 1335 cdbc 2764 0b3e 3e93 8a3d
00000090: 275a 7dbe 02be 38be 090f aabe 5038 1fbe
000000a0: 6654 90be be7c 803e 476b 7bbd 4937 563e
000000b0: 3c31 1b3e 782c 2e3b b03b 733d 0649 9b3a
000000c0: 557e d93d 3e3f bf3b 8bcb 693d 6b97 96bd
000000d0: 28f0 fbbd 784e 07be 49c3 df3d 0f3d f03d
000000e0: 0442 4c3c 3e41 53be 2679 88bd 1f21 9cbe
000000f0: b149 2e3e 43ce 733c 3963 0cbe c015 11be
00000100: eb0d 18be 0fc3 1cbd 0639 6e3e 3231 de3d
00000110: 51d3 a1be 651f 06be 44cc fb3d 2c31 e83d
00000120: a951 c4be 5e10 a0bc ba24 4dbc e660 e53d
00000130: 6384 dcbe 58c3 6ebe c324 85bc 7dae da37
00000140: 9d31 38bc f46c a93e cae0 923d afa2 543e
00000150: 0da9 33be 8def d53d 5801 97be d9a0 f1bd
00000160: 79b3 66bd ab2d 85be 1106 c13c d931 8b3d
00000170: af16 1a3e 33b4 99be d87e 6dbe 1884 66bd
00000180: 0d9e 233e 3370 623e 79fe 3fbe 18a2 463e
00000190: c137 8c3e d5ac 963e c6ec e63e a528 fa3e
000001a0: 9457 943d ca87 5dbd c70e 15bd 37e6 053e
000001b0: ed51 fc3d dc5c 153e bce5 ddbd e875 d73d
000001c0: f3b3 ae3d 35c8 683d cdb9 b8bd 3808 8e3c
000001d0: ef22 79be 5897 9bbe 6573 87be 90b7 c2be
000001e0: 5a98 5c3d 9b87 bc3e 1a76 b93e 7fcf b23e
000001f0: bf0c 0dbb fb6b 7f3d fdd6 063d 3b1f cbbc
00000200: d489 a33d 6192 86bd 56ba c83d 8788 b9bd
00000210: 7987 cc3d c84c 6b3d f3f7 6dbd 5a9f debc
00000220: 6566 133e 2743 7a3d ade7 383e c57d 00be
00000230: b270 d53d e384 b73e 15a6 c73e 952b bd3e
00000240: 8c76 803d 29c7 0c3d e14b 3ebd c579 b0bd
00000250: 9096 96b8 9e67 633d 3f11 a9bc 4667 c8bc
00000260: 2dc9 eebd 55b5 c43d d2bd 5e3d c01e ca3d
00000270: c93a 2dbd c51e 123e c75a 59be 327c 253e
00000280: 5d2f 983e 5f55 c23e ee80 cdbe da45 56bd
00000290: ab03 b1bd fbcb c3bd 9ce0 213e 0798 0e3d
000002a0: ef38 c9bd 839d abbc 3975 1f3e 15f6 603d
000002b0: 1131 173d a809 e6bd 2f9e 10bb 5a32 c83d
000002c0: 7826 87be 620e 86be 58c3 27be 6c12 4fbd
000002d0: 4bd8 13bc db88 103e d116 683e 1d96 bc3e
000002e0: 5dd8 34be d3bc 50be 2d2b 7a3d 0867 643d
000002f0: 2270 53bc ebd1 bb3d e6b5 6d3d 61e9 fcbd
00000300: d617 ea3d 4bc0 5b3d b1c7 c3be 24b5 ea3d
00000310: d9f8 e9ba 1f49 00be 86a9 723e e2f8 ed3d
00000320: 3c21 e13d 5db7 033e d0da a13e 85ea c6bd
00000330: 00b4 6b3d f4d5 44bd 8a25 40bd 8956 c23d
00000340: 6d5d 153e 4322 263e fcf7 9b3d b341 16be
00000350: d435 b0bb 4abf 2e3d e50c a2be 6649 da3d
00000360: 92fd 69be f4bd d5bd 7606 85be 7fcf 79bd
00000370: 8ae9 5ebd 3bf3 c63e ff2f d83e f74a 803e
00000380: 9f65 1e3e ba74 adbd 0048 df3d 1014 70bb
00000390: 78a7 d03d b4d9 323e dc16 4fbe cbdd 16be
000003a0: 4d53 81bd 4297 d4bd 4ffc 873d 68fe edbc
000003b0: 3bef d8bc b472 dfbe e084 853d b0c1 abbd
000003c0: 7b45 9d3e 611f fe3e 7cd4 d43e d994 c93e
000003d0: 2d88 cd3d ad92 513e fee9 bcbc 0e8c d7bc
000003e0: 28a8 553d 4c9d 2e3d 7fe4 023e 04c6 a7bc
000003f0: 36ca fb3d e7f4 de3d d5a1 80ba 506a a13d
-0.15646593 0.14868703 0.13652769 -0.0048898254 0.092881255 -0.12105814 0.03709792 -0.16085713
0.03326354 0.20672351 0.07761006 -0.095142595 0.11603416 -0.21845986 -0.2309337 0.00044627304
-0.06892694 0.19707318 0.2588369 0.05000971 0.11952504 0.27439877 -0.21337225 -0.09795728
-0.056665525 -0.0688385 -0.05293289 0.08448193 0.014803545 -0.06667219 -0.1554868 -0.14500766
0.03469223 -0.025049722 0.13612424 0.067663655 -0.24741422 -0.18041232 -0.33214596 -0.15548825
-0.2818939 0.2509517 -0.061381605 0.20919527 0.151555 0.0026576798 0.059383094 0.0011847324
0.10619799 0.0058363965 0.05707888 -0.073530994 -0.123016655 -0.13213527 0.109259196 0.11730396
0.012466911 -0.20630357 -0.06663732 -0.3049402 0.17020299 0.01488072 -0.13709725 -0.14168453
-0.1484906 -0.03827196 0.2326394 0.10849227 -0.31606534 -0.13097914 0.1229482 0.11337504
-0.38343552 -0.019539054 -0.012520963 0.112001225 -0.43069753 -0.23316705 -0.01625288 2.6068878e-05
-0.0112422975 0.33090937 0.07171781 0.20765184 -0.17544957 0.10446081 -0.29493213 -0.117982574
-0.056323502 -0.26011404 0.023562463 0.06796617 0.15047716 -0.30020294 -0.23192918 -0.05627832
0.1597826 0.22113113 -0.18749417 0.19397771 0.27386287 0.29428735 0.4510252 0.48859134
0.07243267 -0.054084577 -0.036391046 0.13076101 0.123203136 0.14586204 -0.10834834 0.10520536
0.08530416 0.056831557 -0.09019814 0.017337903 -0.24329732 -0.30388904 -0.26455227 -0.38030672
0.05385623 0.3682221 0.36222917 0.34923932 -0.002152249 0.062358838 0.032919873 -0.024795165
0.07985273 -0.06570888 0.09801166 -0.09059244 0.09986777 0.05744627 -0.05809779 -0.027175594
0.14394529 0.061099198 0.18057127 -0.12547977 0.104218856 0.35843572 0.38993898 0.36947313
0.06272611 0.03436962 -0.046459083 -0.08616976 -7.180602e-05 0.05551874 -0.020638106 -0.024463307
-0.11659465 0.09604899 0.054380246 0.09869146 -0.04229239 0.1426955 -0.21226035 0.16160658
0.29723635 0.37955758 -0.40137428 -0.05231271 -0.08643278 -0.095603906 0.15808338 0.034812953
-0.09825312 -0.02094913 0.1557206 0.054922182 0.036912028 -0.112323105 -0.002206694 0.09775229
-0.26396537 -0.26182848 -0.16383111 -0.050554678 -0.009023736 0.14114706 0.22664954 0.36833277
-0.17660661 -0.2038453 0.061076332 0.05576232 -0.0129051525 0.09170898 0.0580348 -0.12349201
0.114303276 0.05365018 -0.3823829 0.11460331 -0.0017850652 -0.12527893 0.2369748 0.11619736
0.10992667 0.12862916 0.31612253 -0.097127 0.05754471 -0.048055604 -0.0469108 0.094891615
0.1458642 0.16224007 0.07615659 -0.146735 -0.0053775106 0.042662896 -0.31650463 0.10658531
-0.22850636 -0.10436621 -0.25981492 -0.0609889 -0.05442194 0.38857445 0.42224118 0.25057194
0.15468453 -0.084695294 0.10902405 -0.0036633052 0.10188192 0.1746586 -0.20223564 -0.14733045
-0.063147165 -0.10380413 0.06639921 -0.029051974 -0.026481261 -0.436422 0.065194845 -0.08386552
0.30717072 0.49633315 0.41568363 0.39371374 0.10035739 0.20466109 -0.023060795 -0.0263119
0.05216232 0.04263048 0.12782477 -0.020480163 0.12294428 0.10886555 -0.0009813855 0.078816056

conv1.bias f4 [32]
00000000: 3752 8a3e e0f0 dabd cfdf 02be e77e 46bd
00000010: 6423 483e 82f6 a5bc c5c2 01bd fde7 6f3d
00000020: d7b7 75bd 5c1a 523e ca82 8abd 37ef 163d
00000030: 60bf 55bd 6e01 b8bc 04f7 04bd b407 6cbd
00000040: 8c53 45bc a263 cdbd d45b a0bd 99d0 593d
00000050: 19cd 86bc 633b 883e 51ff b5bd 321f 413e
00000060: e354 9bbc 3d77 57bd a22d 5cbd 5be8 1abd
00000070: 700f 56be 96ce a9bc 21a7 1d3e 7da4 2fbd
0.2701585 -0.106904745 -0.12780689 -0.048460867 0.1954475 -0.020259146 -0.031679887 0.05857085
-0.059989776 0.20517868 -0.06763227 0.036849227 -0.052184463 -0.02246162 -0.032462135 -0.057624534
-0.012043845 -0.10028769 -0.07830015 0.05317745 -0.01645522 0.26607808 -0.08886588 0.18859556
-0.018961376 -0.05260395 -0.053754456 -0.037819248 -0.20904326 -0.02072839 0.15395786 -0.042881478

conv2.weight f4 [32, 5, 1, 5]
00000000: 7f6d 92bd 67a2 04be 63d9 c7bd c0ca a3bd
00000010: 8a33 61bc e742 27be 902a 4dbe dc92 58be
00000020: eb4b e53d dac5 59be aa07 bdbd 9f77 0abe
00000030: 30ab c53d 98b2 19be 9cbf 57be af64 84bd
00000040: 43eb 61bd 3d28 f5bd a6fa 4bbe 3aef cabd
00000050: 5268 75bd 20fd a3bd 3302 32be 32c4 f7bd
00000060: 6e80 3abe 57fc c43e 3d9f 4b3e 77ff c73d
00000070: 8a6a d43d 01a6 de3d 8dbe 1fbd e2b2 d4bd
00000080: 884f 723d 4534 bd3d 72bf 593e ad76 1dbe
00000090: d06d 90bd 3741 d53c 9716 e2bd fa81 013e
000000a0: 52f7 37bd d5b4 263d cb62 eebc fbbc bdbd
000000b0: be84 283d 25ca dabe aefb 5ebe 4436 42be
000000c0: 255b abbe c93a a8be fd96 ff3e 722a d03e
000000d0: 6ecf 4a3e 67b9 b43e 08a4 353e dad5 4d3e
000000e0: 61dd 403d ee9c 9e3d fc61 013e c36a 2e3d
000000f0: 6eb1 193e 0d75 04bd 6355 19bd abab ccbc
00000100: 3ffb 3dbd ebfa a43d 263f 10bd f8ab fabc
00000110: e378 a83c 3da9 40bd a5be ccbe 6d49 b1be
00000120: 391d 81be 4025 0ebe db1a b2be d941 163e
00000130: 029d a03c 913c 2ebc 3f1a c3bd 7f29 413e
00000140: abcc 55bd b7ab 39be c640 8dbd 658d 3cbe
00000150: c82e b6be 5750 afbb 9b65 86be a528 98be
00000160: 72d5 b1bc 894f 27be 5e01 1abe c2a3 1b3e
00000170: c0af 873d e7da 58be b04b 9cbe 4084 4dbc
00000180: b0f8 7f3d e747 0abb 2592 f43d df7e a73c
00000190: c454 1dbe 5406 b9be cb76 6fbd 21c6 c33c
000001a0: ba43 973d e647 d6bd 4be9 563c b5e2 c53d
000001b0: c134 f4bd b5db 32be 5459 9e3b 85f5 91bb
000001c0: 6ac5 cabc 7b31 c63d 0203 0b3e bbb3 0d3e
000001d0: 40b2 80bd 928a b63d 72c7 19bd 0b13 6ebe
000001e0: 705e bf3d 315f e5bd fd5a 5fbe b6b7 fe3d
000001f0: 0120 cc3e 09a1 2dbd b9ae 63bd 5028 d63d
00000200: ee1c dbbc 6c94 b63e dc96 78be 2a11 37bc
00000210: e44d 773c da0b 07be 12dc 203a 0349 12bd
00000220: af63 fe3c d53a 4dbe 0be4 5f3d 39a2 84bd
00000230: 7e6f bdbd 270d b3bd 4eb9 03be d012 5fbc
00000240: bd20 42bc aed0 50bd 982a cebd 1846 b8be
00000250: b408 c2bc c185 823d da24 aebe 6d3d fcbd
00000260: 1a72 753d d2ac 533e e5f6 13be 40df 93be
00000270: a8e2 cabe 3f13 183e 8936 2a3e 84a8 8dbe
00000280: 0d86 713d 4b88 21bd 770e 683d 168f 243d
00000290: 3a47 11be c708 223c 9c2e 45bd 4d2b 94bd
000002a0: 1b37 f53c e678 acbe 7c37 d3bd be85 fc3c
000002b0: 6161 59bd 8b7e 0b3e 0398 e8bd 6d4c b13e
000002c0: 6b46 5d3e 70d4 933e 796e 4b3e ed28 543e
000002d0: 80c7 c53c 0272 e03d 70fd 03bd cac1 233e
000002e0: bd30 4c3b ffa9 d0bc 3996 233c 56a3 ce3c
000002f0: 1a84 01bd 625b 893d aba6 153e 0271 5f3d
00000300: 491d 8c3d c312 a63c 83ed fb3d ab9e e9be
00000310: e79f 2ebe c588 6ebe 3e81 8fbe aa5a 8cbe
00000320: 851d 9b3e 768f ac3e 1023 603e b8c2 3d3e
00000330: 52f9 28bc 7940 273d 170b 353d 61cc a8bc
00000340: 5172 c13d ab3a 1b3e c961 253d acc4 4e3d
00000350: ab5f 4ebb d467 ca39 4150 ce3c a228 b33a
00000360: 7107 a93d 3a73 9dbb 6497 573d c00f df3c
00000370: ded7 bebe 3fc4 98be 8c0f 49be f460 4cbe
00000380: c7c4 0ebe 089f d73e e8c6 c53e efd9 b83d
00000390: d9e5 a03e 373b 35bd 9a4f 123e 990e 0a3e
000003a0: eb11 90bd 4b01 a23c 5452 11bd d73a a83d
000003b0: c9a6 823d a2e4 c4bd 37e3 923d 149e 0abd
000003c0: 2e7c 1abd 63d6 073e 52c7 b13d ce73 cbbd
000003d0: 9959 f6bd 2ef8 95be c3b6 7abe cd38 0bbe
000003e0: db7f b2be 825a f7bd 192d bf3e 0078 be3e
000003f0: b0be b93e cefd d93d aad8 9d3e 75df 403d
-0.07149791 -0.12952577 -0.0975826 -0.07997656 -0.013745198 -0.16334115 -0.20035768 -0.21149772
0.11196121 -0.2126688 -0.092299774 -0.13522194 0.09651792 -0.15009534 -0.21069187 -0.06464516
-0.055156004 -0.119705655 -0.19919834 -0.0990891 -0.05991394 -0.08007264 -0.17383651 -0.12097968
-0.18213055 0.3847377 0.19884963 0.09765523 0.10371883 0.108715065 -0.039000083 -0.10385682
0.05915788 0.09238485 0.21264437 -0.15377302 -0.07052195 0.026032073 -0.11039465 0.12647238
-0.044913597 0.0406998 -0.029099843 -0.09264561 0.041142218 -0.4273235 -0.21775696 -0.18966013
-0.33467975 -0.3285735 0.49919882 0.40657383 0.1980569 0.352977 0.17738354 0.20101109
0.047086123 0.07744776 0.12635034 0.042582285 0.1500909 -0.03233819 -0.037434947 -0.024984201
-0.046382185 0.08055671 -0.035216473 -0.03059958 0.020565456 -0.0470364 -0.399892 -0.34626332
-0.25217608 -0.13881397 -0.34786114 0.14673556 0.019606117 -0.010634557 -0.095264904 0.18863486
-0.05219714 -0.1813191 -0.0689712 -0.18413313 -0.35582566 -0.0053501534 -0.26249394 -0.2971851
-0.021708224 -0.16338934 -0.15039584 0.15199187 0.066253185 -0.21177255 -0.30526495 -0.012543738
0.062493026 -0.0021099986 0.11941937 0.020446239 -0.15364367 -0.3613764 -0.0584629 0.023898186
0.07385965 -0.10462932 0.013117145 0.096623816 -0.119241245 -0.17466624 0.004832426 -0.004454317
-0.024752337 0.096774064 0.13575366 0.13838093 -0.062839985 0.08913149 -0.03754372 -0.23249452
0.093441844 -0.11199797 -0.21812053 0.12437384 0.39868167 -0.042389903 -0.05558655 0.10456908
-0.026747193 0.35660112 -0.24276298 -0.011173526 0.015094254 -0.13188115 0.00061363087 -0.03571416
0.031053392 -0.20041974 0.054660838 -0.06476254 -0.09249781 -0.08742743 -0.12863657 -0.013615325
-0.011848626 -0.050980262 -0.10066718 -0.35990977 -0.02368579 0.06373168 -0.3401249 -0.123164035
0.05992327 0.20671394 -0.14449652 -0.28881264 -0.3962605 0.14851092 0.16622366 -0.2766763
0.05896573 -0.03943662 0.05665442 0.04017552 -0.14187327 0.009889788 -0.048140153 -0.072348215
0.029933503 -0.33685988 -0.10313317 0.030825492 -0.053071383 0.13622491 -0.11357119 0.3462862
0.21608894 0.28873014 0.1986636 0.20718737 0.02414298 0.10959245 -0.03222412 0.15991893
0.003115698 -0.025471685 0.009984546 0.025224369 -0.031620122 0.06706883 0.1461436 0.054551132
0.06841523 0.020272618 0.12301161 -0.45628867 -0.17053185 -0.23294361 -0.2802829 -0.2741292
0.3029596 0.33703202 0.21888375 0.1853131 -0.010313349 0.04083297 0.04420003 -0.020605268
0.09445632 0.15159099 0.04037646 0.05048053 -0.0031490128 0.000386058 0.025184752 0.0013668726
0.082533725 -0.004804996 0.05263461 0.02722919 -0.3727407 -0.29837224 -0.19634837 -0.1995886
-0.13942252 0.4211352 0.38628316 0.090259425 0.3142536 -0.044245925 0.14288178 0.13482131
-0.070346676 0.019776007 -0.035478905 0.08214348 0.06379468 -0.09613921 0.07172244 -0.03384216
-0.037716083 0.13265376 0.086805955 -0.09934197 -0.12028808 -0.2929091 -0.2448378 -0.13595887
-0.3486317 -0.1207781 0.37339094 0.37200928 0.36278296 0.106441125 0.30829364 0.047088105

conv2.bias f4 [32]
00000000: 3d51 f6bd a84e 253d 5553 783c f599 fe3d
00000010: a713 a93d 14bd b7bc 6845 b93d 18af bdbc
00000020: 7fb8 34bd cd05 eb3c 7078 e9bc d50b d0bd
00000030: b248 593b 0295 d8bd 1cb9 bd3c 21f0 babc
00000040: c2f1 97bd f2ec 8bbd 24d5 aebd 4bc5 093d
00000050: 57b2 99bd fe48 1ebc 163d 32bd 41c0 8fbc
00000060: c374 26bd 9d9e 0fbe c68b 8dbd 0a63 9dbd
00000070: 3d24 5dbd 5ac0 5cbd 7f1f bcbd 79c8 4fbc
-0.12027214 0.040358216 0.015156587 0.12431709 0.082557015 -0.022429027 0.09046441 -0.02315478
-0.04412126 0.02868929 -0.028499812 -0.10158507 0.0033154902 -0.10575296 0.023159556 -0.02281958
-0.074191585 -0.06832303 -0.08536747 0.03363542 -0.07504719 -0.009660957 -0.043515287 -0.017547728
-0.040638696 -0.1402535 -0.06911425 -0.07684906 -0.053989638 -0.05389438 -0.09185695 -0.012682074

fc1.weight f4 [128, 1828]
00000000: 7f74 7d3b 0aeb d8bb 80da 56bc ce49 aebb
00000010: c92f 7f3a 22c7 e33b 1c35 ad3a ee57 bcbc
00000020: 0d47 1e3c 717c 433c b1cb 843b 730e 983c
00000030: fa29 ebbb 2aca 47bc 7802 72bc fa9c 71bc
00000040: d8cd 76bc ed70 4abb 7e45 c3bc 64b5 b7bb
00000050: b0a0 4dbc 9c02 7a3c 6489 25bc f43f d0bb
00000060: 953e e63b 108f dfbb 7573 7ebc 9380 c43c
00000070: 6467 aa3b c981 013c 344d 253c 21cc e4bc
00000080: 4269 24bc b820 88bb c065 973a ae25 04bc
00000090: aad6 e7bb b953 cc3a 216f b53c 1c22 2a3c
000000a0: f319 a1ba c9f0 6f3c 776b 96bc 7bf5 9a3c
000000b0: 9753 203c 84f3 bb3c 8f56 b23c 17d5 50bc
000000c0: 7018 963c 9075 1a3c 87cf b8bb 7388 cabc
000000d0: e4cb 69bc 115d 7ebb 15c0 76bc dd84 48ba
000000e0: 5376 cbbb 6822 06bd 214e 98bc 88d6 853c
000000f0: 0832 a739 4ee0 613c 6cc7 833c df48 42bc
00000100: a22a b83c a416 52bc 7eb5 843c 66ba 3b3c
00000110: d90f 193c e8f8 573b f267 febc b714 d4bc
00000120: 4e25 a5bb 069d d6bc 9d3b 1bbd e578 273c
00000130: 56c7 153c 4d4c e9bb 1fd3 babc bbc3 e5bc
00000140: a4b3 5a3c 7d9d d1b8 6ee8 43bc ebc9 913c
00000150: a87f b4bc 1f3f ae3c 216d a8bc e9cd 64bc
00000160: e01a dbbc b201 6dbc 23e9 da3b a5eb 61bb
00000170: 72fa a7bc cb46 83bc 0046 d2bc 895d cebc
00000180: cae4 6a3c cfae 0cbc ea29 bd3b 7bfe 33bb
00000190: 78f7 953c 9fc2 aa3b 16ba ad3c 6a1b 943c
000001a0: ffb6 8dbc 12c7 963c 0c45 1cbc 43ef 96bb
000001b0: ab6d 623c 454c bdbc e71b a5bc 9daf a73c
000001c0: fa0d 633c 6473 1dbc 3c32 dcbc 1d78 923c
000001d0: b23e 89bc 0778 e0bb 9e75 a9bc 0153 ccbb
000001e0: 39c0 623b b73b 833c c9c3 8b3c 7f60 8abb
000001f0: f182 96ba 60b9 de3c 866e f03c bd13 cb3b
00000200: 47cc c1bc 32dc a0bc 3cd1 91bc 7c6b 303b
00000210: 9ebf 74bc 975e b3bc 1cfa 443c 6bfa 893b
00000220: e27e 0e3c 2a4e 8dbc dc4b 23bc 3bee 19bb
00000230: c468 b33b e362 99bb 2d4c 13bc 52ff bd3b
00000240: 0fe9 acbb af3b 573c bc1d 9bbc 7851 de3b
00000250: 6cba 95bc 6f8a 52bc 5793 76bc 8228 02bc
00000260: b4e9 bfbc e96c 863c e656 86bb ad33 193c
00000270: 621c d73a 2c01 e4bc 1813 afbc df16 5b3a
00000280: cc10 753c 28e4 99bc 86f1 3e3c 6c31 5d3c
00000290: bdc0 803c cd8e 3cbb a7f2 bc3b 8299 1a3c
000002a0: 90ca 683c 06bf b83b 7026 46bc eb8f aebc
000002b0: 0dac 8a3c 1ec6 05bc b52e 2ebc fc1b 563b
000002c0: 5e66 f63b a534 c0bc f6fa 173c 13ee 853b
000002d0: a07e 723c 5347 da3c 47db f03b 8466 7abb
000002e0: 7e1b d63c 24b3 803c c7bc bbbb 8454 b13b
000002f0: 7736 a23c 0bbc 26bc 54e1 21bc c4da 89bc
00000300: 9b3b 02bc 4cfe 1cbb 6ed1 97bc 9884 25bc
00000310: 5cb6 9f3b 63e3 a6bc 52eb e33b a50d 893c
00000320: a165 923c a19a bfbc 7b5b 2dbc a537 1c3c
00000330: 022a 883c af68 f63b 8676 c63b a32b bf3c
00000340: 9fad e0bb 20f9 8ebc 4063 99bb 8fb9 c7bc
00000350: b7d8 03bb 240f a53c eff9 50bc a661 713c
00000360: b39d 4d3b db6d 153c 9311 96bc ccb8 a0bc
00000370: 2122 8bbb 6524 68bc cca5 ddba 25f4 34bc
00000380: fd60 f33b 371d aabb 1764 c73b f560 81bc
00000390: db49 aebb c9e3 693c 778d b9bc 7525 d1bc
000003a0: d522 91bc fe82 883c 438d 163c d747 ea3b
000003b0: 7a70 ccbc bd76 8d3b a73c c1ba a751 4cbc
000003c0: 2c31 6ebc a299 89ba dda7 2739 d26b 73bc
000003d0: c8bd 553a 4611 ae3c b768 1b3c d8cb 9cbc
000003e0: 9a00 7fbc 6962 b5bc 2903 9a3c 465f e0bb
000003f0: 8c5a b4bc c46d e93c 66a2 b8bb 2df6 ccbc
0.0038674173 -0.0066198157 -0.013113618 -0.005318857 0.00097345986 0.0069512287 0.001321468 -0.022991147
0.0096604945 0.011931525 0.004052602 0.018561577 -0.007176635 -0.012194196 -0.014771096 -0.014746899
-0.015063725 -0.0030890063 -0.023836847 -0.0056063402 -0.012550518 0.015259411 -0.010103557 -0.00635528
0.0070265033 -0.0068224743 -0.015530457 0.02398709 0.0052003134 0.007904478 0.010089207 -0.027929367
-0.010034861 -0.004154291 0.001155071 -0.008065624 -0.0070751505 0.0015588916 0.022147717 0.010384109
-0.0012291059 0.01464481 -0.01836179 0.018915882 0.009785554 0.022943266 0.02176979 -0.012746117
0.0183222 0.009427443 -0.0056399736 -0.024723267 -0.014269803 -0.0038812796 -0.015060444 -0.00076491927
-0.0062091737 -0.032747656 -0.018591942 0.016337648 0.00031889998 0.013786389 0.016086303 -0.011858194
0.022481266 -0.012822781 0.016199823 0.011458015 0.009342157 0.0032954756 -0.031055424 -0.025888784
-0.0050398475 -0.026197921 -0.03789865 0.010221695 0.009141764 -0.0071196915 -0.022805749 -0.028047433
0.013348494 -9.995231e-05 -0.011957271 0.017796477 -0.022033527 0.021270333 -0.02055985 -0.013965108
-0.026746213 -0.014465736 0.006680624 -0.003447273 -0.020505164 -0.016024968 -0.025668144 -0.025191085
0.014336774 -0.0085865995 0.005772819 -0.0027464915 0.018306479 0.005211189 0.021206897 0.018079478
-0.017299173 0.018405471 -0.009537946 -0.004606159 0.013820092 -0.023107657 -0.020154906 0.020469481
0.013858313 -0.009610031 -0.026879422 0.01787954 -0.016753528 -0.006850246 -0.020685967 -0.006235481
0.0034599437 0.016019685 0.017061131 -0.004222929 -0.0011483115 0.027188003 0.029349577 0.0061974213
-0.023656977 -0.019636247 -0.017799966 0.0026919534 -0.014938263 -0.02189569 0.012022521 0.0042107604
0.008697243 -0.017249186 -0.009966817 -0.0023487944 0.0054751355 -0.0046809777 -0.00899033 0.005798259
-0.005276806 0.013136788 -0.018935077 0.006784614 -0.01827737 -0.012850388 -0.015049777 -0.007944228
-0.023426868 0.016409354 -0.0040997146 0.009350699 0.0016411657 -0.02783259 -0.02137141 0.0008357595
0.014957618 -0.018785551 0.011654263 0.013500553 0.015716905 -0.002877164 0.005766231 0.009436013
0.014208451 0.005638006 -0.012094125 -0.02130886 0.016927743 -0.008164911 -0.010631253 0.0032670489
0.0075195273 -0.023462603 0.009276142 0.0040872185 0.014800698 0.026645338 0.0073503586 -0.0038208077
0.026136156 0.01571042 -0.005729291 0.0054116864 0.019801361 -0.010176669 -0.009880383 -0.016827948
-0.007948781 -0.0023955284 -0.018532481 -0.010102414 0.004874034 -0.020372098 0.0069555426 0.016730139
0.017870726 -0.023389162 -0.010580893 0.009534751 0.016621593 0.0075198035 0.0060566096 0.023336237
-0.0068566347 -0.017452776 -0.004681021 -0.024380473 -0.0020118186 0.020148821 -0.012754901 0.014732754
0.0031374514 0.00912043 -0.018318927 -0.019619368 -0.004246012 -0.014168833 -0.0016910373 -0.011044537
0.0074273334 -0.005191471 0.0060849297 -0.015793303 -0.005318863 0.0142755 -0.022650464 -0.025530556
-0.017716805 0.016664024 0.009188953 0.0071496773 -0.024955977 0.004317133 -0.0014742807 -0.012470639
-0.014538091 -0.0010498057 0.00015988895 -0.014857249 0.0008153585 0.021248471 0.009485415 -0.019140169
-0.015564108 -0.022141652 0.018800335 -0.006847295 -0.022015832 0.028494723 -0.005634594 -0.02501973

fc1.bias f4 [128]
00000000: 5767 87bc 98cf 2d3c f245 a0bc c7cb 873b
00000010: 8679 093c c3b0 413c 0c90 863a 5b46 59bb
00000020: 9f97 dbba c580 42bc 2195 4dbc da1c babc
00000030: d2d1 afbc 18b4 553c f4d0 06bc c387 bcbc
00000040: 50dc 6dbc 747b 563c 9fc3 aabc e029 e3bb
00000050: 3b3d 8bbc 2fdc f5bb c1c8 06bc b60f 733c
00000060: 1074 8e3c 70de 663c 9604 f4bd 3ccf a73b
00000070: 2127 573a f114 133c 1169 bdbc e2e2 84ba
00000080: 90db eebb c647 f2bc 8451 c73b 9432 763b
00000090: 3090 763c da3a 82bc 6307 b0bc e6b5 31bc
000000a0: 8bf9 79bc 988c 5a3c 3a2d 0fbc d898 65bb
000000b0: 20b0 8cbc 6d52 86bc ec19 f3bc a862 1a3c
000000c0: a90d 7dbb 7fe4 83bc 828a 193c 3d37 9cbc
000000d0: ea63 88bc 6666 c03a 4b6e 12bb 6bfb 8a3c
000000e0: 5909 a5bb 1903 303c 88bc 86bc 4bbe 2c3d
000000f0: dc89 0fbc 6f98 92bc 4fd7 c3bc 6644 43bc
00000100: 2209 a43a ae61 79bc 37f8 5f3c a64c 973b
00000110: 6e88 3bbc 53a3 4f3a 4efd c5bc c398 053c
00000120: d5e1 683a afb8 a0bb b613 4fbc 2e62 e0bb
00000130: d2cf a2bc 334e 8bbc 6736 22bc d4ee 30bb
00000140: c157 d5bc a8f5 b6bc 7f79 0a3b 77e7 4fbc
00000150: 752b 9bbc 0989 43bb 0e9e c7bc 2ea0 6b3c
00000160: 0669 ccbc 3e03 2aba 6510 01bc 3b40 ec3a
00000170: b491 c0bb e726 51bc ec90 c73b a236 1ebc
00000180: 5320 e5bc 4de0 4f3c 36a1 ecbc 2a26 993c
00000190: 55c4 6f3c dba9 3abc 1710 f5bb 6865 9dbc
000001a0: 3d23 923b 66ff 8abc 2061 66bc 1282 0d39
000001b0: 226e e8bc 8154 c9bc f5f3 2bbc 347e 203b
000001c0: eede a93b 8ff8 bc3b cf27 9cbc 821f 97bb
000001d0: 90dd 3d3c 9094 7abc 6e34 e8bc 5864 07bc
000001e0: abae d9bd 485f 6cba c3b6 3bbc 4445 95bc
000001f0: e234 be3a e222 edbc 0dff dabc c30f 9bbc
-0.016528768 0.010608576 -0.019564603 0.004144165 0.00839079 0.011821928 0.0010266318 -0.0033153507
-0.0016753561 -0.011871521 -0.012547762 -0.022718836 -0.021462355 0.013043426 -0.008228529 -0.023013955
-0.014517859 0.013090957 -0.020845233 -0.006932482 -0.01699697 -0.0075030546 -0.008226574 0.014835289
0.017389327 0.014091119 -0.11914937 0.00512114 0.000820743 0.008977161 -0.023121389 -0.0010138417
-0.0072893575 -0.02957524 0.0060827155 0.0037566768 0.015049025 -0.015897203 -0.021487897 -0.010846591
-0.01525725 0.013339184 -0.00873881 -0.003503373 -0.017173827 -0.016396726 -0.029675446 0.009422936
-0.0038612878 -0.016100166 0.009371402 -0.019069308 -0.016649205 0.0014678955 -0.0022343572 0.016965589
-0.0050365147 0.010742926 -0.01644732 0.042173665 -0.008760896 -0.017894952 -0.023906378 -0.011918163
0.0012514929 -0.015221043 0.013670019 0.0046172915 -0.011446102 0.00079207605 -0.024168637 0.008154097
0.0008883749 -0.0049048285 -0.012638977 -0.0068476414 -0.019874487 -0.017005062 -0.009900666 -0.0026997821
-0.02604282 -0.022333935 0.0021129546 -0.012689463 -0.01894162 -0.0029836318 -0.024367359 0.0143814515
-0.024952423 -0.00064854685 -0.007877444 0.0018024513 -0.005876744 -0.012765623 0.006090274 -0.00965658
-0.027969515 0.012687755 -0.028885465 0.018694956 0.014634212 -0.011393036 -0.0074787247 -0.019213393
0.004459767 -0.016967487 -0.014061242 0.00013495263 -0.028372828 -0.024576427 -0.010495176 0.0024489285
0.005184046 0.005766935 -0.019061951 -0.0046119103 0.011588469 -0.015294209 -0.028345313 -0.00826367
-0.106290184 -0.00090168836 -0.011457148 -0.018221505 0.001451161 -0.028947297 -0.026732946 -0.018928414

fc2.weight f4 [1, 128]
00000000: 6f28 8c3d 9850 273c f926 d6bc e181 693d
00000010: ea4a 28bc 5cdb 98bd 6399 34bd 06c3 603d
00000020: 3147 963c 5f05 46bd 3a30 5b3d e3c8 05bd
00000030: a440 1bbd e4f0 6fbd 2526 9fbc cf98 1cbd
00000040: b2cc 983c 54e6 b9bb e0fb 8abd 161f 0c3d
00000050: af3c f43a 2be7 d53c e5a6 9d3b cffe 7ebd
00000060: 81c1 783a 9ff4 413d 80ec 2cbe 9d44 24bd
00000070: 6c13 a638 70b8 6b3d 348f 79bd 1473 8cbd
00000080: 5f9c 40bd 4969 913d 40e8 a03b 62d2 9e3c
00000090: 643c 86bd 56f6 8dba 0bd1 3e3d 4694 413b
000000a0: 4502 65bc 8788 9a3b 2d06 ec3b 0bb4 a63b
000000b0: c68f 03bd 8a80 d0ba ad61 f13b 799f 54bc
000000c0: 340c 62bd 3839 bbbc d4ec c4bc 3eee 71bd
000000d0: 20e2 2b3d 5ae5 d33b c622 87bd 04d2 95bd
000000e0: 1856 a53d 67f6 27bd 2c09 b8bd 3cab b83d
000000f0: 8900 ff3c e79b 003d 2480 b63c 173f 4bbc
00000100: c020 40bc 56fd a0bd caa4 84bc d7c2 493d
00000110: c777 9abc 4926 f13c b96d fcba 61d4 95bd
00000120: eaf4 28bd c46a a43d e4b1 903d 1b34 edbc
00000130: 87a8 10bb 7f91 693d 7851 313d b2a9 953d
00000140: 9148 823d 2eb8 e337 be82 8dbd e87b 883d
00000150: 81ca a93b 017b 91bd 5e9a 273d cb53 97ba
00000160: 9745 2dbd 3e65 ad3c b738 e33c 8daa 2fbd
00000170: 87a5 89bd 88bc a2bd 613b 093b 3fbc a4bd
00000180: 340c 613d 8d9d 393c db2f 92bd 1b5a ec3b
00000190: f0ae 463d 313f 933d 346d b5ba dbb2 62bd
000001a0: bbf6 f83c 8b2b 453c 0856 6c3d 2a19 633d
000001b0: fe27 47bd 0c86 763d b392 933d 3bc0 05bc
000001c0: b9d0 94bd fcc4 81bc 4fb9 73bd 38d5 843c
000001d0: 957d 28bd e9ff 133d 96ac 1dbd c92e 78bc
000001e0: f686 25be 4184 803b 080f a83c 1296 843d
000001f0: 4c73 d43c a029 333c cfc2 9bbd 0ecf 8e3b
0.068436496 0.010212086 -0.02614163 0.057008628 -0.010271767 -0.074637145 -0.044091593 0.05487349
0.018344494 -0.048344966 0.05351279 -0.032662284 -0.037903443 -0.05857934 -0.019427368 -0.038231667
0.018652294 -0.005673209 -0.067863226 0.034209333 0.0018633808 0.026111206 0.004811155 -0.062254723
0.00094892835 0.04735243 -0.16887093 -0.040104497 7.9191144e-05 0.05754894 -0.060927585 -0.06857887
-0.047024127 0.0710016 0.004910499 0.019387428 -0.06554487 -0.001083086 0.046586078 0.002953784
-0.013977592 0.0047159824 0.0072028846 0.0050873808 -0.032119535 -0.0015907448 0.00736638 -0.012977474
-0.05518742 -0.022854432 -0.02403871 -0.059065096 0.041963696 0.00646655 -0.065984294 -0.07315448
0.08073062 -0.041006472 -0.089861244 0.09017035 0.031128185 0.03139868 0.0222779 -0.0124051785
-0.011726558 -0.0786082 -0.016191859 0.04925808 -0.018855942 0.029437201 -0.0019258774 -0.07315899
-0.041249193 0.080281764 0.0706518 -0.02895551 -0.0022073106 0.05702352 0.043290585 0.073077574
0.06361497 2.7146274e-05 -0.06909703 0.06664258 0.005181611 -0.07103539 0.0409187 -0.0011545358
-0.042302694 0.02116644 0.027737005 -0.04288726 -0.06721025 -0.07946116 0.0020939934 -0.080437176
0.05494328 0.011329067 -0.07138034 0.00721289 0.048506677 0.07189787 -0.0013841749 -0.05534635
0.030391088 0.012034307 0.057699233 0.05544392 -0.048622124 0.06018643 0.07205715 -0.008163507
-0.07266373 -0.015841 -0.059502896 0.016214952 -0.04113539 0.036132727 -0.03849467 -0.015147873
-0.16164765 0.003922016 0.02051498 0.06473936 0.025933884 0.010935217 -0.07605516 0.004358179
