MLP_agent_best.pt (torch, 402537 bytes, 5 tensors)

fc1.weight f4 [256, 260]
0	0x3af69198	0.0018811701
1	0x3c911f26	0.017715048
2	0x3cb39ab8	0.021924362
3	0x3bafc376	0.005363877
4	0xbd850cf4	-0.06496611
5	0xbcfe0673	-0.031008935
6	0xbdd0ce83	-0.10195639
7	0x3c80aa90	0.01570633
8	0xbbaccc21	-0.0052733575
9	0xbdb6e91d	-0.089311816
10	0xbcc681ea	-0.02423187
11	0xbd81f380	-0.06345272
12	0xbd686440	-0.05673623
13	0xbc910821	-0.017704071
14	0xbbafeb29	-0.0053686094
15	0xbd94ceca	-0.072660044
16	0x3ab449af	0.001375487
17	0xbd0521b4	-0.032502845
18	0xbd308226	-0.04309287
19	0x3c961ccd	0.01832428
20	0x3c7f80f0	0.015594706
21	0x3c16dff8	0.009208672
22	0xbc84e4af	-0.016222326
23	0xbd91dbb8	-0.07121986
24	0x3cb02365	0.021501252
25	0xbd72a91a	-0.0592433
26	0x3dc1223b	0.09430357
27	0xbd096053	-0.033539128
28	0x3d002c5e	0.03129231
29	0xbd4b1e13	-0.049589228
30	0xbd9a0b85	-0.075217284
31	0x3d2ecb6f	0.04267448
32	0x3d854eee	0.06509195
33	0xba592fbc	-0.0008285006
34	0x3b7144cb	0.0036814685
35	0xbd588d0e	-0.052868895
36	0x3c989bc2	0.018628959
37	0xbd400f02	-0.046889313
38	0xbc8b196e	-0.0169799
39	0xbd73d162	-0.059525855
40	0x3a87d6be	0.0010363681
41	0x3c905a69	0.017621236
42	0xbc95cb63	-0.018285459
43	0x3cd88ed2	0.02643529
44	0x3c639cee	0.013892395
45	0xbcf7e650	-0.030261189
46	0xbcc24f62	-0.023719493
47	0xbce566e0	-0.028003156
48	0x3d21678c	0.03940539
49	0x3ab6c202	0.0013943317
50	0xbdb80b28	-0.08986503
51	0x3d0d11d1	0.03444082
52	0xbd079ca2	-0.03310836
53	0xbd81d3a3	-0.063391946
54	0xbbc9bc2c	-0.006156465
55	0x3cb4a58c	0.022051595
56	0xbdc2872e	-0.0949844
57	0x3ca82402	0.020524982
58	0xbd90f511	-0.07077993
59	0xbcd6751d	-0.02617889
60	0xbcc13a23	-0.023587292
61	0xbd76701b	-0.060165506
62	0xbd70099a	-0.058602907
63	0xbd6fef65	-0.058577914
64	0x3b1d9233	0.002404344
65	0xbccce627	-0.025012089
66	0xbc953aba	-0.01821648
67	0xbd3916e3	-0.045187842
68	0x3d04b53b	0.032399397
69	0xbc653411	-0.013989464
70	0xbc8e3480	-0.017359018
71	0x3d0fbb08	0.035090476
72	0xbda0568f	-0.0782901
73	0xbb7b0143	-0.0038300313
74	0xbda01377	-0.078162126
75	0x3d12d671	0.03584904
76	0xbda9c974	-0.08290377
77	0x3d5f6e13	0.054548334
78	0xbd00c9ba	-0.03144238
79	0xbd9a194e	-0.07524358
80	0xbc804eb9	-0.015662538
81	0xbd282802	-0.04105378
82	0xbd110fd2	-0.035415478
83	0x3d9b1344	0.07572034
84	0x3c8c50d2	0.017128382
85	0xb93478f6	-0.00017211199
86	0x3d82e0ba	0.063905194
87	0xbd7fc40a	-0.062442817
88	0xbc992c72	-0.018697951
89	0xbd412b6a	-0.047160544
90	0x3cd4632b	0.025926193
91	0x3dc4bba5	0.09606103
92	0x3caf5c7c	0.021406405
93	0xbd8e89b2	-0.06959857
94	0xbd19f936	-0.03759118
95	0xbba025cf	-0.0048873196
96	0xbafff049	-0.0019526567
97	0xbb30b119	-0.0026961027
98	0x3d407509	0.046986613
99	0xbda5ff49	-0.081053324
100	0x3c2a3f2c	0.010391038
101	0xbcfdba10	-0.03097251
102	0xbd87b4d4	-0.06626287
103	0xbd27addb	-0.040937286
104	0xbd9ef224	-0.077610284
105	0x3ca3e216	0.020005267
106	0xbabf8f5a	-0.0014614866
107	0xbb2233af	-0.0024750044
108	0x3c3970d6	0.011318406
109	0x3bea5eaf	0.0071524004
110	0xbdb7b52a	-0.08970101
111	0xbde7c6c6	-0.1131721
112	0xbd61a8c8	-0.055092603
113	0xbc891585	-0.016733894
114	0x3c6b9f0d	0.014381182
115	0xbd129c40	-0.035793543
116	0x3b80b743	0.0039280965
117	0xbbeaa983	-0.0071613207
118	0xbcad7413	-0.021173513
119	0xbc63bb87	-0.0138996905
120	0x3ceb117e	0.028694864
121	0xbd3b9d1c	-0.045804128
122	0xbd6423a6	-0.05569806
123	0xbc002c3f	-0.007823049
124	0x3d857f0d	0.06518374
125	0x3d362108	0.044465095
126	0xbc9aff87	-0.018920673
127	0xbd13b36d	-0.036059786
128	0xbd84cd61	-0.064844854
129	0x3c9a0355	0.018800417
130	0xbd04dc31	-0.032436553
131	0xbc14aad3	-0.009073931
132	0xbcfa0ee1	-0.030524673
133	0x3da43a84	0.080189735
134	0xbd09fe06	-0.03368952
135	0xbd2b8adb	-0.04188047
136	0xbc91024b	-0.017701289
137	0x3cae20bc	0.021255843
138	0xbd855ee0	-0.065122366
139	0x3d7e87bb	0.06214116
140	0x3cde4e37	0.027136905
141	0xbd980676	-0.07423107
142	0xbd9e746d	-0.0773705
143	0xbd4d24c0	-0.050083876
144	0xbc2dc7a5	-0.010606681
145	0xbcc128c6	-0.023579013
146	0xbc549421	-0.01297477
147	0xbd61a78b	-0.055091422
148	0xbdbae933	-0.091265105
149	0x3c59c183	0.013290766
150	0xba8ca132	-0.0010729192
151	0xbcf9e8e3	-0.030506557
152	0xbd6a65a3	-0.057225835
153	0xbd218015	-0.03942879
154	0xbdaa3dc9	-0.08312566
155	0xbd83a8aa	-0.064286545
156	0xbd8b0232	-0.06787528
157	0xbda29351	-0.079382546
158	0xbbfb9b68	-0.007678438
159	0xbcaaddc8	-0.020857707
160	0x3d094bd4	0.03351958
161	0xbd3bf4ed	-0.045887876
162	0xbcbe9446	-0.023264062
163	0x3c7a6f7b	0.015285368
164	0xbd37441c	-0.04474269
165	0x3b96fcb4	0.0046077613
166	0xbd948b48	-0.07253128
167	0x3cf33025	0.029686043
168	0xbca98246	-0.020692002
169	0xbb8d7f94	-0.004318187
170	0x3c82913e	0.015938397
171	0xbd256196	-0.04037627
172	0xbdbc6415	-0.09198777
173	0xbd929bff	-0.0715866
174	0xbd734549	-0.059392247
175	0x3cd0c5b6	0.0254849
176	0xbd45ea51	-0.048319165
177	0x3d2e41c5	0.04254319
178	0xbc1598e4	-0.00913069
179	0xbcac3fc0	-0.021026492
180	0xbd907475	-0.070534624
181	0xbd423dcb	-0.04742221
182	0xbd9a19f9	-0.07524485
183	0x3ad90df2	0.0016559942
184	0xbd5f48cd	-0.054512788
185	0xbad9e6de	-0.001662459
186	0xbcee67ee	-0.029102292
187	0x3cc4fd28	0.024046496
188	0xbd22f056	-0.039779983
189	0xbd6323b8	-0.055453986
190	0x3b279070	0.002556827
191	0xbca9db4e	-0.020734455
192	0x3cf9e836	0.030506235
193	0xbd265b6b	-0.040614527
194	0x3c92e2a5	0.017930338
195	0xbc669009	-0.014072427
196	0x39a331a3	0.00031126765
197	0x3cf223cb	0.029558083
198	0xbdced1ac	-0.100985855
199	0xbd8f4b4b	-0.06996783
200	0x3d962447	0.07331138
201	0xbd8159ba	-0.06315942
202	0x399fef58	0.00030505168
203	0xbd70aebb	-0.058760386
204	0x3ccd1797	0.025035663
205	0xbd4f4617	-0.050603952
206	0xbdc12d0e	-0.094324216
207	0x3bad5af0	0.0052903816
208	0x3cd55e86	0.026046049
209	0xbd5da7a4	-0.054114953
210	0xbd1528a7	-0.036415722
211	0x3cc02d95	0.023459235
212	0xbda15a15	-0.0787851
213	0x3cfb6de3	0.030692047
214	0xb9b19d7d	-0.0003387741
215	0xbd9644b2	-0.07337321
216	0x3d17a96b	0.037026804
217	0xbc34b55a	-0.011029566
218	0xbd8be4f3	-0.06830778
219	0xbd351e28	-0.044218212
220	0x3a452195	0.0007519958
221	0xbdb179a9	-0.08665783
222	0x3d321982	0.043481357
223	0x3d2fb6ae	0.042898826
224	0xbd6c7b60	-0.057734847
225	0xbd39937e	-0.045306675
226	0xbcffdb2e	-0.031232443
227	0x3c6fc4d1	0.014634327
228	0x3c069e0b	0.008216391
229	0xbbd907c3	-0.0066232397
230	0x3b46c605	0.0030330431
231	0xbd4d3dac	-0.050107643
232	0x3b3ffc41	0.0029294642
233	0xbbae8d89	-0.005326931
234	0xbb91f286	-0.00445396
235	0x3b37f1ea	0.0028067776
236	0x3c752de7	0.014964557
237	0xbc81167c	-0.015757792
238	0xbd638366	-0.055545233
239	0xbd801b18	-0.06255168
240	0xbcd135d6	-0.025538366
241	0x3caa0c56	0.020757835
242	0xbbd4fd82	-0.006499947
243	0xbd460b85	-0.04835083
244	0x3c9e4585	0.019320259
245	0x3d214cb3	0.039379787
246	0xbd947912	-0.07249655
247	0xbd7eaa80	-0.06217432
248	0x3d0617b6	0.032737456
249	0x3cccddc1	0.025008084
250	0x3cb83da0	0.022490323
251	0x3c662c1e	0.014048604
252	0xbc07ef41	-0.008296789
253	0xbd178bbb	-0.03699849
254	0xbd7349bc	-0.05939649
255	0x3d8067f5	0.06269828

fc1.bias f4 [256]
0	0xbc038466	-0.008027172
1	0x3cdccb6a	0.026952464
2	0x3db2d78d	0.08732519
3	0x3d3a764e	0.04552298
4	0xbdbd3cb5	-0.092400946
5	0x3a572787	0.0008207489
6	0x3c140b40	0.009035885
7	0xbd485fde	-0.04891955
8	0x3da80d95	0.082057156
9	0xbd0d3b53	-0.034480404
10	0x3d5794cf	0.05263215
11	0xbd8df3d7	-0.069312744
12	0x3b9398fc	0.004504321
13	0xbcf04f4c	-0.029334687
14	0xbdb52b9b	-0.08846208
15	0xbcc306be	-0.023806926
16	0xbd8585c2	-0.06519653
17	0x3bbf9988	0.00584716
18	0xbcac6832	-0.021045778
19	0xbcab0a71	-0.020879002
20	0xbded26e1	-0.11579681
21	0xbd368faf	-0.04457062
22	0x3c76190e	0.015020622
23	0xbd085080	-0.033279896
24	0x3be2f9df	0.0069267596
25	0x3cffd805	0.031230936
26	0x3cbc84b7	0.023012502
27	0xbd741f92	-0.05960042
28	0xbd1a2a3c	-0.037637934
29	0x3cf0f090	0.029411584
30	0x3d2e84f6	0.04260727
31	0xbcb60df4	-0.02222345
32	0x3c76271e	0.015023975
33	0x3c35b50f	0.011090531
34	0x3a9d8cc1	0.0012020097
35	0xbd9d6130	-0.07684553
36	0x3cd40892	0.025882993
37	0xbd407e9d	-0.046995748
38	0xbbcfe4dc	-0.006344421
39	0xbc67c47d	-0.014145968
40	0xbbe4b9b9	-0.0069801477
41	0x3bb57b16	0.0055383546
42	0xbda9ccfa	-0.08291049
43	0x3dce9fa9	0.100890465
44	0x3d1a412a	0.0376598
45	0xbd46d136	-0.048539363
46	0x3ba9b9d1	0.0051796217
47	0x3d0a693b	0.03379176
48	0x3bd44120	0.00647749
49	0x3c96e53b	0.018419852
50	0xbcc6f3a8	-0.024286106
51	0x3c249fa5	0.010047828
52	0xbd76d1a6	-0.06025853
53	0xbdad4044	-0.08459523
54	0x3d758fa5	0.059951443
55	0x3beb2848	0.0071764328
56	0xbc11d75b	-0.008901442
57	0x3c9aebd4	0.01891128
58	0xbcb354ad	-0.021890962
59	0x3cd516bc	0.026011817
60	0x3c1620bb	0.009163077
61	0xbd1009e6	-0.03516569
62	0xbd4e35ff	-0.050344463
63	0xbdc06930	-0.09395063
64	0xbd8cba46	-0.06871466
65	0x3c977bd1	0.018491657
66	0xbd7112b5	-0.05885573
67	0xbc611999	-0.013739013
68	0xbd869251	-0.065708764
69	0xbdd4a1f0	-0.103824496
70	0xbd35f061	-0.044418696
71	0x3d745f06	0.059660934
72	0x3b7a7083	0.0038214035
73	0x3d5e7edc	0.0543202
74	0x3d1d9afc	0.038477883
75	0xbdb6ff27	-0.08935385
76	0x3bb640d4	0.0055619273
77	0x3c8814f8	0.016611561
78	0x3d247dfb	0.040159207
79	0xbdc16766	-0.0944355
80	0xbc8de59d	-0.017321402
81	0xbcd20095	-0.025635043
82	0x3d98530b	0.07437714
83	0xb9f12240	-0.0004599262
84	0x3d54fa9d	0.051996816
85	0x3c407a6c	0.011747938
86	0xbd2048bc	-0.039131865
87	0xbd86153a	-0.065470174
88	0x3d18b200	0.03727913
89	0x3d0c6677	0.034277406
90	0xbcac447a	-0.021028746
91	0x3d28e11a	0.0412303
92	0x3d1d8bf0	0.038463533
93	0x3c47ff7d	0.012206909
94	0x3d74a916	0.059731565
95	0xbbe7df6c	-0.0070761945
96	0xbc94175b	-0.018077543
97	0x3d4dfdf2	0.05029101
98	0x3d2b105f	0.04176366
99	0x3cc39941	0.023876788
100	0x3ca6dd02	0.020369057
101	0xbcaa2c44	-0.02077306
102	0x3bed41ac	0.0072404947
103	0x3cf5296c	0.029926978
104	0x3d62d78a	0.055381335
105	0xbdb14ae9	-0.08656866
106	0x3c7dff12	0.015502708
107	0xbc037ed9	-0.008025848
108	0x3c4f1c4d	0.012641025
109	0x3d3e7ea2	0.046507485
110	0x3da5198f	0.080615155
111	0x3c82d2f6	0.015969735
112	0xbd85d4bd	-0.06534717
113	0xbcc5ec0d	-0.02416041
114	0xbd9f02f6	-0.07764237
115	0xbd9420e0	-0.07232833
116	0x3d71e1e6	0.059053324
117	0xbbb28bf7	-0.005448814
118	0xbdc75204	-0.0973244
119	0xbd3f7757	-0.04674467
120	0xbbde2591	-0.0067793806
121	0x3db11e5d	0.086483695
122	0x3d91dcfb	0.07122227
123	0xbd125ee3	-0.035735022
124	0xbd9b053d	-0.075693585
125	0x3d09a22b	0.03360192
126	0xbca6e246	-0.020371567
127	0xbdc2ab92	-0.09505381
128	0x3d709dc8	0.058744222
129	0xbd770106	-0.06030371
130	0xb9a67f50	-0.00031756843
131	0xbd387eb9	-0.045042727
132	0x3c5afa1e	0.013365297
133	0x3da5805e	0.08081125
134	0xbd65f144	-0.056138292
135	0xbde3ce09	-0.111232825
136	0xbdfd0fcd	-0.123565294
137	0x3d03718b	0.032090705
138	0xbd23d9f0	-0.040002763
139	0xbd7bfea9	-0.06152216
140	0xbc904ab5	-0.017613748
141	0xbd40416d	-0.046937395
142	0xbd63d83b	-0.055626135
143	0xbcd6e7b6	-0.026233535
144	0xbd64523c	-0.055742487
145	0xbd019e97	-0.031645384
146	0x3d6fa502	0.058506973
147	0x3d1cd34a	0.03828744
148	0x3c7a1d0f	0.015265717
149	0xbc8f6c10	-0.017507583
150	0xbc2acb19	-0.010424399
151	0xbd7a1756	-0.06105741
152	0xbd7e188a	-0.06203512
153	0xbd999f88	-0.07501131
154	0xbcc5044c	-0.0240499
155	0xbd5be553	-0.053685497
156	0xbce242f3	-0.027619815
157	0xbd6357ef	-0.055503782
158	0xbc6674fd	-0.014065978
159	0x3d640dfb	0.055677395
160	0x3d46983c	0.048485026
161	0xbd725cc4	-0.0591705
162	0xbd7016dd	-0.058615554
163	0xbd0c7a03	-0.034296047
164	0x3c078269	0.008270838
165	0x3d509515	0.050923426
166	0x3b2eb9c6	0.0026661023
167	0xbd7d1433	-0.06178684
168	0x3cafaa0e	0.021443393
169	0x3c557058	0.013027273
170	0x3d18e401	0.037326816
171	0xbd756ef5	-0.05992027
172	0x3d418337	0.047244277
173	0xbc999a52	-0.018750343
174	0xbd1c2be8	-0.03812781
175	0x3d93326b	0.07187351
176	0xbd43d36a	-0.047809042
177	0xbd04391c	-0.032281026
178	0xbd73aa0f	-0.059488352
179	0x3d38e845	0.045143384
180	0x3da46621	0.08027292
181	0xbd1fb8b2	-0.0389945
182	0x3dc2d503	0.09513285
183	0xbd8f61c1	-0.07001067
184	0x3c846089	0.016159313
185	0x3cf6b504	0.030115612
186	0x3d3081f9	0.0430927
187	0x3c97beaf	0.018523542
188	0xbdb9d2ba	-0.09073396
189	0x3d1a1557	0.037618008
190	0xba298f44	-0.00064681866
191	0xbd27c353	-0.04095776
192	0x3c0206a1	0.007936151
193	0xbd3e9917	-0.046532717
194	0x3d6c9039	0.05775473
195	0xbd97482c	-0.073868126
196	0xbd382989	-0.044961486
197	0x3d5add52	0.053433724
198	0xbd22131e	-0.039569013
199	0x3cdac117	0.0267034
200	0xbb665a8b	-0.0035149183
201	0xbda8c626	-0.08240919
202	0x3c8179a9	0.015805082
203	0x3d31d95f	0.04342019
204	0xbcb938a5	-0.022610018
205	0xbd06be0c	-0.032896087
206	0xbccc1f87	-0.024917377
207	0xbd018c22	-0.03162778
208	0x3d9760bc	0.073914975
209	0x3d4f1009	0.0505524
210	0x3d35fa38	0.04442808
211	0xbd4d1067	-0.05006447
212	0x3c5ae7de	0.0133609455
213	0x3db1afd6	0.08676116
214	0x3c9d34b0	0.019190162
215	0x3c9491ab	0.018135866
216	0x3cc33757	0.023830099
217	0x3cb2a7cb	0.021808526
218	0xbc3dbfbc	-0.011581358
219	0xbc74228e	-0.014900817
220	0xbdd5c347	-0.10437637
221	0x3c881938	0.016613588
222	0x3cdef0ef	0.027214495
223	0x3dc8f73a	0.0981278
224	0xbbc1b54e	-0.005911506
225	0xbd0c5933	-0.034264755
226	0x3ceb093a	0.028690923
227	0xbd4bab71	-0.049724046
228	0xbd1fb245	-0.03898837
229	0xbd77b7dd	-0.06047808
230	0xbd22547a	-0.039631344
231	0xbca6a141	-0.020340564
232	0x3d8035dd	0.062602736
233	0x3c9b80e9	0.018982368
234	0x3da86d9c	0.08224031
235	0xbcdb5c58	-0.026777431
236	0x3df3dc7c	0.119072884
237	0x3de36b57	0.11104458
238	0xbc9871d1	-0.01860896
239	0xbcaca298	-0.021073624
240	0xbd077920	-0.0330745
241	0x3bda689a	0.0066653015
242	0xbd549d14	-0.051907614
243	0xbac5798e	-0.0015066133
244	0xbde9f9f3	-0.11424627
245	0xbc36fade	-0.01116821
246	0x3d3747ec	0.044746324
247	0xbdd1c853	-0.10243287
248	0xbd8ef28c	-0.06979856
249	0x3cfdbe99	0.030974673
250	0xbb8883f8	-0.0041661225
251	0xba8a6b45	-0.0010560533
252	0x3ce42f87	0.027854694
253	0x3bfec6ba	0.007775155
254	0xbdbf3226	-0.09335737
255	0xbcd160c6	-0.02555884

fc2.weight f4 [128, 256]
0	0xbd1d903a	-0.038467623
1	0xbc9cc457	-0.01913659
2	0xbcf59d26	-0.02998216
3	0x3d521a9f	0.05129492
4	0x3d32580b	0.043540996
5	0xbd244a75	-0.04011007
6	0x3d5181d4	0.051149204
7	0x3d9aee81	0.07565022
8	0xbd87303a	-0.06600995
9	0xbc2a169f	-0.01038137
10	0x3c027d0d	0.007964385
11	0x3ca352e9	0.019936996
12	0xbd395ba6	-0.04525342
13	0xbbfc0f90	-0.007692285
14	0xbb9bb73c	-0.004752068
15	0x3b961fe2	0.0045814374
16	0xbd3ec28b	-0.04657225
17	0xbc8c8382	-0.017152552
18	0xbd6a2a61	-0.057169322
19	0xbc6b82af	-0.014374419
20	0x3cf4f817	0.029903455
21	0xbd54b199	-0.051927183
22	0xbcb9222a	-0.022599299
23	0xbcc0ae13	-0.023520505
24	0x3cf873c9	0.030328648
25	0x3af4b19f	0.0018668658
26	0xbd6adaee	-0.057337694
27	0xbc5ecc6b	-0.013598542
28	0x3cbc03ee	0.022951093
29	0x3ce89ac0	0.028394103
30	0x3cfa952a	0.030588705
31	0x3c06c212	0.008224981
32	0x3c31fcd6	0.010863503
33	0x3d2526f7	0.040320363
34	0xbd8ac2f0	-0.067754626
35	0xba2d9bf5	-0.00066226657
36	0xbb35d231	-0.0027743692
37	0x3d3f3a3c	0.046686396
38	0xbd5c0092	-0.05371148
39	0xbc6c2c21	-0.014414818
40	0xbcfed247	-0.031106127
41	0x3c860913	0.016361749
42	0xbc957c2b	-0.018247684
43	0xbcd36f9c	-0.025810055
44	0x3bdbbeff	0.006706118
45	0x3c875598	0.016520306
46	0x3cb18452	0.02166954
47	0xbd0d5749	-0.03450707
48	0x3d43524b	0.047685903
49	0x3d1e0521	0.03857911
50	0xbc6cd642	-0.01445538
51	0xbd946cff	-0.07247352
52	0xbd904960	-0.07045245
53	0xbd429f96	-0.047515474
54	0x3cb277cc	0.02178564
55	0x3d58a3bf	0.052890535
56	0xbd240d7d	-0.040051926
57	0xbcf59e5a	-0.029982734
58	0xbd21945b	-0.039448123
59	0x3bdba2c4	0.006702753
60	0x3d46687f	0.0484395
61	0xbd468563	-0.04846705
62	0x3d173064	0.036911383
63	0xbb334a11	-0.002735738
64	0xbce391b4	-0.027779438
65	0x3c3064e3	0.010766241
66	0xbc612282	-0.013741137
67	0x3d2c9d67	0.042142298
68	0x3d69e575	0.057103593
69	0x3c151366	0.009098863
70	0xbcafeb8c	-0.021474622
71	0xbd805b38	-0.062673986
72	0x3d13bb4c	0.036067292
73	0x3d27f967	0.041009333
74	0xbd2d4a6f	-0.042307314
75	0xbc514a9f	-0.012774139
76	0x3be61fbd	0.0070228265
77	0xbacfaa7a	-0.0015843653
78	0xbda7737a	-0.08176322
79	0xbd8c195a	-0.06840773
80	0x3d564e74	0.052320912
81	0xbceb1391	-0.028695853
82	0xbcc24f1e	-0.023719367
83	0x3d3b0a87	0.045664337
84	0xbcf1faad	-0.029538477
85	0x3c2994d0	0.010350421
86	0xbd2a7d21	-0.04162324
87	0x3c47748d	0.012173784
88	0xbd6ff318	-0.05858144
89	0x3c9a21d5	0.01881496
90	0x3c8b5c81	0.017011883
91	0xbce6a394	-0.028154172
92	0xbd2b4e9e	-0.041823022
93	0xbd2af673	-0.04173894
94	0x3cd0fa36	0.025509935
95	0x3c39b643	0.0113349585
96	0x3d491b5f	0.04909837
97	0xbd1e8add	-0.03870665
98	0xbc69199e	-0.014227299
99	0xbd43a25a	-0.047762252
100	0xbca6a676	-0.020343047
101	0x3d1c323a	0.038133837
102	0x3d31bec1	0.043394808
103	0xbcdf74c7	-0.027277363
104	0xbce9848e	-0.02850559
105	0x3ceed3f1	0.029153796
106	0x3be9c60b	0.0071342043
107	0xbc558936	-0.013033202
108	0x3c1320a8	0.008979954
109	0x3d4bdf27	0.04977336
110	0x3d067216	0.032823645
111	0xbd6c09da	-0.057626583
112	0xbd1ee80d	-0.03879552
113	0x3b959b9b	0.0045656688
114	0xbd0f6bfd	-0.035015095
115	0xbaa456d3	-0.0012538083
116	0x3bf8def0	0.0075949356
117	0x3d3afc28	0.04565063
118	0x3d41e7f1	0.047340337
119	0x3d16cafb	0.03681467
120	0xbd27d0ce	-0.040970616
121	0xbb38d611	-0.0028203765
122	0x3d293713	0.04131229
123	0xbd483acb	-0.048884194
124	0x39bb3022	0.0003570328
125	0xbd811202	-0.06302263
126	0xbcee7f6c	-0.029113494
127	0x3d3e60f4	0.04647918
128	0xbd113f1f	-0.035460588
129	0x3b7b1970	0.0038314722
130	0x3c898993	0.016789233
131	0x3ab96433	0.0014144242
132	0x3ceba907	0.028767122
133	0xbbe95956	-0.0071212454
134	0x3d44a82e	0.04801195
135	0x3ca452c1	0.020058991
136	0x3d519e65	0.051176447
137	0xbd5959f8	-0.053064317
138	0x3bc8effe	0.006132125
139	0x3cd5ec37	0.026113613
140	0x3be6492e	0.0070277667
141	0xbd06bf16	-0.032897078
142	0x3d1a2d68	0.03764096
143	0x3cb365de	0.02189916
144	0xbbaf0e11	-0.005342253
145	0xbcf7fcd0	-0.030271918
146	0xbcbb32dd	-0.022851402
147	0xbd0dd43f	-0.03462624
148	0xbd832200	-0.06402969
149	0x3bfb299a	0.0076648714
150	0x3cdb8c65	0.026800344
151	0x3d022d47	0.03178146
152	0x3b932ce6	0.0044914363
153	0x3d3b06b7	0.0456607
154	0xbd09e418	-0.033664793
155	0x3cc8e381	0.024522545
156	0x3beec3bd	0.0072865174
157	0x3d7e7efe	0.062132828
158	0xbcfc2805	-0.030780802
159	0xbd8cc978	-0.068743646
160	0xbd6538dd	-0.055962432
161	0xbd169291	-0.03676087
162	0x3baf8da6	0.005357462
163	0xbd6b0697	-0.05737933
164	0xbd411ef3	-0.047148656
165	0xbd49f1fc	-0.04930304
166	0xbbd7a066	-0.0065804003
167	0x3d163ee3	0.036681067
168	0xbd648184	-0.05578758
169	0x3d091ebb	0.033476572
170	0xbd6ffd2b	-0.05859105
171	0x3d1ab7ed	0.03777306
172	0xbd894045	-0.067017116
173	0x3c9be58b	0.019030353
174	0x3c82d0ce	0.015968706
175	0x3cbe60df	0.023239551
176	0x3d2f2b11	0.04276568
177	0x3d1057ce	0.035239987
178	0xbcb36330	-0.021897882
179	0xbd282468	-0.041050345
180	0xbd5bfafe	-0.05370616
181	0xbc2f2d7a	-0.010691995
182	0xbd98a414	-0.074531704
183	0xbd516bcb	-0.05112819
184	0x3c3499c1	0.011022986
185	0x3d21b024	0.03947462
186	0xbd89282a	-0.06697114
187	0xbd62af44	-0.055342928
188	0xbd1dc532	-0.03851814
189	0xbd4f8bc1	-0.05067039
190	0x3cce8c14	0.025213279
191	0x3adb0695	0.0016710336
192	0x3d382de7	0.04496565
193	0xbd87a0e5	-0.06622485
194	0xbd02e04d	-0.03195219
195	0xbd52dbe0	-0.05147922
196	0x3c9060aa	0.017624218
197	0x3cc7125f	0.024300752
198	0xbbc20cc0	-0.00592193
199	0xbd8b7363	-0.06809118
200	0x3c84d788	0.016216055
201	0xbc5eb4c6	-0.013592904
202	0x3c27190a	0.010198841
203	0x3d0ceee1	0.0344075
204	0x3cb182c0	0.021668792
205	0xbd300f47	-0.04298332
206	0x3d382d06	0.044964813
207	0x3c8e98f7	0.017406924
208	0xbd920726	-0.0713027
209	0xbd88c537	-0.06678241
210	0x3ce4c540	0.027926087
211	0x3ccff340	0.025384545
212	0x3ce003b6	0.02734552
213	0xbc906b0f	-0.017629175
214	0x3c528fdb	0.012851681
215	0x3c7d47ec	0.015459042
216	0xbd698863	-0.057014834
217	0x3c2192b3	0.009861636
218	0xbb850fb8	-0.0040607117
219	0xbd8494c6	-0.06473689
220	0x3d68be31	0.056822006
221	0x3c6cce7f	0.014453529
222	0xbcabf7a3	-0.020992106
223	0xbcfa0980	-0.030522108
224	0x3bda8781	0.0066689854
225	0x3d67a059	0.056549404
226	0x3cd75d3a	0.026289571
227	0x3bff4cde	0.0077911457
228	0xbcd8e05b	-0.026474169
229	0x3a060c1e	0.00051135
230	0xbd0ae041	-0.03390527
231	0x3d350f2e	0.04420393
232	0xbd6acbf0	-0.057323396
233	0xbc8d83a4	-0.017274685
234	0x3a8b621e	0.00106341
235	0x3b2e0756	0.0026554666
236	0xbccbe648	-0.02489008
237	0xbcb569d0	-0.022145182
238	0xbd6729da	-0.056436397
239	0xbc568b95	-0.013094802
240	0xbc49ab35	-0.012308885
241	0x3d77c076	0.06048628
242	0x3d162e79	0.036665414
243	0xbd74f2d1	-0.05980188
244	0x3d158f2e	0.0365135
245	0xbd61c1c2	-0.055116422
246	0xbb3a7a7b	-0.0028454352
247	0x3c940c1d	0.018072182
248	0x3d05d2cf	0.032671746
249	0x3caedcd8	0.02134554
250	0xbd812cfd	-0.06307409
251	0xbccca93a	-0.024983037
252	0x3cdff4ee	0.027338471
253	0xbd473d80	-0.048642635
254	0x3c55447f	0.013016819
255	0xbca2cf36	-0.019874196

fc2.bias f4 [128]
0	0xbd8d9039	-0.06912274
1	0xbd153851	-0.03643066
2	0xbd9aaf8d	-0.07553015
3	0x3bd4956c	0.006487539
4	0x3daa9b37	0.08330386
5	0x3d97fa69	0.07420809
6	0xbcde30e1	-0.027122917
7	0x3b68b761	0.0035509693
8	0x3d95e808	0.07319647
9	0xbcbb4e21	-0.022864403
10	0x3d7d70bf	0.0618751
11	0xbd9e10fc	-0.07718083
12	0x3b6e6029	0.0036373234
13	0x3d79fb34	0.06103058
14	0x3c32610d	0.0108873965
15	0xbc896352	-0.016770992
16	0x3c684567	0.014176703
17	0x3ca97725	0.020686695
18	0xbd6c2fd0	-0.057662785
19	0x3d0c0984	0.034188762
20	0xbd3544b3	-0.04425497
21	0xbd21c8b7	-0.039498057
22	0x3daa02cb	0.08301314
23	0x3c4b1775	0.012395729
24	0x3ace2e1b	0.0015730293
25	0x3b33e155	0.002744754
26	0x3d0e51a1	0.034745816
27	0xba930fce	-0.001121992
28	0x3c766400	0.01503849
29	0xbd797157	-0.060899105
30	0x3d008357	0.031375255
31	0xbd593d80	-0.053037167
32	0x3d381591	0.044942442
33	0x3d4137c1	0.04717231
34	0xbd9e4fd3	-0.07730069
35	0x3c13dda8	0.009025015
36	0x3b6b29bb	0.0035883028
37	0x3d167b47	0.03673866
38	0x3c97ae6d	0.01851579
39	0xbd5e3c32	-0.054256625
40	0xbc24a612	-0.01004936
41	0x3ce74bff	0.02823448
42	0x3d3b3508	0.04570487
43	0xbcfb1f1b	-0.03065448
44	0x3d355644	0.044271722
45	0xbd1becb7	-0.038067546
46	0x3d28c1e4	0.041200534
47	0x3d642162	0.0556959
48	0xbd957513	-0.07297721
49	0xbd112a71	-0.035440866
50	0x3d5a1b1f	0.05324852
51	0xbd83a2fc	-0.06427571
52	0xbc84d987	-0.016217006
53	0x3cce87ba	0.025211204
54	0xbd10f371	-0.035388414
55	0x3db1e574	0.08686343
56	0x3d66770d	0.05626588
57	0x3c4578a5	0.01205269
58	0x3c2011f7	0.009769908
59	0x3c66b415	0.014081021
60	0x3c9fdd79	0.019514786
61	0x3d534e1e	0.05158817
62	0xbc2cf720	-0.010556966
63	0x3d6905e3	0.05689038
64	0x3d39b587	0.045339134
65	0x3dc0ec3a	0.09420057
66	0x3d2201f8	0.03955266
67	0x3c8c9a1c	0.017163329
68	0x3ca6ac7f	0.020345924
69	0x3da94743	0.08265545
70	0x3cf4c17d	0.029877419
71	0x3d3f6a3d	0.046732176
72	0x3d736741	0.059424642
73	0x3cab3ebd	0.02090394
74	0xbd341f0a	-0.043974914
75	0xbd870d15	-0.06594292
76	0x3d988ff6	0.07449333
77	0xbd2dd2af	-0.04243725
78	0xbda49499	-0.08036155
79	0xbc9a7db2	-0.018858764
80	0xbd827055	-0.06369082
81	0x3ceea817	0.029132886
82	0xbd1df537	-0.038563933
83	0xbd82a8d8	-0.06379861
84	0x3d7edc9a	0.0622221
85	0xbcd3d1f6	-0.025856953
86	0xbd1480ee	-0.03625577
87	0xbd63d98c	-0.05562739
88	0xbcf62d3e	-0.03005087
89	0x3d33ac61	0.043865565
90	0x3c937770	0.018001288
91	0x3d3bc56f	0.045842584
92	0x3d36d66f	0.044638094
93	0x3d86ae8b	0.0657626
94	0x3d9da545	0.07697538
95	0xbd94ebf5	-0.07271568
96	0xbd909552	-0.070597306
97	0x3d14b97e	0.03630971
98	0x3c9f76dc	0.019465856
99	0x3d1ad480	0.037800312
100	0xbcea7572	-0.028620455
101	0xbd58e6cb	-0.052954476
102	0xbcf532b2	-0.0299314
103	0x3cf7edd4	0.030264772
104	0x3dc015c8	0.093791544
105	0xbbb5b6e6	-0.005545485
106	0x3c927263	0.01787681
107	0x3ca62b02	0.02028418
108	0xbd264568	-0.040593535
109	0xbc13f31b	-0.009030129
110	0xbd07e3ac	-0.03317611
111	0x3d04ff2e	0.03246992
112	0xbc137440	-0.008999884
113	0x3ca66815	0.020313302
114	0xbd415b8b	-0.047206443
115	0xbcad240b	-0.02113535
116	0xbd8ba266	-0.068180844
117	0xbd64c05a	-0.055847503
118	0xbd8e6c35	-0.069542326
119	0xbda44e06	-0.08022694
120	0xba43e624	-0.00074729533
121	0x3d47f482	0.048817165
122	0x3bede36f	0.007259778
123	0x3d2eb8d7	0.042656746
124	0xbce162e7	-0.02751298
125	0xbd845d32	-0.06463088
126	0xbd4b4ac0	-0.049631834
127	0x3da0d4f5	0.07853118

fc3.weight f4 [1, 128]
0	0xbd8190a2	-0.06326415
1	0xbaf1f09a	-0.0018458546
2	0xbd90ac33	-0.070640944
3	0x3d2d824a	0.04236058
4	0xbd062213	-0.03274734
5	0xbc465fb4	-0.012107778
6	0xbc0b2e5d	-0.008494941
7	0xbcf76bcf	-0.030202774
8	0xbda548e1	-0.08070541
9	0xbd0bf9cf	-0.034173783
10	0xbc05737f	-0.008145212
11	0x3cc8cb03	0.024510866
12	0xbd45dd8c	-0.048306987
13	0xbd61fa2f	-0.055170234
14	0xbdfca73a	-0.123365834
15	0x3d03e06f	0.03219646
16	0xbd6170b1	-0.05503911
17	0x3d909b3f	0.07060861
18	0x3d5ac219	0.053407762
19	0x3d07cc9a	0.033154108
20	0x3cbbc59b	0.022921374
21	0xbd47c12a	-0.0487682
22	0xbd9027b0	-0.0703882
23	0xbd22401a	-0.039611913
24	0x3d6acd8f	0.057324942
25	0x3d2aea4a	0.04172734
26	0xb9baeefb	-0.0003565474
27	0xbd82aa30	-0.06380117
28	0xbde12e50	-0.109951615
29	0xbc9b0d88	-0.01892735
30	0xb9a12365	-0.00030734684
31	0xbb4b40a3	-0.0031013868
32	0xbde5a3cf	-0.11212885
33	0xbbd2c105	-0.006431701
34	0xbd511882	-0.051048763
35	0xbd7bc6d5	-0.061468918
36	0x3d27a9d9	0.040933464
37	0xbda86841	-0.0822301
38	0xb7be6eb5	-2.2701317e-05
39	0xbb4c2c3a	-0.003115429
40	0xbc223761	-0.009900899
41	0xbbf38768	-0.007431913
42	0x3c0f4f3b	0.008746917
43	0xba9e75ec	-0.0012089587
44	0xbd494869	-0.04914132
45	0xbcff6095	-0.031173984
46	0xbbbea18f	-0.005817599
47	0xbd3562f7	-0.044283833
48	0x3d4cad4d	0.04996996
49	0xbb070a91	-0.0020605663
50	0xbd148e94	-0.036268786
51	0x3d7b348a	0.061329402
52	0xbb6a1a20	-0.0035721138
53	0x3be8f640	0.0071094334
54	0xbd56298c	-0.052285716
55	0xbdc940ac	-0.09826788
56	0x3d9df9b8	0.07713646
57	0x3bab235b	0.0052227206
58	0xbd6f6a03	-0.05845071
59	0x3cd22bd6	0.025655668
60	0xbcde042f	-0.027101604
61	0x3d7eb6ba	0.06218598
62	0xbbc555a8	-0.006022174
63	0xbd925822	-0.07145716
64	0x3c3ebf8f	0.011642351
65	0xbd4fdbb2	-0.050746627
66	0x3d6838e8	0.056694895
67	0xbbb82ce1	-0.0056205844
68	0xbd3ac9dd	-0.045602668
69	0xbd2c07bf	-0.041999575
70	0x3b9913d5	0.0046715536
71	0x3d6eb403	0.05827714
72	0xbd06271d	-0.032752145
73	0xbb4fae8c	-0.0031689731
74	0x3c94c992	0.018162522
75	0x3cb649c5	0.022251973
76	0xbd1ae0ac	-0.03781192
77	0xbd09178f	-0.033469733
78	0x3b5c3d46	0.0033605858
79	0xbbcdaefa	-0.0062769623
80	0xbb863281	-0.004095376
81	0xbd5fad54	-0.054608658
82	0xbab00f00	-0.0013432205
83	0xbabf997a	-0.0014617883
84	0xbdc442f6	-0.09583084
85	0xbd340e5c	-0.043959007
86	0x3d5a99b1	0.053369228
87	0xbd14e474	-0.036350682
88	0x3cdaa754	0.026691116
89	0x3bb1004c	0.0054016467
90	0xbd6c88b2	-0.05774755
91	0xbd52faf4	-0.05150886
92	0xbcfa654d	-0.030565882
93	0xbdab9814	-0.08378616
94	0xbd0180b6	-0.03161689
95	0x3c35591f	0.011068611
96	0x3b066db5	0.0020512168
97	0x3c3efa2e	0.011656327
98	0xbd11ee43	-0.035627615
99	0xbd9b085c	-0.07569954
100	0xbb994149	-0.004676972
101	0x3cf087ff	0.029361723
102	0xbd107eb8	-0.0352771
103	0xbdc9f3ed	-0.09860978
104	0xbdd65b40	-0.10466623
105	0x3a48db88	0.0007662107
106	0xbd54a974	-0.051919416
107	0xbd4a95e0	-0.04945934
108	0x3d51a283	0.051180374
109	0xbd23fbf6	-0.04003521
110	0x3d6000df	0.05468833
111	0x3d293508	0.04131034
112	0x3d4bd918	0.049767584
113	0x3d916629	0.07099564
114	0x3d87cddd	0.06631062
115	0xbc834711	-0.016025098
116	0xb9fd4c06	-0.00048312562
117	0xbd30cdcb	-0.04316501
118	0x3d710db9	0.058850978
119	0xbd6e431e	-0.058169477
120	0xbd7f934f	-0.062396344
121	0x3d8da7d4	0.06916776
122	0xbd765845	-0.060142774
123	0x3d8215d6	0.06351821
124	0x3d26bf89	0.040710006
125	0xbd4fbda7	-0.050717976
126	0x3c13fdfc	0.009032723
127	0xbd8655dc	-0.06559345
